model/lv1_bc_model_4.0.pth (torch, 46572 bytes, 8 tensors)

fc.0.weight f4 [64, 34]
00000000: ee03 213e 5f71 7a3e 386a e0bd 2d09 09be
00000010: e4af 42bd ef7e 1dbe a4a2 e03d c6f5 80bc
00000020: 076e ecbd 6968 0a3d 929a f33d e7c1 283d
00000030: 3671 b4be 9964 123e 7887 59be 8758 753e
00000040: 513b 4d3d e36f c8be cf55 863e 7f39 ed3d
00000050: 05f9 af3e ecc6 3f3d 4ba4 b8be c504 5ebe
00000060: ea24 6fbe 22bb 8c3d 6667 6a3e 2582 73be
00000070: d14b 923c 10c0 bb3d 6fa7 d8bd d5a9 f6bd
00000080: e6f5 43bd d8b7 03be cbba 893d 0ffa 5dbd
00000090: 6d1a f4bc 1957 013e 6466 4d3a 4477 b53d
000000a0: 24b6 d1bb dea5 af3c f309 063e 1ff8 a43d
000000b0: 266a de3d 0d7d cebe f810 76be 0275 8b3d
000000c0: e0d7 d4bd d3be 2ebe ef97 33be 4ebd 18be
000000d0: 38d4 4abd 90a4 da3d cda0 5ebe 5486 153d
000000e0: 5bbf cf3d e878 b13e 1d6c 953e 93cd 963d
000000f0: c01d 56be baea 873d aac3 7f3e 919d 803e
00000100: e963 5a3e 9ea8 80bc 8f71 38bd 0e8e 2c3e
00000110: af0c efbc 7cf2 58be bb60 4a3c 8be1 9ebd
00000120: 630b 0f3d c6f8 f23d 169e 91bb 0ea2 233e
00000130: b43e 5e3d 574b 53be b519 443e 4a0b b6bd
00000140: 42fd 803e 27f6 983c f36d 27be af51 bebe
00000150: a182 c6be 6006 a3be 8fca ba3d b7a8 973e
00000160: 8aaf f7bb e48d d6bd bc43 103d c776 a9be
00000170: 5546 da3e 6e05 163e 354c 833e ddc9 c4bd
00000180: f773 1cbe 1a28 da3c d4b6 873d c72b 853d
00000190: b729 a2be 23ac c43d 7c1c b2bd 5124 013d
000001a0: 17d0 053e 9fc4 473d a95f de3d 807b 8cbd
000001b0: be8b 193e 99e4 edbd e273 663d 9f3e 9e3d
000001c0: 46ae 9a3e 2ac8 983d bae3 8ebd e987 debd
000001d0: 6e04 5fbd 4eaa 09be 07b7 11be a6d3 94be
000001e0: ef2e db3d df71 023e ad54 9b3e cdf8 2f3e
000001f0: cb0d 02be d502 b4bd f71a d7be 7ab5 9ebd
00000200: 655d c53d 1cd1 e7bd 3f90 983e 6dd7 873d
00000210: 0aaf acbd 58cd 523e f255 60bd 13fa 81bd
00000220: ab23 d23d 221b 263e 7525 0bbd 4b5b d8bd
00000230: 1b03 083e 15f1 3d3c 88b9 2d3d cfc0 b7bd
00000240: 274b 95bd 8e33 9ebc 6c50 8bbe dae4 8dbe
00000250: d032 ce3c 9b93 73be 1d26 df3d f3b3 1abd
00000260: 1430 90be 8efe 0d3d e3a0 3cbd 6ad2 743e
00000270: 1637 603d b161 27bd a4d1 0b3d 6265 a1be
00000280: 29f1 123e d743 26be 7268 463d 0005 3a3e
00000290: 2450 5d3e fc2b 0fbe d87a d6bd 9a11 733e
000002a0: c439 973c 3ead 5a3e 011b b13d 854c 22bc
000002b0: 9deb a7be 2bfa 8abe d2fe 723d 43e6 c4bc
000002c0: 18ce 8dbd 3ef7 cc3d 02ab 713e 6bbf 72bd
000002d0: 2564 dd3d dca4 1bbe c1e6 dbbd 9ddc 9abe
000002e0: e078 153e baa6 b13d aa76 aa3d 9295 243e
000002f0: 9966 fd3d 9d61 dcbe 0ccd 84be 04ec b6bd
00000300: d0e8 1abd 0517 603e 01a2 19be ef31 a4bd
00000310: fe35 193d bc6f 8e3e 26c7 fdbe 3c97 263c
00000320: 331f 9ebe 7a64 ccbd 5eac 0f3e 0377 f9bd
00000330: 6545 c4bc df65 1cbe 77fb 8dbe 2f22 56be
00000340: 90ea 583e dce6 833d 8ce1 0b3e 370c 0f3d
00000350: 3a90 303e 6a3d 833b f024 17be cba8 143e
00000360: 8bab e63c 8f1b d83d 4009 5d3e c351 123e
00000370: f261 41be 31e8 bf3b c2e1 a6be b541 37be
00000380: b68f eebd 64e4 2f3e 19f5 623e ebc1 3d3e
00000390: afab 6b3d 79e2 30be 75d2 873e 7c2b d7bd
000003a0: d750 a93d f24e 663d 753b a23b 17e3 06be
000003b0: 138e d13d a083 44bc 4e7b 053e b2d4 81be
000003c0: c306 b4be 4d1e 01bf 37d5 5abe 8eab adbd
000003d0: 4869 bfbd bfcb 073e af21 45bd 1369 8c3d
000003e0: 78a7 ecbd 9b95 873e 93ac 7dbd 4a9d 833d
000003f0: 0961 a1bd 625c 823d 4a69 bd3d c6fc a0be
0.15724155 0.2445731 -0.109577596 -0.13382407 -0.047531024 -0.15380453 0.10968521 -0.015742194
-0.115444236 0.03379098 0.11894716 0.041200545 -0.35242623 0.14296187 -0.21243083 0.23959552
0.050105397 -0.39147863 0.26237342 0.11583232 0.34369674 0.046820566 -0.36062846 -0.21681507
-0.23353925 0.0687163 0.22891006 -0.23780115 0.017858418 0.091674924 -0.105788104 -0.12044112
-0.04784193 -0.128631 0.06725081 -0.054193553 -0.029797757 0.12630881 0.0007835387 0.08860639
-0.0063998867 0.021441396 0.13089733 0.08055138 0.1086009 -0.4032978 -0.2402991 0.06809427
-0.103927374 -0.17064981 -0.17538427 -0.14915964 -0.049518794 0.10675919 -0.21741028 0.03650506
0.1014392 0.34662557 0.29184046 0.07363429 -0.20909786 0.066365674 0.24976984 0.25120214
0.21327175 -0.015705403 -0.045030173 0.16851065 -0.029180853 -0.2118625 0.012352164 -0.07757863
0.03492297 0.11863856 -0.004443894 0.15979788 0.054259017 -0.20634209 0.19150431 -0.08888872
0.2519322 0.018672062 -0.16350536 -0.37171695 -0.38771537 -0.318408 0.09120666 0.29620907
-0.0075587677 -0.10476282 0.035220847 -0.33098432 0.42631784 0.14650509 0.2564408 -0.09608815
-0.15278612 0.02663045 0.066266686 0.065024905 -0.3167245 0.09603145 -0.08696839 0.031528775
0.13067661 0.048771497 0.108580895 -0.06859493 0.14994714 -0.11615867 0.05626286 0.07726788
0.30211085 0.07460053 -0.06977029 -0.108657666 -0.054447584 -0.13443872 -0.14229976 -0.29067725
0.10702311 0.12738751 0.3033804 0.17184754 -0.12700574 -0.08789603 -0.4201276 -0.07749458
0.09636954 -0.11319181 0.2979755 0.06632886 -0.084318236 0.20586145 -0.054769464 -0.06346526
0.102607094 0.16221288 -0.03397127 -0.10564288 0.13282435 0.011593123 0.042413265 -0.08972322
-0.07289725 -0.019311693 -0.27209795 -0.27713662 0.025170714 -0.23786776 0.108959414 -0.03776927
-0.2816168 0.03466659 -0.04605187 0.23908392 0.054740034 -0.04086465 0.034135476 -0.3152266
0.14349808 -0.16236816 0.04843945 0.1816597 0.21612602 -0.13981622 -0.10472649 0.23737183
0.018460162 0.21355149 0.08647729 -0.009905939 -0.32796946 -0.27143988 0.059325047 -0.024035579
-0.06924075 0.10008095 0.2360039 -0.05926458 0.10810117 -0.15199608 -0.10737372 -0.3024644
0.14596891 0.08674379 0.083234146 0.16072682 0.123730846 -0.43043223 -0.25937688 -0.08931735
-0.037819684 0.21883781 -0.15003206 -0.080173366 0.037405007 0.27819622 -0.49566 0.010167893
-0.30883178 -0.09980102 0.14030597 -0.12180903 -0.023958871 -0.15273236 -0.27730915 -0.20911478
0.21183228 0.06440517 0.13660258 0.03492376 0.17242518 0.004005124 -0.14760184 0.14517514
0.02815797 0.105521314 0.2158556 0.14289002 -0.1888502 0.005856537 -0.32594115 -0.17896159
-0.116485044 0.17176968 0.2216381 0.18531005 0.057536777 -0.17273892 0.26527753 -0.10506341
0.08267372 0.056227632 0.0049509355 -0.13172565 0.10232177 -0.0119942725 0.13035318 -0.25357586
-0.3516141 -0.5043686 -0.21370398 -0.08479987 -0.09346253 0.13261317 -0.048127826 0.06855979
-0.1155538 0.26481327 -0.061932158 0.06426485 -0.07879836 0.06365277 0.09248598 -0.3144285

fc.0.bias f4 [64]
00000000: 62d4 2c3e 59f0 ebbc 1580 0dbe 8c46 c53d
00000010: d1f7 e5b9 6161 c13d f0ef 013c 87a4 ddbd
00000020: aca1 d4bd 3e76 c4bb ba2f 1cbe 0f6a 44bd
00000030: 4921 c03d 3161 16bb 82ea 7838 52cf 06be
00000040: b5ae 40bd bc04 a7bc 2bf1 073d 81a5 a5bd
00000050: 60ac b23d cf11 2bbd 5b1d 0c3d e8d0 cb3c
00000060: 77aa 9e3b bd70 09bd a61b ff3c 697d 0ebe
00000070: 09db 183e ca94 d03d d271 b5bc bd46 acbd
00000080: 24c6 97bd b1e8 cdbd fe99 31be d2bf 103e
00000090: 8859 2abd ec99 9bbc 29c2 b7bd 9898 75bd
000000a0: 3e6c 0dbd cd8d 09bc 0031 0bbe 34ce 7e3c
000000b0: 1c2b b6bd c299 d3bd 04fd 553c 5147 08be
000000c0: 56c3 51bd da29 b63b f6ec 7fbd e62c e43d
000000d0: 7b52 4f3d ec22 033b bfe4 1d3e 776c 833c
000000e0: 1699 01bd 1a7f 07bd a20a 203b 4e07 fa3b
000000f0: e0a8 803d ed01 c23d 0701 43be 254b c4bd
0.16877893 -0.02880113 -0.1381839 0.096325964 -0.0004386292 0.09442402 0.007930741 -0.10822397
-0.10382399 -0.005995541 -0.15252581 -0.047952708 0.09381349 -0.0022946114 5.934621e-05 -0.13165024
-0.047041614 -0.020388 0.03318898 -0.08088208 0.08724284 -0.04176503 0.034207683 0.024879888
0.0048420983 -0.03355478 0.031141113 -0.13915028 0.14927305 0.10184629 -0.022149 -0.0841193
-0.07410839 -0.10054148 -0.173439 0.14135674 -0.04158929 -0.018994294 -0.0897258 -0.059959978
-0.034527056 -0.008395624 -0.13592911 0.015552092 -0.08894941 -0.10332061 0.013060812 -0.13308455
-0.051211677 0.0055591883 -0.062481843 0.11141376 0.05061577 0.0020009829 0.15419291 0.016042931
-0.031640135 -0.033080198 0.00244204 0.0076302653 0.0628221 0.094730236 -0.1904336 -0.09584645

fc.2.weight f4 [64, 64]
00000000: cbd4 063e 0459 afbe 7f37 223f eaff bc3d
00000010: d77a 3ebe 4933 0abd def8 55be c2d7 3bbf
00000020: 168f d03d 450a cebd 6c7c 703e 7e67 5ebf
00000030: ba50 0bbe 2255 813d f377 a8be 206d 8cbc
00000040: c1fb c43d 1629 8d3d a6d2 e63e 07be 0abd
00000050: e684 833d 5cd8 3b3d 8f1f 6bbe bc81 983d
00000060: 8483 9d3d ac89 5dbc abdb a2bd d628 65be
00000070: 2d87 a4be e68e 0b3e 36b7 fe3e ec47 553d
00000080: 459b df3e c92b 53be babb c13d a4d6 b0be
00000090: e98d 09bc 3743 893e e470 1abd 459e 87bd
000000a0: e6f3 acbb 023f d83d da0b a43d de06 f9bd
000000b0: d0eb f6bb cb1f c7bd afb6 92be c327 21be
000000c0: ca82 e8bd c924 d43c 364f 893d 36af bc3b
000000d0: 1572 4f3d 693e 093e caa5 3bbf 66ad aa3e
000000e0: 8e84 90be 1fb6 923c dc8a 1b3d 9b06 cabb
000000f0: fec2 103e 3ef1 70bd 70f3 6cbe ebe1 07be
00000100: 818b 54bd 9ffa e9bd e3d9 8a3d d5fb 0dbe
00000110: 6d8b 99bd becb 803e b084 413e 31be c7bc
00000120: 04d9 873c 1860 973e 51b7 09be 109b 2e3d
00000130: 7c29 ffbd 9077 27be f025 803d 18ba 13bf
00000140: c58b 00bd e342 a43e c4bd 15be 8a05 7fbd
00000150: 13c1 9ebd 9947 d1bd d256 d8bf 10a1 be3d
00000160: b4d2 853e 7bb8 743e 732f 4dbe 5476 a5bd
00000170: 3596 32be ed63 16bd 392f c9be 5fad 9dbe
00000180: 4838 05bc b484 0c3d 88c4 b3bd e58c debd
00000190: bae5 b23d 7731 babe db03 2d3e 5cde 5d3e
000001a0: 5d11 debd e9ea f43d 0ed8 cdbd 33bc 343d
000001b0: db27 343e f6da aebb b4a6 c73d 4449 963e
000001c0: 22d9 edbd f429 4cbd 73ae dc3d 1563 d83d
000001d0: f980 b13c caf3 253e 39e9 993e c622 d83e
000001e0: e37d 323e 6505 df3d 56a9 d8bc 40e1 afbe
000001f0: b4db 50be ed8d 8c3d 7acb b13d 2d5b 2f3d
00000200: 3121 c5bd 80ec dbbc 3993 733e 0544 41bb
00000210: 6aa3 113e 201e 72bd ae3f 083e 637f a83e
00000220: f287 b1bd 74f7 b6be 573d 55be 6f94 483e
00000230: 8cc6 b6bc bc73 5dbc 75fb 1b3e 764e 823c
00000240: ea09 323c 5e42 963d 6939 04be 7c58 1abe
00000250: bf57 c4bc ced4 8e3e 6f3a 253f 1efd f6bc
00000260: f2e5 ca3d ff72 b4bd 000a d23d 552f ccbd
00000270: 094a 243e 91aa b73d 553b 0a3f ce5b 9c3d
00000280: f011 41bd e01f 3d3e 77fe 07be a501 333e
00000290: 07ca 793e 20b9 613e 50d9 f3bc 528f 16bd
000002a0: 8f69 afbd 4548 6b3e e50c 5cbc f0bf 55bd
000002b0: 37e3 893d c248 5a3e 8bf2 1e3e 8352 84be
000002c0: c832 143d 5f4a 95be 55e7 72bd 8a53 0f3e
000002d0: 8546 253d 88e2 87bd 3a14 993d 1d79 003e
000002e0: 02a3 813e 144f 143e c153 7c3d 6200 acbe
000002f0: 1471 eb3d 429f 69bd 2b3b f23d f035 483e
00000300: c138 333e 89cf 0fbd be04 01be 49b3 923e
00000310: 7033 9a3b 6cfd 8abd 78ed 56bc a99a f13b
00000320: a73d 6d3d 2943 913e 6c92 00bf 314d 9dbf
00000330: 2eab 4a3c c252 6b3d ad76 2b3d 659c 35bc
00000340: 9aa1 013e e962 213e 6f4a 683e 1557 dc3d
00000350: cf4c 0d3e d391 a93d 9a3d f83e 9977 a9bd
00000360: 9a16 3c3f 13ae e23d 6997 6a3d 92f9 91bd
00000370: a1e2 d0be cac5 94bd 67af 2b3c 5fa9 e53d
00000380: 48b5 3dbe a634 12be 28be 66bc d8a9 d23e
00000390: 0dc2 a1bc 9199 5b3e 74b8 47be 4a00 183e
000003a0: d22c dabd c3ea 8fbd 23b3 59bc def2 06bd
000003b0: 198b cabd 2713 223e 06e5 38be 1b3d db3e
000003c0: 4ef3 863d 2688 67bd 4ce0 b83d 8500 9ebe
000003d0: 9a12 94bd e5a6 aabd ff67 2c3f 9199 b8be
000003e0: 8b25 debd 6e57 99be 2912 073e 4b9c 5dbe
000003f0: 0e87 803e a6d0 b53d 614f 24be 8b0c 36be
0.13167112 -0.342476 0.6336593 0.09228499 -0.18601547 -0.033740316 -0.20895717 -0.73376095
0.101835415 -0.100605525 0.23484963 -0.86876667 -0.13605013 0.06315066 -0.32904014 -0.017141879
0.09618331 0.06892602 0.45082587 -0.03387263 0.06421833 0.045860633 -0.22961257 0.0744662
0.076911 -0.013521593 -0.079520546 -0.22378859 -0.3213438 0.1362873 0.49749154 0.052070543
0.4367315 -0.20622171 0.09459634 -0.34538758 -0.00839565 0.26809093 -0.037705317 -0.066219844
-0.0052780984 0.10558893 0.08010073 -0.12159513 -0.0075354353 -0.09722861 -0.28655002 -0.15737824
-0.11353071 0.025896447 0.067045614 0.0057581915 0.050645906 0.13402714 -0.7329985 0.33335418
-0.2822613 0.017909108 0.037974223 -0.006165338 0.14136884 -0.058823816 -0.23139739 -0.13269775
-0.051890854 -0.11424755 0.0677984 -0.13865598 -0.074972965 0.25155443 0.18898273 -0.024382683
0.016582973 0.295655 -0.13448836 0.042628348 -0.124590844 -0.16354203 0.06257236 -0.5770583
-0.031383295 0.3208228 -0.14623171 -0.06226114 -0.0775167 -0.10218734 -1.6901495 0.09308064
0.26137316 0.23898499 -0.20037632 -0.0807921 -0.17440112 -0.03671639 -0.3929384 -0.30796334
-0.008131094 0.034306243 -0.0877772 -0.10866717 0.08735223 -0.36365864 0.16896002 0.21666855
-0.108431555 0.11958868 -0.10050975 0.044124793 0.17593329 -0.005336161 0.09748593 0.29352772
-0.116136804 -0.049844697 0.10775461 0.105657734 0.021667944 0.1620628 0.30060747 0.4221403
0.17430834 0.10889701 -0.026447933 -0.3435154 -0.2039631 0.06863008 0.08681388 0.04281156
-0.096254714 -0.02684617 0.2378663 -0.0029490006 0.14222494 -0.05911076 0.13305542 0.32909688
-0.08668508 -0.35735667 -0.2082418 0.19587873 -0.022311471 -0.013516363 0.15232642 0.015906554
0.0108666215 0.07336877 -0.12912525 -0.15072817 -0.023967622 0.27896732 0.6454229 -0.030149993
0.0990714 -0.08810996 0.102558136 -0.09969965 0.16043867 0.0896808 0.53996783 0.07634698
-0.047136247 0.1846919 -0.13280664 0.17481096 0.24393474 0.22043276 -0.029766709 -0.036757775
-0.085650556 0.22976787 -0.013430809 -0.052185 0.06732791 0.21316817 0.1552221 -0.258442
0.03618124 -0.29158303 -0.059302647 0.13996711 0.040350456 -0.06635004 0.07474561 0.12546201
0.25319678 0.14483291 0.06160331 -0.33594042 0.11496177 -0.057036646 0.11827692 0.19551826
0.17502119 -0.03511003 -0.12599465 0.2865241 0.004705839 -0.06786618 -0.01311814 0.0073731733
0.057920124 0.28371552 -0.5022342 -1.2289182 0.012369914 0.05745197 0.041861225 -0.011084651
0.12659302 0.15760387 0.22684644 0.10758797 0.13798831 0.08279767 0.48484498 -0.082747646
0.7347199 0.11068358 0.057273302 -0.0712768 -0.40797904 -0.07264288 0.010478831 0.112139456
-0.18526185 -0.14277896 -0.014083423 0.41145205 -0.019745851 0.214453 -0.19503957 0.1484386
-0.1065308 -0.07027199 -0.013287338 -0.03294646 -0.09889812 0.15827619 -0.18056116 0.42820057
0.065893754 -0.056526326 0.09027156 -0.3085977 -0.072301105 -0.08332614 0.67346185 -0.36054662
-0.108470045 -0.29949516 0.13190521 -0.21641652 0.2510304 0.08877687 -0.16045906 -0.17778222

fc.2.bias f4 [64]
00000000: c7bb 7d3b bbe7 7ebd ec6e f2bc 5504 bcbd
00000010: e4d0 8c3d f59e 3ebd 94b7 70bd 99a8 853d
00000020: a01d 033c 9f43 e83d c326 91bd 556a 723d
00000030: ea06 823d 3a18 db3c d303 c4bd 631b 8ebc
00000040: 00e3 1dbd 5f01 47bd 668e 63bc a836 05be
00000050: 8f16 bc3d 95ce b63d 84e3 ae3d 352c 1cbc
00000060: f4fd 073e 1ff2 8b3d 6feb 72bc 5f1c 223c
00000070: 9f34 c63c 7af0 053d b1bd 563d 9ac2 4e3c
00000080: b742 173e f032 003d 7e0c 9e3d 09f0 69bc
00000090: 0afc a43c 3856 9e3d c3ab 793d 61c2 ee3c
000000a0: 091f d43d 0f2e ee3d d1e7 de3d 4c82 42bd
000000b0: 5fd1 083c 9640 fb3d 3cac da3d 6695 f53d
000000c0: d997 82bd 7d70 ae3d 69c1 85bd cec7 873c
000000d0: 1f43 d33b 5c29 fabd d364 6cbd bf8c 79bd
000000e0: 671b d23d a6a5 d73c 9c2e c2bd 79d7 27bd
000000f0: 8489 d23d 32ed 593d 6295 413e 6a96 89bc
0.003871666 -0.062232714 -0.029593907 -0.09180514 0.0687578 -0.046538312 -0.058768824 0.06526298
0.008002669 0.11341023 -0.07087471 0.059183437 0.06348975 0.02674495 -0.09571042 -0.017347043
-0.038546562 -0.048585292 -0.013888931 -0.13009131 0.0918399 0.08926121 0.08539489 -0.009532024
0.13280469 0.0683329 -0.01482664 0.0098944595 0.024195014 0.03270004 0.052426998 0.012619639
0.14771543 0.031298578 0.077172264 -0.01427842 0.020139713 0.07731289 0.06095482 0.029145421
0.10357482 0.11629879 0.10884059 -0.047487542 0.008350699 0.12268178 0.10677382 0.11991386
-0.06376619 0.08517549 -0.06531031 0.016574766 0.0064472104 -0.1221492 -0.05771334 -0.06092524
0.10259133 0.026324105 -0.09481546 -0.040976975 0.10280135 0.053204723 0.18904641 -0.016795356

fc.4.weight f4 [64, 64]
00000000: 8616 36be 70f5 3dbe c8c1 f53d c7f8 413f
00000010: 45d8 c3bd c181 a5be 88e2 663d 52f0 11bc
00000020: 7b08 91bd c66e 8abe baf9 483d 18ef 083e
00000030: 4811 ccbd 2f0d 783c 01b8 823f f1fa a33e
00000040: d9a1 503d 919d 0cbd 200e 453e d841 2d3d
00000050: 26e4 adbd 5590 2fbe 5396 183e 1b6d c4bc
00000060: b7ee 503d 856f c9bc d4e8 b03d a3af c1bd
00000070: ffd2 633d 568a d6be 548a 6f3e 7049 fcbd
00000080: 28d4 b23e dd3f 5cbe f4a0 95bc e7f7 de3c
00000090: d570 833c b3ef e53c 8340 393c e1bf afbe
000000a0: b466 2d3e 90f4 783d ff41 c3be b772 123e
000000b0: 9770 af3e ac9a 1f3e 5db7 35bf 17b6 02bc
000000c0: 674c 8abd 4a23 1f3e a493 6f3e 984c 7abf
000000d0: 9dcd 3abd a89d 703e af53 f73c 0423 50be
000000e0: 6aa8 633e 52f7 f63d 07e4 ce3c 480d 19be
000000f0: 785f ecbd ca0e 67be 71a8 093e cd94 dcbc
00000100: b4f0 da3e 4920 cabd f76a 123e 3d2b 32be
00000110: 13c4 af3d 3e56 083e c6f9 3a3e 5982 a33d
00000120: 1f6f 7dbb 19c4 783d eea2 333d a2b9 bcbd
00000130: 294b 6d3c 907d 4fbc 833e 92bf c092 163f
00000140: ffba 8c3e ca30 273e 59b6 b63e f684 ce3d
00000150: 4ef3 2d3e 1463 d3bb e167 a7be ab71 a3bd
00000160: 3d8a 4c3e 6cf0 2c3b d150 423d 6f58 20bd
00000170: 6f00 a03a 6264 cfbd db04 dc3d da83 2abc
00000180: 2d14 8e3e e9ce 8abd d4d2 36bd 8e77 88bd
00000190: d962 6d3d 1e34 b13e da28 a33d f26a 92bd
000001a0: 66cf 65bd 0cb0 36be d755 1bbe 2046 423d
000001b0: e831 683f 986f e43b ce71 57be 6fda 36bd
000001c0: f6fc 903d 921d 8b3d 05d3 473e a3c9 993d
000001d0: 85b6 2a3d fef2 0abe 9bd7 133e 8415 7abd
000001e0: 21f3 4e3e a04a 063e 1ebc 953e 950f 1dbd
000001f0: 3bf1 4a3f 5b94 96bd 34d3 4c3e 51c4 4abd
00000200: 3391 89be d92f aebe a127 043e b04d b0be
00000210: 741d 8fbd f96b cb3d 18bc 9e3d 16c3 c5bd
00000220: 63df bb3d 3ffe 0b3e 34a4 543d 6d85 23be
00000230: 7d6b 3ebd 477d 583e d10e ae3e d780 933e
00000240: 5957 863e ed7d b23d faba a13e c229 d0bd
00000250: a17d 1cbe 7855 0f3d 3b00 b73e 4940 41bd
00000260: 2608 353e ed66 a03d 7c01 e5bc 1773 29be
00000270: 0ef8 ad3d be61 a4bb 989e 043d 2b06 993d
00000280: f6e1 d03d 7711 6abd 543a f33b 93c8 6abd
00000290: 3f92 6b3e 3702 d23e 9c74 77bc 931c 56be
000002a0: 75d5 0e3e 468e 72be 62d4 e23d 06b6 b9be
000002b0: 60fa 40bf 944a a33d 84e4 29be a207 12be
000002c0: f07c dcbd 1474 343e 0b39 133e 1bb9 e8bc
000002d0: f591 ad3c 0f92 223a 4e28 e43d 9cb9 96bd
000002e0: e6bf 583d e3b0 043d a269 e13d fb68 8cbe
000002f0: d3c0 28bd 8b82 9dbc 2724 753d 951a 513e
00000300: 1d24 8b3c 0640 cfbc d2d0 8b3d 74ae 96bc
00000310: 2919 843d 1bf4 f2bd ff68 9cbd df83 b23d
00000320: e01b b7bd 4640 6dbd 2e27 913d 8243 e3bd
00000330: 4010 17be 12a0 dd3c bf62 78bc fb69 debc
00000340: 61d9 fbbd 8284 563d 82a1 8a3d d88d 5f3d
00000350: cf98 273d 12ab bfbd a232 f7bd 3031 0dbe
00000360: 0202 c1bd 97d8 703c 41d9 b4bc b0f5 e33d
00000370: 388e 76bd 3c4f 32bd 1acf 643c ec83 2dbd
00000380: 6bb3 36bd 4e5d f4bd a452 133d 9f71 e3bd
00000390: 97de 273d d398 c73b 76b7 d7bd 49b5 71bc
000003a0: 42e7 ca3d 8687 2cbd 3d8d 513d 985e 77bd
000003b0: e407 3bbd d73b 903c 082e 01be 2cc6 07bd
000003c0: d9a0 bdbd 1f77 bcbc cea7 a23d d89a 68bd
000003d0: c8a8 af3c 9499 423d 7333 3c3d 306c ae3c
000003e0: 25c6 c7bd 0da3 9fbd 4a70 cbbd 71ce 90bd
000003f0: 1f67 b93c a977 e8bc 2e99 10be 3163 e3bd
-0.1778203 -0.18550658 0.119998515 0.7577023 -0.095627345 -0.32325557 0.05636838 -0.0089073945
-0.07081696 -0.27037638 0.049066283 0.13372457 -0.09964234 0.015139862 1.0212404 0.3202739
0.0509356 -0.034329955 0.1924367 0.04229912 -0.084907815 -0.17144902 0.14901094 -0.023977807
0.051008906 -0.02458931 0.086381584 -0.09457328 0.055621143 -0.41902417 0.23392612 -0.123186946
0.34927487 -0.21508737 -0.018265225 0.027217818 0.016045013 0.028068399 0.011306885 -0.3432608
0.1693371 0.060780108 -0.3813629 0.14301573 0.34265587 0.15586346 -0.70982915 -0.007977984
-0.06752854 0.15540805 0.23396164 -0.9777312 -0.045606244 0.23497641 0.03019127 -0.20325857
0.22232214 0.12058891 0.025255216 -0.14946473 -0.11541647 -0.22564235 0.13443162 -0.026926422
0.42761767 -0.09869439 0.14298616 -0.17399307 0.0858232 0.13314149 0.18259344 0.07983846
-0.003867097 0.06073389 0.043856554 -0.09215094 0.014483252 -0.012664214 -1.1425327 0.5881767
0.27486417 0.16327205 0.35685995 0.10083954 0.16987345 -0.00645102 -0.3269644 -0.07980665
0.19974609 0.002638842 0.047440354 -0.039146837 0.001220716 -0.101265684 0.107431136 -0.010407412
0.27749768 -0.06777746 -0.044634655 -0.06663428 0.057955597 0.34610075 0.07966776 -0.071493044
-0.056105994 -0.17840594 -0.15169464 0.047430158 0.9070115 0.006971311 -0.21039507 -0.04464191
0.070794985 0.067927495 0.19514091 0.07509162 0.04167797 -0.13569257 0.14437716 -0.061055675
0.20209934 0.13114405 0.29245085 -0.03834494 0.7927434 -0.07352515 0.20002443 -0.04950363
-0.2686859 -0.3402088 0.12905742 -0.3443427 -0.069880396 0.099327035 0.0775072 -0.0965635
0.09173467 0.13671206 0.05191441 -0.15968867 -0.046489228 0.2114154 0.3399568 0.28809234
0.26238516 0.08715425 0.31587964 -0.10164215 -0.15282299 0.03499362 0.35742363 -0.047180448
0.1767889 0.078321315 -0.02795481 -0.1654781 0.08494578 -0.0050165346 0.03237781 0.074718796
0.10199349 -0.057145562 0.0074227247 -0.05732019 0.23005007 0.41017315 -0.015103485 -0.20909338
0.13948615 -0.23687086 0.11075665 -0.36271685 -0.7538204 0.07973209 -0.16591078 -0.14260724
-0.107660174 0.17622405 0.14377229 -0.028408578 0.021187762 0.0006201574 0.111405 -0.07359621
0.052917384 0.032395255 0.11006476 -0.27423844 -0.041199517 -0.019227287 0.05984893 0.20420296
0.016984994 -0.025299083 0.06826939 -0.018393733 0.064501114 -0.11862966 -0.07637214 0.08716559
-0.089408636 -0.057922624 0.07087551 -0.110968605 -0.14752293 0.027053867 -0.015160262 -0.027150145
-0.12297321 0.052372463 0.067690864 0.054578632 0.040917214 -0.09358801 -0.12070204 -0.13788295
-0.09424211 0.014700077 -0.022076251 0.111308455 -0.060194224 -0.043532595 0.0139653925 -0.04236214
-0.0446047 -0.11931859 0.035967484 -0.11105656 0.040983763 0.006091216 -0.10533039 -0.014752694
0.0990739 -0.042121433 0.051160086 -0.060392946 -0.045661822 0.017606659 -0.12615216 -0.033147976
-0.09259195 -0.02300602 0.079421625 -0.056788296 0.021442786 0.047509745 0.045947503 0.021291822
-0.0975459 -0.07794771 -0.09933527 -0.070706256 0.02263218 -0.02837737 -0.14120933 -0.11102904

fc.4.bias f4 [64]
00000000: c80e 963d 02dc 77bb 2e07 833c 1d9a 773c
00000010: cde8 b83d 0c21 43bb efb6 d03d c5e7 cd3d
00000020: a790 a83c 8272 b8bb 811b bc3c 51a7 153e
00000030: d7bf fdbd a678 993c 07c5 6abd 10d2 6f3d
00000040: 3277 fbbd f945 8abd a63c c13d a6e3 7b3d
00000050: 2f06 eb3d 80b3 d83d e501 39bd 0021 dabb
00000060: 19a1 32bd d98e dfba 4c1e 233b 2f51 4bbc
00000070: dd23 913d 5548 c7bd 138b 013c 119a aebd
00000080: b8d5 8a3b 056d 4c3d 0d33 103e c715 07bd
00000090: 47a8 58bc e47f ae3d 06a3 46bd 4e6c 0d3e
000000a0: 359f 8bbd a957 db3d 3b1d 2e3e bbd5 4b3d
000000b0: a54b 353e 1535 b53c daed d5bd faa5 7b3d
000000c0: 16b5 b7bc 0651 fb3d b981 a93d f2c9 ff3d
000000d0: b83f 2e3d 331d 353e 5b67 0a3e b3cb bc3d
000000e0: 52f4 473c a47f b2bd da24 0a3e 783c 163e
000000f0: 3ab4 7f3d ff02 093e 6837 783d 641c fcbb
0.07327038 -0.0037820344 0.015994634 0.015112427 0.09028778 -0.0029774336 0.10191142 0.10053972
0.020576788 -0.005628885 0.022962334 0.14614607 -0.12390106 0.018734287 -0.057316806 0.05854994
-0.12278594 -0.067516275 0.09435396 0.0614964 0.11475789 0.10581112 -0.045167822 -0.006656766
-0.043610666 -0.0017056122 0.0024889885 -0.012409492 0.070869185 -0.09730593 0.007906693 -0.085254796
0.004236903 0.049908657 0.14081974 -0.032979753 -0.013223714 0.08520487 -0.048495315 0.13810846
-0.06817476 0.10710079 0.17003338 0.049764376 0.17704637 0.022120038 -0.10445757 0.061437584
-0.022425216 0.12271313 0.08276696 0.1248969 0.042541236 0.1768692 0.1351599 0.0921854
0.012204247 -0.08715752 0.1349062 0.14671504 0.062427737 0.13380049 0.060599715 -0.007693814

fc.6.weight f4 [4, 64]
00000000: b74b b7be 09b5 90be 4da2 9dbd 02b1 e33c
00000010: 562f 3d3e 7491 ea3d bcab 153e 02f0 243e
00000020: fe6b 793e a8f9 8dbf 12c5 4ebe dd57 53be
00000030: 7ee0 6ebd bdaa 203e 62bc cbbf d506 0f3e
00000040: 1fe8 643c 5f03 16be dfac 9f3e 3510 0dbe
00000050: a0c9 eebe 777a 3dbe 93e5 5bbd ecf1 b33e
00000060: d972 a2bc b99e 323e 4825 683e 2bce d5be
00000070: ad00 093e b99a 54bd 7da3 bebe a8fa 8c3d
00000080: 438f d43d 5792 213f ce57 703e 8b0c 17bf
00000090: ecaf 15be e5f4 99bd d650 1cbe 8c5e 98be
000000a0: f9ef 2e40 6e92 bebe 52b0 5c3e 4736 c53e
000000b0: b975 0e3e 7235 ce3d eb2e bdbc 0f0d 02be
000000c0: d01e 513e c07f 52bd 9cae 303d 6667 013f
000000d0: d765 15be 49b3 493e 2656 2c3e 7e7c 79be
000000e0: fad5 983d c541 b9be a589 103d b819 19be
000000f0: 7b86 99bd eb1f f2bd 0af4 bfbd e6d7 1c3e
00000100: 9bdb 0abe 52a2 543e 9329 82be 667b 5fbd
00000110: ff47 a1bd cc95 adbe 4384 293e f3aa d7bd
00000120: c07b 11be 6175 2cbc 48e9 07bd c6fc 473c
00000130: 5842 adbd 4e90 a13e 9dd9 1b3f c71e e5be
00000140: 6a31 823d cf61 fdbe b4aa c5be 6b7b cbbc
00000150: 59f9 d83d 789d 333e 663a 5a3e a605 3ebf
00000160: c829 cbbc 7665 04bf ae48 8bbd 490c 633a
00000170: da72 503e 4c4b c43c f382 36bd 8ecc 373e
00000180: b4ef f8be 2ccc c4bf 5961 9bbe d88e 1f3e
00000190: 841d 923e da41 f83d fab6 c03d 935d a73d
000001a0: 24bc 95bf 2c69 98be 925b 91bd a35c 56bd
000001b0: a74f 413e 49df 373e cbe9 b4bc 3578 7bbd
000001c0: a472 02bd f7ac c4be 31df a63e eecc a8be
000001d0: 3179 67be d8e5 6ebd 5497 af3d 002b c6be
000001e0: 2a34 813e 9444 073c 7223 7b3e 43e4 1d3d
000001f0: d8ad 2abf a48a 5c3e f2b1 103d b99b f7be
00000200: 63a2 e6be 0896 fd3d 9293 943e 7052 58bd
00000210: b390 5f3e cd91 b4bb 7d45 a9be 02ea 48bd
00000220: 9687 903e 6159 4c3e d81d 84bf 5502 393e
00000230: 32d6 533d d80f a1be d12a c93d f47b f73c
00000240: bf3b 993c 3780 1d3f 4e06 97bd 1b19 0fbe
00000250: 56f7 a63d 155d 243e 115e 173e c8bd af3e
00000260: 47c0 423d aff9 c23d 227c 37bd a43b 853e
00000270: 9e20 c5be 39b4 c23e eb8c 253e 5324 b9be
00000280: ff87 0b3e e9a1 153c 7043 c23e aa8f 603e
00000290: 71fc 0a3e 76d8 253e 1e3e 203e e45c 0c3e
000002a0: b7f2 febf d545 1ebf 9cf2 34bf 140d 3fbf
000002b0: 13a3 2cbe 874c 74bf 9a13 f7bc 1d18 c43d
000002c0: 7ce9 213d de81 d93e 8652 b7be bfcd 103e
000002d0: 7e25 b73e 1195 1fbf e25d febe e72b 253e
000002e0: 2593 65bc 73b1 473d 1c5c f5be e5b0 97bd
000002f0: 47b4 64be 4688 c3be 9abc 833d 3b41 c43d
00000300: d55e 213f 1c5f 5c3e bb76 5f3e e3a1 a2bd
00000310: dddd 94be 3cac 3e3e 1a65 b1bd 3602 82be
00000320: 67f4 6fbf 0064 7b3e 0d2f 463f adb8 753d
00000330: 0ee3 b1bd 12d6 10bf b79e bfbe 5def cf3d
00000340: 5d94 23bd 92e1 e6be d26d bf3c 49b0 a23e
00000350: 1ebf 8b3d 66f5 71be 60df e4be 20b0 c6be
00000360: e18b da3d dfb6 e23d 9581 88bd 729d 303a
00000370: cc8e 8b3a 4b8a 0abf 8203 dd3d 9c46 ccbd
00000380: 985a 483e 4f2c 9abe 36e7 04bf 41ea 293d
00000390: 32d0 95be dcf7 bbbe f1e8 0fbf dc34 d73c
000003a0: 0368 1ec0 1396 e03e 9b2d 473e c43d a53e
000003b0: 1ec3 7dbf b876 9a3e cc30 b83d 45b8 b7be
000003c0: 9d06 94be 53cb 75be a21e 3ebe 9e8d 4ebf
000003d0: 951d 44be 2ef4 4c3e 7bbe 2ebd e564 da3d
000003e0: 822c 58bf 8106 95bc 315b 2b3e 2251 303e
000003f0: 94a3 ea3e 1b71 30bd 8c38 4b3d fa6e b93d
-0.35799953 -0.2826312 -0.07696972 0.027794365 0.18475088 0.11453524 0.14616293 0.1610718
0.24357602 -1.1091814 -0.20192364 -0.20638986 -0.05831956 0.15690131 -1.5916865 0.1396745
0.013971358 -0.14649723 0.31186578 -0.13775714 -0.46638203 -0.18503748 -0.053685736 0.3514551
-0.019830154 0.1744336 0.22670472 -0.41758856 0.13379164 -0.051905368 -0.37234107 0.068837464
0.103788875 0.6311392 0.23470995 -0.59003514 -0.1461789 -0.07517413 -0.15265211 -0.29759634
2.7333968 -0.37221092 0.21551636 0.38517973 0.13912095 0.10068788 -0.023093661 -0.12700294
0.2042191 -0.051391363 0.04313527 0.505484 -0.1458963 0.19697298 0.16829738 -0.24363896
0.07462688 -0.3618299 0.035287518 -0.14951217 -0.07496353 -0.11822494 -0.09372719 0.15316734
-0.13560335 0.20765045 -0.25422344 -0.05456104 -0.0787506 -0.33903348 0.1655436 -0.10530653
-0.14207363 -0.010526032 -0.03318146 0.012206262 -0.0845992 0.31555408 0.60878927 -0.44750044
0.06357081 -0.49488685 -0.386068 -0.024839124 0.10594434 0.17540538 0.2131134 -0.7422737
-0.024800196 -0.5171732 -0.06800972 0.00086611934 0.20356312 0.023961686 -0.044558477 0.17949125
-0.4862038 -1.5374808 -0.30347708 0.15581834 0.28538144 0.12121935 0.094099 0.08172145
-1.1698041 -0.2976774 -0.07097544 -0.05233444 0.18878041 0.1795627 -0.022084137 -0.061393935
-0.03184761 -0.38413212 0.32592157 -0.3296885 -0.22604825 -0.058324665 0.085737854 -0.3870468
0.2523511 0.008256096 0.2452524 0.038547765 -0.66671515 0.21537262 0.035325952 -0.48360994
-0.45045766 0.12382132 0.29018837 -0.052812994 0.21832542 -0.005510545 -0.33060828 -0.049051292
0.28228444 0.1995597 -1.0321608 0.18067296 0.051717944 -0.314574 0.0982262 0.030210473
0.018705247 0.61523765 -0.073742494 -0.1397442 0.08152644 0.16051133 0.14781977 0.3432448
0.04754665 0.095202796 -0.044796117 0.26022065 -0.38501447 0.38028124 0.16167037 -0.36160526
0.13626097 0.009132841 0.37942076 0.21929803 0.13572861 0.16195855 0.15648696 0.1370731
-1.9917821 -0.61825305 -0.7068269 -0.7462933 -0.16859083 -0.9542927 -0.030160714 0.09574912
0.03952931 0.42481893 -0.35805148 0.14140986 0.35770792 -0.6233683 -0.49681002 0.16130029
-0.014012133 0.048753213 -0.47921836 -0.07406787 -0.22334395 -0.38189906 0.06432457 0.09582754
0.6303533 0.21520656 0.21822636 -0.07941034 -0.29075518 0.1862039 -0.08661862 -0.25392312
-0.93732303 0.24549866 0.77415544 0.059990574 -0.08685885 -0.56576645 -0.37425777 0.10153077
-0.039936412 -0.45093971 0.023367796 0.3177512 0.06823562 -0.23628768 -0.44701672 -0.38806248
0.10671211 0.11070036 -0.06665341 0.00067373284 0.0010647415 -0.5411727 0.10791685 -0.09974405
0.19565809 -0.3011193 -0.519153 0.041483168 -0.29260403 -0.3671254 -0.56214815 0.026270323
-2.4750984 0.43864498 0.19450991 0.32273686 -0.9912585 0.301687 0.08993682 -0.35882774
-0.28911296 -0.24003343 -0.18566373 -0.8068484 -0.1915191 0.20015022 -0.042662125 0.10663775
-0.84442914 -0.018191578 0.16734006 0.1721845 0.45827925 -0.043076616 0.049614474 0.0905437

fc.6.bias f4 [4]
00000000: c986 83bc 3b3a 0bbc 3902 1abe 2db8 1f3d
-0.016055482 -0.00849777 -0.1503991 0.038994003
