model/lv1_bc_model_3.1.pth (torch, 302390 bytes, 10 tensors)

fc.0.weight f4 [128, 191]
0.21204624 -0.08129631 0.02879164 0.041226704 -0.061789528 0.017071562 0.04868478 0.055222455
-0.02533254 0.009799029 -0.039678518 -0.04878852 0.053989436 0.0063055037 -0.041193325 0.036378924
-0.07118843 0.052353557 0.015363323 0.012702691 0.045634527 0.043163802 0.025341578 -0.06944025
0.03964887 -0.052740272 -0.0025767842 -0.051941957 -0.030938085 -0.0060004727 -0.023522545 -0.01265943
0.0711376 0.009425894 0.0006382552 -0.033547435 -0.007360061 0.044257846 -0.0011950447 0.04901916
-0.045225102 0.053150933 0.014726255 0.040094074 0.050108768 0.039923597 0.0044794977 -0.05876677
0.03984021 0.032426957 -0.060113583 -0.00039575004 0.021176942 -0.0074260132 -0.065592244 0.06605666
-0.01804984 0.0008146512 -0.038794234 -0.0052883965 -0.030137613 0.00070689974 0.05261438 0.04786564
-0.058984246 0.051842008 -0.05605362 0.03818295 0.06404594 -0.014914417 -0.02294195 0.018627789
-0.064379014 0.052231718 -0.029027127 -0.0485996 0.005484829 0.021772755 -0.009835079 -0.022052987
0.0082047535 0.01176831 -0.06642363 -0.027953247 0.054866 -0.032386053 -0.050655413 -0.03231824
-0.05438281 -0.024775986 0.058764774 -0.0338703 -0.0030077435 0.062827155 -0.058166392 -0.0016588651
-0.038231634 -0.06941185 0.027623633 0.0048775515 -0.07544064 -0.0030681032 -0.0064704 0.040791504
-0.04699813 0.066904135 0.0660535 0.05268409 -0.045389596 0.042077497 0.03157861 -0.0018475088
-0.016410131 -0.005286946 -0.061930288 -0.06366809 -0.05269285 -0.01642987 -0.016269915 0.053219963
0.012417247 -0.015249438 0.04816314 -0.049109094 0.024369922 -0.046713438 0.030147973 0.0606149
-0.030971136 0.05322681 0.049650345 -0.045583304 -0.036922712 -0.039537363 -0.03224184 -0.07328644
-0.013225821 -0.049280986 0.020034533 -0.052269842 0.0017499093 0.0604906 -0.003344693 0.021976441
-0.016983328 0.019692853 0.022062767 -0.02719834 0.0015483845 0.04479788 0.018543439 0.04033779
0.042254303 0.05333529 -0.032967 -0.047795583 0.043516602 0.022942483 0.0375503 0.042134937
-0.053916577 -0.052530754 -0.059816886 0.066953965 0.04339168 0.017143786 -0.062778965 0.019085996
-0.022706766 0.017491817 -0.040761214 -0.04120179 0.0078720655 0.014057723 0.022691492 0.01816902
-0.018013708 0.040040035 0.108459085 0.29650384 -0.15600432 -0.23508184 0.16728328 -0.29274076
-0.0077486653 1.0663948 -0.23853348 -0.051640306 0.0396938 0.007793251 0.018259682 -0.10953461
-0.0062335036 0.041936655 -0.022729224 0.024765404 -0.043788925 -0.0123958085 -0.008932268 -0.018887907
0.0054115187 0.04686448 -0.0126091745 -0.070803806 -0.073141664 0.030207552 0.0048050825 -0.04332173
-0.058752853 -0.066479236 0.038434185 0.03118037 -0.049763635 -0.00016889906 0.03833887 -0.0049808137
0.0009448054 0.033818252 0.022908283 -0.076261915 -0.004053751 0.06394542 0.0651771 0.017529584
-0.046985373 -0.07351734 0.04303313 0.005674612 -0.004232553 0.038706426 -0.07957955 -0.0014927777
0.042137988 0.036933295 -0.055115826 -0.0750041 -0.040769342 -0.0397909 0.032245204 -0.02018996
-0.021624548 0.016262023 0.06335841 0.000624013 0.035561167 -0.00258949 0.054236732 0.044013016
0.020928185 0.033233035 0.06803121 -0.040223107 0.032754585 0.011459365 -0.050067358 -0.008782795
00000000: a622 593e ae7e a6bd 72dc eb3c 55dd 283d
00000010: 0417 7dbd a9d9 8b3c b169 473d f130 623d
00000020: 3086 cfbc 1b8c 203c f185 22bd 79d6 47bd
00000030: 0724 5d3d 669e ce3b 55ba 28bd 1102 153d
00000040: 3dcb 91bd af70 563d 72b6 7b3c f31e 503c
00000050: 45eb 3a3d 87cc 303d 2499 cf3c b136 8ebd
00000060: da66 223d 2f06 58bd 44df 28bb 17c1 54bd
00000070: de71 fdbc 9d9f c4bb 5ab2 c0bc 7f69 4fbc
00000080: 97b0 913d 116f 1a3c 9550 273a 0969 09bd
00000090: ab2c f1bb b747 353d 0ca3 9cba 51c8 483d
000000a0: f53d 39bd cbb4 593d 6446 713c af39 243d
000000b0: da3e 4d3d ed86 233d c0c8 923b 6db5 70bd
000000c0: 7d2f 233d 21d2 043d a939 76bd ac7c cfb9
000000d0: 447b ad3c ea55 f3bb 3a55 86bd b748 873d
000000e0: 42dd 93bc 518e 553a b4e6 1ebd 494a adbb
000000f0: 28e3 f6bc 3d4f 393a 2d82 573d c30e 443d
00000100: 7799 71bd 4958 543d 7b98 65bd ba65 1c3d
00000110: 852a 833d 995b 74bc c2f0 bbbc 4e99 983c
00000120: 25d9 83bd edf0 553d 4cca edbc 6010 47bd
00000130: 15ba b33b c75c b23c 5023 21bc 77a8 b4bc
00000140: 3b6d 063c dfcf 403c 1d09 88bd 35fe e4bc
00000150: 2cbb 603d 3da7 04bd 0d7c 4fbd 2160 04bd
00000160: 82c0 5ebd 02f7 cabc 55b3 703d 95bb 0abd
00000170: 901d 45bb 86ab 803d e23f 6ebd 476e d9ba
00000180: c698 1cbd cd27 8ebd f54a e23c ded3 9f3b
00000190: 9f80 9abd 3b12 49bb a605 d4bb fe14 273d
000001a0: 1c81 40bd 0905 893d 0f47 873d 46cb 573d
000001b0: 71ea 39bd 7459 2c3d 9358 013d 1c28 f2ba
000001c0: 8a6e 86bc 1e3e adbb 9daa 7dbd 6a64 82bd
000001d0: 75d4 57bd ef97 86bc 7c48 85bc 2dfd 593d
000001e0: b571 4b3c c7d8 79bc b646 453d 9e26 49bd
000001f0: 6ea3 c73c 9756 3fbd e2f8 f63c 5447 783d
00000200: 2eb7 fdbc 5b04 5a3d 295e 4b3d 8fb5 3abd
00000210: 453c 17bd eef1 21bd 0510 04bd 3317 96bd
00000220: 1db1 58bc dcda 49bd 761f a43c e718 56bd
00000230: 365d e53a fec4 773d a332 5bbb f007 b43c
00000240: 9f20 8bbc e852 a13c fabc b43c 0ecf debc
00000250: 2af3 ca3a fb7d 373d 69e8 973c 3d39 253d
00000260: d912 2d3d 1b76 5a3d 6808 07bd 4dc5 43bd
00000270: 773e 323d e0f1 bb3c 58ce 193d af95 2c3d
00000280: a1d7 5cbd 7d2a 57bd 8d02 75bd 291f 893d
00000290: 79bb 313d 2071 8c3c 4292 80bd 3c5a 9c3c
000002a0: 8a03 babc 004b 8f3c 3bf5 26bd 35c3 28bd
000002b0: d6f9 003c 5d52 663c 82e3 b93c 32d7 943c
000002c0: 7c91 93bc 0501 243d cc1f de3d 5acf 973e
000002d0: 99bf 1fbe 4bb9 70be 4f4c 2b3e 1ee2 95be
000002e0: 84e8 fdbb a07f 883f 1f42 74be c984 53bd
000002f0: f795 223d 875e ff3b 5495 953c ae53 e0bd
00000300: 6b42 ccbb c5c5 2b3d a332 babc d1e0 ca3c
00000310: 045c 33bd ca17 4bbc a658 12bc d0ba 9abc
00000320: 1c53 b13b f8f4 3f3d b696 4ebc 9601 91bd
00000330: 4ccb 95bd d475 f73c f473 9d3b 2072 31bd
00000340: d5a6 70bd 4426 88bd 2a6d 1d3d fa6d ff3c
00000350: f4d4 4bbd 7f1a 31b9 3809 1d3d 1836 a3bb
00000360: d1ac 773a 0285 0a3d 27aa bb3c 352f 9cbd
00000370: 54d5 84bb d1f5 823d 927b 853d 349a 8f3c
00000380: bc73 40bd 4290 96bd 8243 303d 18f2 b93b
00000390: 3ab1 8abb a18a 1e3d 9afa a2bd 4fa9 c3ba
000003a0: e298 2c3d 5e47 173d 22c1 61bd c09b 99bd
000003b0: c1fd 26bd c8fb 22bd 8c13 043d 6a65 a5bc
000003c0: f725 b1bc ef37 853c 0ec2 813d ce94 233a
000003d0: 96a8 113d 6fb4 29bb 5627 5e3d fe46 343d
000003e0: 9671 ab3c 5d1f 083d f253 8b3d fcc0 24bd
000003f0: ac29 063d 0fc0 3b3c 6e13 4dbd b6e5 0fbc

fc.0.bias f4 [128]
-0.061841924 -0.0114540085 0.06399522 0.050353426 -0.027832767 -0.08263887 -0.031419843 -0.106825136
0.030745056 -0.0058846525 -0.017820109 -0.024137797 -0.07669256 0.043549344 0.035057336 -0.024592891
0.005626882 0.054289576 -0.06570467 0.0010400567 -0.0014354773 0.0019331274 -0.041011047 0.021117976
-0.019402603 -0.014368776 -0.06372437 -0.06745823 0.024635306 0.047179155 0.021033522 0.0060524885
-0.050918486 0.041888054 -0.011095065 0.05099761 0.044040136 -0.056150634 -0.05646272 -0.00453094
0.016852273 0.007862242 -0.02221515 -0.028618846 -0.0479566 -0.013487035 -0.01757307 0.050948545
0.040931918 -0.08045374 -0.013583742 -0.041349784 0.04855799 -0.023971904 0.020725463 -0.035194457
0.03476124 -0.035580426 -0.010626384 -0.08370094 0.02308869 0.013170266 0.08504916 -0.071091354
-0.031406656 0.04559659 0.039144527 0.026938666 0.0014983292 -0.032250203 -0.025024794 -0.009289901
-0.074035175 -0.061373994 -0.065518476 -0.07598993 0.002518673 -0.023723511 -0.013971123 0.0091254385
-0.04556087 0.019293351 0.07064215 0.04350655 -0.05154405 0.04382511 0.044358216 -0.07350743
0.012237604 -0.00932095 -0.008435334 0.01595795 -0.044315334 -0.08415419 0.029460277 -0.03855077
-0.0030363265 0.002531416 -0.06881885 0.0113615915 -0.069361016 -0.026086465 -0.08705959 0.020238858
-0.036194447 -0.053263806 -0.04692723 -0.027760014 -0.08714928 -0.045036793 0.057277597 0.05229894
-0.00685348 0.036910698 -0.042669162 0.009071591 0.0145820705 0.06979152 0.025044516 -0.046047855
-0.029487733 0.028391022 0.037809838 -0.070018016 0.039654575 -0.0019090587 -0.0696164 -0.060188152
00000000: f54d 7dbd 98a9 3bbc ed0f 833d 653f 4e3d
00000010: 8b01 e4bc 913e a9bd 18b2 00bd 23c7 dabd
00000020: 0edd fb3c 0bd4 c0bb 7afb 91bc a1bc c5bc
00000030: fd10 9dbd cc60 323d 4898 0f3d 0877 c9bc
00000040: b561 b83b bf5e 5e3d 2c90 86bd 8352 883a
00000050: a026 bcba fe60 fd3a 33fb 27bd 9bff ac3c
00000060: 35f2 9ebc 046b 6bbc ec81 82bd 8a27 8abd
00000070: fbcf c93c ee3e 413d 7e4e ac3c f453 c63b
00000080: e78f 50bd cf92 2b3d 13c8 35bc dfe2 503d
00000090: 6e63 343d 35fe 65bd 7445 67bd 4878 94bb
000000a0: c70d 8a3c a2d0 003c 8cfc b5bc 1272 eabc
000000b0: 246e 44bd baf8 5cbc 66f5 8fbc 6caf 503d
000000c0: 3aa8 273d eec4 a4bd 588e 5ebc 645e 29bd
000000d0: bee4 463d ba60 c4bc 72c8 a93c 1028 10bd
000000e0: cd61 0e3d c8bc 11bd 491a 2ebc 666b abbd
000000f0: 7e24 bd3c 19c8 573c 412e ae3d 5898 91bd
00000100: 44a4 00bd 7dc3 3a3d 0356 203d 7aae dc3c
00000110: 9663 c43a ca18 04bd cc00 cdbc ab34 18bc
00000120: c19f 97bd 4c63 7bbd 8d2e 86bd 9ca0 9bbd
00000130: 5210 253b cf57 c2bc 23e7 64bc dd82 153c
00000140: 099e 3abd 170d 9e3c d5ac 903d ed33 323d
00000150: db1f 53bd f581 333d f6b0 353d 108b 96bd
00000160: 3b80 483c e6b6 18bc 5b34 0abc 3fba 823c
00000170: ff83 35bd 0859 acbd ae56 f13c 6ae7 1dbd
00000180: 1bfd 46bb 1de6 253b e6f0 8cbd f825 3a3c
00000190: 260d 8ebd 48b3 d5bc 4c4c b2bd f6cb a53c
000001a0: a140 14bd 262b 5abd c436 40bd f868 e3bc
000001b0: 527b b2bd 8078 38bd ea9b 6a3d 6a37 563d
000001c0: 2893 e0bb ac2f 173d dcc5 2ebd 03a1 143c
000001d0: a3e9 6e3c dbee 8e3d 282a cd3c ad9c 3cbd
000001e0: 4290 f1bc 4a94 e83c 7dde 1a3d 9b65 8fbd
000001f0: d66c 223d 6139 faba 0b93 8ebd da87 76bd

fc.2.weight f4 [128, 128]
0.017528197 -0.017755587 -0.020331424 0.013861554 0.044112947 0.012734916 0.02416414 -0.10182398
-0.115646146 0.058127422 -0.05373667 -0.07444704 0.022403248 0.0013009554 0.00700239 0.12399247
-0.07807948 -0.039225645 0.06377577 -0.05342526 -0.029238638 -0.0018046121 0.051824402 -0.0048348648
-0.023453346 -0.0030879471 0.098265484 0.016293336 0.04703499 -0.02368676 0.09237118 0.013295382
0.00017532738 -0.03115521 -0.0057128384 0.131241 0.034170005 -0.07420469 -0.051587477 -0.021732626
-0.05354021 -0.09834442 -0.12001071 0.034234967 -0.04814545 -0.1414734 0.014961578 0.03899708
0.073901266 0.014438562 -0.040230762 0.05846738 -0.040410914 -0.031606562 -0.06312607 -0.024114655
0.01722527 -0.034472205 -0.022960037 -0.08694913 0.020785153 -0.01993846 0.034324877 -0.01619374
-0.095073834 0.02336512 -0.043017264 -0.027143996 0.0065861754 -0.0018050724 -0.025664108 -0.059565187
-0.077075705 -0.039567716 0.073434174 0.08289687 0.024483396 0.03742499 0.062195268 -0.038736213
0.06804636 0.013045269 0.13316214 -0.06507354 -0.0030745573 -0.012285779 -0.061612695 -0.08321873
0.116439566 -0.05622539 -0.025609931 -0.01944259 0.039330386 0.030223813 -0.06534053 0.018664926
-0.0945807 0.008216992 0.02758317 -0.09247997 0.011576164 0.1640507 -0.0023805078 -0.05236874
-0.0074620023 0.061882425 0.053472444 -0.02851309 0.05187261 -0.079014905 -0.10326327 -0.054603964
0.074711554 0.007866783 -0.023113403 -0.018859286 0.103342175 0.054411966 0.01663933 -0.05029242
0.0071891784 -0.096691564 -0.094834305 0.06609701 0.034762066 0.023437781 0.06499624 0.014629687
-0.08400661 0.02853542 0.03588532 0.04123778 0.047532596 0.035582714 0.012753664 0.022807319
-0.107966796 -0.0305784 0.0634829 -0.023090318 -0.047242317 -0.037198287 0.07053424 0.041199658
-0.046803214 0.004745255 0.026184883 0.007689524 -0.009061203 -0.07088617 0.061885767 0.0038916455
0.024902582 -0.020840457 -0.17388608 -0.14573096 0.0672106 0.077362016 -0.03879166 -0.050162457
0.043398958 -0.04791136 -0.019518225 0.03657531 -0.023401538 0.063303776 0.018680183 -0.064337865
-0.086990185 0.02662124 -0.035599645 0.00916519 -0.07505614 -0.085338555 -0.07432543 0.032653034
0.074745566 -0.04417607 -0.03679619 0.020321853 -0.037570022 -0.017131137 -0.0040965816 -0.072591856
-0.124291755 -0.030149646 0.07621081 -0.10579453 -0.09342229 -0.002593476 0.023747066 -0.04879445
-0.039155602 0.031811386 -0.08051297 -0.01021635 -0.011853728 -0.015617871 -0.07546975 0.057371434
0.08459023 -0.009646207 0.0054031946 -0.026891822 0.044057146 0.014077032 0.063664705 -0.055707958
0.06441811 0.036758766 -0.015481641 -0.10771092 0.11676202 -0.11424852 0.06398141 0.00044160458
0.057527736 0.06658335 0.059986312 0.04888386 0.02198832 0.0057792026 0.031578377 -0.057382982
-0.08536906 0.02311833 -0.03429097 0.0050077154 -0.024424301 0.02343398 0.04632025 0.029369136
-0.08016463 -0.083514825 -0.07542114 -0.07305935 -0.06339558 -0.07880064 -0.07564981 -0.041660614
0.09819445 0.05857826 -0.10343388 0.07671087 0.005137037 0.02926209 0.08321793 -0.0076460694
-0.026788985 -0.053119898 0.06568546 0.038320888 0.013166103 0.05512232 -0.15664878 0.15445967
00000000: 4b97 8f3c 2a74 91bc 168e a6bc 921b 633c
00000010: c7af 343d 1ca6 503c e0f3 c53c 1789 d0bd
00000020: e3d7 ecbd 0517 6e3d fc1a 5cbd b177 98bd
00000030: 0487 b73c d284 aa3a 4e74 e53b c4ef fd3d
00000040: 22e8 9fbd 12ab 20bd df9c 823d 72d4 5abd
00000050: de85 efbc bc88 ecba d345 543d c96d 9ebb
00000060: 3b21 c0bc 285f 4abb 6a3f c93d 9a79 853c
00000070: c3a7 403d bc0a c2bc 1a2d bd3d e0d4 593c
00000080: 16d8 3739 3639 ffbc c332 bbbb 0a64 063e
00000090: d9f5 0b3d a1f8 97bd 644d 53bd 9f08 b2bc
000000a0: fb4c 5bbd cd68 c9bd 2dc8 f5bd f739 0c3d
000000b0: 2a34 45bd 67de 10be 6821 753c 67bb 1f3d
000000c0: 8c59 973d b88f 6c3c 03c9 24bd 7e7b 6f3d
000000d0: ea85 25bd e275 01bd 3e48 81bd 198c c5bc
000000e0: 021c 8d3c ba32 0dbd b016 bcbc 6312 b2bd
000000f0: a045 aa3c fb55 a3bc 3e98 0c3d bca8 84bc
00000100: 12b6 c2bd 3568 bf3c df32 30bd 165d debc
00000110: d8d0 d73b 2e98 ecba 893d d2bc a0fa 73bd
00000120: ded9 9dbd c211 22bd a864 963d d6c5 a93d
00000130: 6791 c83c f24a 193d 77c0 7e3d dda9 1ebd
00000140: e45b 8b3d d3bb 553c a85b 083e 4745 85bd
00000150: 837e 49bb 4b4a 49bc 985d 7cbd 956e aabd
00000160: de77 ee3d 984c 66bd ebcb d1bc 1146 9fbc
00000170: e618 213d ee97 f73c 41d1 85bd 30e7 983c
00000180: 87b3 c1bd 90a0 063c 1af6 e13c 2366 bdbd
00000190: f3a9 3d3c e8fc 273e 4b02 1cbb 9b80 56bd
000001a0: d083 f4bb 6d78 7d3d ec05 5b3d 4994 e9bc
000001b0: 6078 543d 91d2 a1bd b17b d3bd 68a8 5fbd
000001c0: 5f02 993d aee3 003c 5258 bdbc ca7e 9abc
000001d0: 10a5 d33d 15df 5e3d 344f 883c 6dff 4dbd
000001e0: 3393 eb3b 3a06 c6bd 7d38 c2bd df5d 873d
000001f0: ab62 0e3d 9700 c03c c01c 853d 5bb1 6f3c
00000200: a80b acbd 1dc3 e93c 7cfc 123d f2e8 283d
00000210: 8ab1 423d 2ebf 113d bef4 503c 6ad6 ba3c
00000220: b21d ddbd 8d7f fabc 5303 823d e827 bdbc
00000230: 2981 41bd 3b5d 18bd 4174 903d f9c0 283d
00000240: bab4 3fbd 167e 9b3b ae81 d63c 67f8 fb3b
00000250: 7175 14bc c52c 91bd ee7b 7d3d fa0a 7f3b
00000260: 8000 cc3c 9bb9 aabc 310f 32be 7f3a 15be
00000270: b6a5 893d fa6f 9e3d 01e4 1ebd 2677 4dbd
00000280: 1bc3 313d b43e 44bd afe4 9fbc fecf 153d
00000290: 95b4 bfbc 69a5 813d 2f07 993c 92c3 83bd
000002a0: e927 b2bd c914 da3c efd0 11bd 9829 163c
000002b0: 09b7 99bd fbc5 aebd ee37 98bd 30bf 053d
000002c0: 3414 993d f7f1 34bd 9ab7 16bd 047a a63c
000002d0: 06e3 19bd 9956 8cbc 9e3c 86bb 0aab 94bd
000002e0: ad8c febd 64fc f6bc 6a14 9c3d cdaa d8bd
000002f0: 3054 bfbd 4ff7 29bb 3589 c23c b0dc 47bd
00000300: a061 20bd a84c 023d fce3 a4bd 7a62 27bc
00000310: 2436 42bc 19e2 7fbc e28f 9abd 4ffe 6a3d
00000320: a43d ad3d 200b 1ebc 480d b13b 3d4c dcbc
00000330: 4475 343d 5aa3 663c a462 823d 072e 64bd
00000340: a4ed 833d 5c90 163d b5a6 7dbc 8b97 dcbd
00000350: ed20 ef3d 21fb e9bd af08 833d 2a87 e739
00000360: 34a2 6b3d da5c 883d 35b4 753d 713a 483d
00000370: d920 b43c 775f bd3b 5458 013d 6b0a 6bbd
00000380: f9d5 aebd a762 bd3c b074 0cbd c317 a43b
00000390: 7915 c8bc 9ef8 bf3c 4dba 3d3d 8b97 f03c
000003a0: 5b2d a4bd d209 abbd 6676 9abd 24a0 95bd
000003b0: 8bd5 81bd 3b62 a1bd 4aee 9abd 52a4 2abd
000003c0: 2c1a c93d c2ef 6f3d 24d5 d3bd 971a 9d3d
000003d0: 9754 a83b 0db7 ef3c 296e aa3d e18b fabb
000003e0: 9374 dbbc 4094 59bd 1986 863d 5df6 1c3d
000003f0: a3b6 573c f1c7 613d 8a68 20be ad2a 1e3e

fc.2.bias f4 [128]
0.021911418 -0.106258295 -0.07463682 -0.08750808 -0.0005838287 -0.054654412 6.6736444e-05 0.040009685
-0.012466406 0.0321321 -0.022487365 0.075338766 0.00088954944 0.034418117 -0.044584204 -0.047484696
-0.039795987 -0.031843446 0.09724375 0.027916918 0.03518432 -0.14110954 0.03495633 0.0021843833
0.07847426 -0.05092975 0.04275606 0.070197605 0.033139277 -0.034341525 -0.0064385165 -0.037979975
-0.09087881 0.022981009 0.047193952 -0.06394373 -0.059657775 0.056897484 0.060296535 0.03609469
-0.0017910433 -0.02031255 -0.05084026 0.037684817 -0.024122406 0.06093747 -0.019987354 -0.07876236
-0.008998135 -0.067801446 -0.06666003 -0.107355885 0.030374907 0.00022196582 0.0035029107 -0.00065668346
-0.03346405 0.0498255 -0.050494324 0.048008714 -0.077747904 0.0073288837 -0.045527022 0.03502064
0.10881772 -0.019771352 0.0106138075 0.038230453 -0.018216891 -0.016413666 -0.077810675 -0.009060328
0.02372197 -0.05738853 -0.030913584 0.09327635 -0.059862822 0.04150633 -0.035930507 0.088616654
-0.036726944 -0.04700959 -0.03156894 -0.05377238 0.03913622 -0.049463034 0.007731623 -0.051076356
0.013121092 0.019966606 -0.062804155 0.0017738031 -0.09044462 0.06967726 -0.011623319 -0.013992707
-0.0117660435 0.049879223 -0.07476156 -0.08568566 -0.069445975 0.026159335 0.085062265 0.022539353
0.014163077 0.032305066 -0.027173996 -0.10158785 -0.0011038077 -0.08863229 -0.07231278 0.03439357
0.02987347 0.04559438 -0.008698802 -0.033466265 -0.06824528 0.026472753 -0.053157512 0.0829718
0.029091185 -0.045557737 0.017715452 -0.05756337 0.028883664 -0.0984175 0.02648443 -0.060228363
00000000: 937f b33c f39d d9bd 30db 98bd 7037 b3bd
00000010: 150c 19ba 4edd 5fbd dbf4 8b38 32e1 233d
00000020: e63f 4cbc f39c 033d 6c37 b8bc 364b 9a3d
00000030: a730 693a 03fa 0c3d ed9d 36bd 507f 42bd
00000040: 1e01 23bd 466e 02bd bb27 c73d 05b2 e43c
00000050: 6f1d 103d 057f 10be 5e2e 0f3d df27 0f3b
00000060: 1db7 a03d b79b 50bd fa20 2f3d c3c3 8f3d
00000070: 0dbd 073d b3a9 0cbd 31fa d2bb e490 1bbd
00000080: ab1e babd ab42 bc3c 724e 413d eef4 82bd
00000090: b65b 74bd 560d 693d 80f9 763d 07d8 133d
000000a0: 71c1 eaba 8166 a6bc e03d 50bd 655b 1a3d
000000b0: 5a9c c5bc 9299 793d 85bc a3bc 294e a1bd
000000c0: ea6c 13bc 7cdb 8abd 0e85 88bd 67dd dbbd
000000d0: ccd4 f83c 7fbf 6839 1791 653b 4825 2cba
000000e0: 9a11 09bd d315 4c3d 23d3 4ebd c9a4 443d
000000f0: 4b3a 9fbd 2227 f03b 8b7a 3abd cd71 0f3d
00000100: d3db de3d 88f7 a1bc 89e5 2d3c 8997 1c3d
00000110: 973b 95bc f475 86bc 345b 9fbd c571 14bc
00000120: 9454 c23c 3c10 6bbd 7c3e fdbc ac07 bf3d
00000130: b832 75bd 8b02 2a3d de2b 13bd a67c b53d
00000140: fe6e 16bd 218d 40bd 6f4e 01bd 6d40 5cbd
00000150: 4d4d 203d c099 4abd 8e59 fd3b 7135 51bd
00000160: d9f9 563c 0291 a33c 779f 80bd f57e e83a
00000170: 073b b9bd f4b2 8e3d bc6f 3ebc ab41 65bc
00000180: 5dc6 40bc 284e 4c3d 971c 99bd f77b afbd
00000190: b139 8ebd 1a4c d63c 2035 ae3d 73a4 b83c
000001a0: 400c 683c 5152 043d 009c debc 4a0d d0bd
000001b0: a4ad 90ba d984 b5bd b918 94bd 46e0 0c3d
000001c0: 35b9 f43c 2cc1 3a3d 6c85 0ebc ec13 09bd
000001d0: 2ec4 8bbd 63dd d83c b1bb 59bd 1eed a93d
000001e0: a350 ee3c c09a 3abd ff1f 913c 91c7 6bbd
000001f0: 6f9d ec3c 1d8f c9bd e0f5 d83c 04b2 76bd

fc.4.weight f4 [128, 128]
0.054377675 0.03476691 0.08072105 0.018916035 -0.012606011 0.043352 0.03622017 0.054125745
0.07631616 0.10984062 0.0429826 -0.05659431 0.05097764 -0.017325772 0.017784515 -0.10634016
0.03115625 0.0029479086 -0.043792244 -0.051624272 0.061370466 0.0012915178 0.08058122 -0.00914528
-0.05598917 0.14752202 -0.033371884 0.06802855 -0.0089930305 -0.029309357 -0.0036716121 -0.05951646
-0.01350987 0.02849507 -0.058321282 -0.03357257 -0.0010834443 0.014365782 0.11211723 -0.038793866
0.039159153 -0.05840269 -0.08425361 0.09950492 -0.044441685 -0.00957177 0.049496405 0.025915937
-0.06601199 -0.009797185 0.061872277 0.03715296 0.015165406 0.045497485 -0.04745259 0.109180845
-0.0634428 -0.029407674 -0.024325924 0.024138682 0.091514915 -0.025139472 -0.094697036 0.09790595
-0.090747476 -0.040034033 -0.03782955 0.08424975 0.11796338 -0.00012083585 -0.09705822 0.10052852
-0.043356463 -0.03126877 0.08730385 0.1023329 0.07550816 -0.053858656 -0.02101908 -0.05287804
-0.018306784 0.0009090689 -0.032116085 0.05000393 0.020023603 0.044911813 -0.07314913 0.009420015
-0.05322546 0.024382863 0.039686948 -0.09640316 -0.0031946728 -0.064920746 -0.10241178 -0.01185169
0.0675905 -0.007963466 0.16620801 -0.06878664 -0.07880096 0.0028549633 -0.05650176 0.05352711
0.0065566166 0.044374835 -0.006395471 0.091041416 0.06792788 0.053376276 -0.06782392 -0.008097127
-0.007434549 0.011629198 -0.06495585 -0.12134785 -0.019508364 0.02042267 0.10916039 0.12123478
0.041758373 0.016058024 -0.062274087 -0.100237675 -0.04657726 -0.07662658 0.033294167 -0.100643225
0.043401156 -0.039906893 -0.056689695 0.07040595 -0.034942787 0.041934703 0.010728042 -0.048987083
0.009244507 -0.046356153 0.12155662 -0.095287405 -0.002589009 0.20203222 0.089250036 0.04115857
0.03323004 0.016854988 -0.078426175 0.16168997 0.021746298 0.013870192 0.046405345 0.21453273
0.053625558 0.006956197 0.010071913 -0.0489355 -0.018406045 0.034625478 0.024716018 0.031142546
0.054177348 0.12888478 0.14119884 0.09208823 0.049926877 0.10554622 0.05825659 -0.062668115
-0.047215693 0.09484906 -0.11448752 -0.091839276 -0.0653178 0.0727296 0.019478532 -0.038786985
-0.10778146 0.085515544 0.03792137 0.09300391 0.06688258 0.06844944 0.07469305 0.025436694
0.03702087 0.04659465 0.0072765523 -0.09083237 0.062222514 0.006482864 -0.02737449 -0.08397056
0.021401811 0.017377114 0.022768266 0.02339889 0.15732512 0.066707216 0.047072127 0.039290003
0.09758462 -0.0723756 -0.04716553 0.027474865 0.01816087 -0.04611833 0.036813207 0.050059315
-0.020786637 -0.08420407 0.00058504485 0.119981155 0.03187751 0.1203102 0.0021326032 0.08412881
0.013195995 -0.075949654 -0.09680236 0.06293272 -0.063541524 0.03894913 0.073478065 0.060339592
0.0541643 -0.08271903 -0.07180536 0.017387776 -0.09991653 0.009099699 0.06322822 -0.010288969
-0.05115694 0.045863193 -0.1309566 -0.0680832 0.018130057 -0.052309323 0.08013661 0.15090202
0.051325604 -0.01646676 -0.02653226 0.078638315 0.065031216 -0.056334194 0.04018226 -0.011236749
0.17882392 0.07996151 0.072647914 0.024449794 -0.05558041 0.012884289 0.03945755 -0.06405867
00000000: 20bb 5e3d bf67 0e3d 1451 a53d cdf5 9a3c
00000010: 7189 4ebc de91 313d 9a5b 143d f5b2 5d3d
00000020: a64b 9c3d 1ef4 e03d 860e 303d 6fcf 67bd
00000030: eecd 503d c7ee 8dbc d5b0 913c dfc8 d9bd
00000040: 643b ff3c b331 413b 7f5f 33bd f973 53bd
00000050: 995f 7b3d 2548 a93a c407 a53d 16d6 15bc
00000060: e654 65bd 0310 173e f5b0 08bd 8d52 8b3d
00000070: 8157 13bc 2d1a f0bc 6e9f 70bb 88c7 73bd
00000080: 8058 5dbc 7e6e e93c 4ce2 6ebd 6483 09bd
00000090: 5c02 8eba 755e 6b3c b89d e53d 51e6 1ebd
000000a0: 5965 203d a937 6fbd 288d acbd 3cc9 cb3d
000000b0: 7c08 36bd ead2 1cbc bebc 4a3d a94d d43c
000000c0: 4b31 87bd 5f84 20bc c96d 7d3d b42d 183d
000000d0: 5378 783c 925b 3a3d a65d 42bd 359a df3d
000000e0: 4cee 81bd 5de8 f0bc 2947 c7bc 7cbe c53c
000000f0: 2c6c bb3d 4bf1 cdbc 85f0 c1bd ea82 c83d
00000100: d0d9 b9bd bafa 23bd 29f3 1abd 228b ac3d
00000110: c996 f13d 4169 fdb8 76c6 c6bd e6e1 cd3d
00000120: 8c96 31bd af13 00bd 5ccc b23d e993 d13d
00000130: 06a4 9a3d e59a 5cbd 3530 acbc a596 58bd
00000140: 1cf8 95bc 954e 6e3a 288c 03bd ecd0 4c3d
00000150: 8a08 a43c 73f5 373d 36cf 95bd 6856 1a3c
00000160: f102 5abd 92be c73c c88e 223d 056f c5bd
00000170: b75d 51bb 2bf5 84bd 44bd d1bd 972d 42bc
00000180: e36c 8a3d 3379 02bc 6f32 2a3e 03e0 8cbd
00000190: 6662 a1bd 561a 3b3b 646e 67bd 3e3f 5b3d
000001a0: e3d8 d63b 63c2 353d 1991 d1bb ec73 ba3d
000001b0: c61d 8b3d 15a1 5a3d 44e7 8abd d0a9 04bc
000001c0: 849d f3bb 6488 3e3c 9307 85bd 3985 f8bd
000001d0: 01d0 9fbc 714d a73c 7c8f df3d f149 f83d
000001e0: d40a 2b3d 1e8c 833c 1d13 7fbd 6949 cdbd
000001f0: ccc7 3ebd 65ee 9cbd 775f 083d 091e cebd
00000200: 69c5 313d 6975 23bd 7433 68bd ff30 903d
00000210: 2b20 0fbd b9c3 2b3d abc4 2f3c aea6 48bd
00000220: 4676 173c f3df 3dbd adf2 f83d 0b26 c3bd
00000230: 5dac 29bb 89e1 4e3e b9c8 b63d e495 283d
00000240: 391c 083d 7913 8a3c e79d a0bd 0e92 253e
00000250: 4b25 b23c cd3f 633c 8813 3e3d 78ae 5b3e
00000260: 79a6 5b3d cff0 e33b aa04 253c 9770 48bd
00000270: 46c8 96bc 72d3 0d3d 3f79 ca3c a71e ff3c
00000280: 11e9 5d3d 5ffa 033e 6e96 103e c198 bc3d
00000290: 2080 4c3d 9e28 d83d 769e 6e3d 2458 80bd
000002a0: 3e65 41bd 3940 c23d 6f78 eabd 3b16 bcbd
000002b0: 57c5 85bd 42f3 943d 7191 9f3c 1adf 1ebd
000002c0: 87bc dcbd c622 af3d 7053 1b3d d578 be3d
000002d0: bcf9 883d 382f 8c3d abf8 983d 9d60 d03c
000002e0: 32a3 173d 08da 3e3d 2570 ee3b 5206 babd
000002f0: 09dd 7e3d 346e d43b 7740 e0bc c2f8 abbd
00000300: da52 af3c 735a 8e3c 8484 ba3c 07af bf3c
00000310: d619 213e cb9d 883d b4ce 403d 8eee 203d
00000320: 72da c73d a939 94bd a530 41bd f812 e13c
00000330: 1bc6 943c 93e6 3cbd 72c9 163d ff0a 4d3d
00000340: bd48 aabc 2f73 acbd b25d 193a aeb8 f53d
00000350: fe91 023d 3265 f63d 25c3 0b3b ba4b ac3d
00000360: 0434 583c 7e8b 9bbd 5140 c6bd dfe2 803d
00000370: 0f22 82bd 1f89 1f3d ab7b 963d a626 773d
00000380: 63db 5d3d 9868 a9bd b00e 93bd cf70 8e3c
00000390: 0aa1 ccbd e716 153c cc7d 813d 1093 28bc
000003a0: f189 51bd 0bdb 3b3d 7d19 06be 346f 8bbd
000003b0: 7c85 943c 4d42 56bd aa1e a43d 0f86 1a3e
000003c0: cc3a 523d 4ce5 86bc 2f5a d9bc 200d a13d
000003d0: 162f 853d afbe 66bd 2796 243d 571a 38bc
000003e0: 9e1d 373e dcc2 a33d 6ec8 943d ef4a c83c
000003f0: 49a8 63bd a018 533c 3d9e 213d 3131 83bd

fc.4.bias f4 [128]
-0.0997702 0.08529943 0.07674566 -0.0077568153 -0.0069597643 -0.060353264 -0.020728234 0.07978713
0.008493093 -0.044921648 -0.07080258 0.04217701 -0.0379858 0.043876182 -0.06258 -0.048832983
0.042063743 0.04953433 0.04203049 0.0061768536 -0.046218816 -0.0031874925 0.023850381 -0.049818136
-0.011421221 0.07738485 -0.00953199 0.048053 0.04124879 0.03697717 0.020563386 0.059525665
0.10844706 0.020463105 0.036198627 -0.061929453 -0.025805388 -0.002383229 -0.014584655 0.07888332
-0.082611896 -0.047387253 0.074780375 0.00818118 0.09308812 -0.084949635 0.10368799 0.0067755184
-0.0262077 -0.09883162 -0.028605996 0.08397633 0.077602774 -0.12659812 0.084993176 -0.06669337
-0.0023266724 -0.037670754 0.0055480073 -0.017911525 0.040178552 -0.053505383 0.1013713 0.018075828
-0.003969326 -0.050566893 0.053338602 0.011470513 -0.018190848 -0.07559056 0.07034512 -0.061569087
-0.041663032 0.013609989 -0.032192945 -0.023795968 0.020631686 0.05301258 -0.026905652 -0.013299994
0.02223279 -0.034499038 -0.038043078 0.08064704 0.09004809 -0.029015712 -0.040662475 0.040504932
0.0125647 -0.08082567 0.054370016 0.011808403 0.049506027 -0.016247965 -0.11199109 -0.00965869
-0.036729693 0.05604199 -0.07900367 0.05174424 -0.031860396 0.037069954 -0.015163005 0.04807088
0.046012606 0.07309809 -0.030220585 -0.02980254 0.064355865 0.09773102 0.008344766 0.090248615
0.04176919 -0.052485056 0.07255727 0.04798746 -0.023268646 -0.024554474 -0.07696212 -0.085848436
-0.0014400772 -0.0045211106 0.04835216 0.070458494 0.02465479 0.0791367 0.11792346 -0.08598163
00000000: 5254 ccbd 78b1 ae3d d42c 9d3d e22c febb
00000010: bc0e e4bb fc34 77bd 42ce a9bc 6f67 a33d
00000020: 9d26 0b3c c3ff 37bd f100 91bd cdc1 2c3d
00000030: 0097 1bbd 83b7 333d f129 80bd 1805 48bd
00000040: 084b 2c3d 82e4 4a3d 2a28 2c3d 3467 ca3b
00000050: f14f 3dbd 40e5 50bb e061 c33c 1a0e 4cbd
00000060: 1320 3bbc f37b 9e3d 102c 1cbc 39d3 443d
00000070: 7ef4 283d 5f75 173d 8c74 a83c 2fd1 733d
00000080: 7e19 de3d 3ea2 a73c 0345 143d bda9 7dbd
00000090: d265 d3bc f32f 1cbb 7af4 6ebc 948d a13d
000000a0: 6d30 a9bd 2319 42bd 7426 993d 5b0a 063c
000000b0: fca4 be3d 13fa adbd 5e5a d43d 2b05 de3b
000000c0: 88b1 d6bc 3b68 cabd 1f57 eabc c8fb ab3d
000000d0: 34ee 9e3d f0a2 01be e710 ae3d 8996 88bd
000000e0: 167b 18bb a64c 1abd 0fcc b53b 31bb 92bc
000000f0: 4492 243d 7628 5bbd c29b cf3d c213 943c
00000100: 1f11 82bb 3b1f 4fbd 9479 5a3d d2ee 3b3c
00000110: f904 95bc 39cf 9abd 1a11 903d de2f 7cbd
00000120: dba6 2abd 6efc 5e3c c0dc 03bd c3ef c2bc
00000130: c803 a93c b823 593d 3e69 dcbc 38e8 59bc
00000140: 8a21 b63c dd4e 0dbd 0fd3 1bbd 462a a53d
00000150: 226b b83d 5cb2 edbc b28d 26bd 80e8 253d
00000160: 2cdc 4d3c ee87 a5bd 18b3 5e3d 0878 413c
00000170: d5c6 4a3d 741a 85bc 965b e5bd 7b3f 1ebc
00000180: e071 16bd 498c 653d adcc a1bd c5f1 533d
00000190: 0c80 02bd aad6 173d 416e 78bc f9e5 443d
000001a0: b777 3c3d 74b4 953d 2991 f7bc 7524 f4bc
000001b0: 02cd 833d 3327 c83d 7cb8 083c 44d4 b83d
000001c0: 2c16 2b3d 92fa 56bd e898 943d 808e 443d
000001d0: e39d bebc 7726 c9bc 519e 9dbd 4ed1 afbd
000001e0: f9c0 bcba d325 94bb ea0c 463d 8b4c 903d
000001f0: d8f8 c93c 6c12 a23d db81 f13d 2317 b0bd

fc.6.weight f4 [128, 128]
-0.031585697 -0.0714836 -0.034693606 0.041571613 -0.10907648 -0.0084806355 0.0911136 0.08508771
0.010424574 0.12511404 0.17556788 -0.098566495 0.03987194 -0.091936074 0.06913479 0.01695779
0.13981071 0.07966489 -0.047274526 -0.08542156 -0.07125305 0.022275634 0.037191898 0.017532593
0.045161504 0.11114723 -0.04201871 0.060017224 0.039070003 0.09054474 0.013918752 0.0976936
-0.005022802 0.04099003 -0.06433241 -0.0052182833 0.07758026 -0.09839212 0.034304038 -0.031292643
0.060856562 -0.0035759227 -0.02272316 -0.028014548 -0.09409318 0.07249886 0.008644067 -0.048231997
0.08037428 0.04143586 0.017986111 0.05129477 0.057050545 -0.03505304 0.034221318 0.021958368
-0.015978051 0.019379947 -0.100553475 -0.055819396 0.08792585 -0.046112664 0.0067059924 0.104513906
0.036636047 0.08214134 -0.08682136 -0.015341084 -0.065249436 0.06954329 -0.0771382 0.015847288
0.13782954 0.09403337 0.10955185 0.024265643 0.03376139 -0.041306645 -0.079242006 0.018976372
-0.08739507 0.0145283835 0.10264882 0.03511387 0.032775994 0.05415609 0.0280928 0.013934519
-0.0076447604 0.043139927 0.0075387196 0.007711132 -0.04054858 -0.06991076 0.038629416 -0.061399635
-0.019021109 0.10980082 0.056139965 0.0065105394 0.0026315332 -0.09150324 -0.10870954 0.14078261
-0.055450622 0.014955059 0.04723963 -0.06736737 -0.046322692 -0.047357857 -0.0369728 0.03067965
0.1581684 -0.068542376 0.1289656 -0.05809515 -0.11831873 -0.02169923 0.03562588 -0.08288158
0.03135247 0.075972386 -0.0532301 0.14052568 0.04090544 0.10783788 0.011083143 -0.04804497
-0.01265712 -0.0077112806 -0.03152716 0.038262274 -0.08512734 0.08417233 -0.077415936 -0.046837103
-0.00797053 0.039537217 0.06882225 0.07449166 -0.06714106 -0.003776979 -0.112418406 -0.023065226
0.10535756 0.072732285 0.011832753 0.051589463 -0.056183387 -0.049142268 0.0005365332 -0.08218866
-0.035201035 0.051558588 -0.053286776 0.101002306 -0.09049271 -0.06764 -0.007984398 0.08160099
0.016350694 0.076058686 -0.071957834 0.115944006 -0.0017879866 -0.103238225 0.10153098 -0.012423248
-0.018955156 -0.030893723 -0.019680804 0.015849723 0.1661453 -0.06705223 0.004951761 -0.054640174
0.068015695 -0.018608874 0.020996854 -0.014241056 0.09503893 -0.013694281 0.069031164 0.056527484
-0.03143913 -0.09406672 -0.03177803 0.03151406 0.18646228 -0.012254851 -0.049890853 -0.045862608
0.028817799 0.09005391 -0.060518358 0.0132078035 0.09204662 0.14653221 -0.09188212 -0.15002005
-0.07619479 0.07325326 0.126315 -0.07736797 -0.010916112 -0.05661693 -0.042808335 -0.07120371
0.02386458 0.029894756 -0.04519437 -0.031889707 0.102215424 0.0018574884 0.06864106 0.0061199423
0.04462081 0.066330165 0.14817707 -0.08637994 -0.08359428 -0.07891914 0.039872557 -0.10396012
-0.057068586 0.10266104 -0.014605668 -0.08642436 -0.0622852 -0.087782644 -0.15208381 0.045279376
0.038786072 -0.11687523 0.04832378 0.06877539 -0.023184104 -0.06626264 0.087341994 0.0882037
-0.04469548 0.0014604174 -0.07075872 -0.04822005 -0.021452636 -0.07188294 0.024601553 -0.055482093
-0.07964043 0.014734555 -0.12990673 0.0661146 -0.091619916 0.08485713 -0.030266004 0.11344254
00000000: 0160 01bd fe65 92bd e21a 0ebd ff46 2a3d
00000010: 7d63 dfbd 5df2 0abc c499 ba3d 7742 ae3d
00000020: d5cb 2a3c e51d 003e 11c8 333e 3bdd c9bd
00000030: c250 233d fb48 bcbd 8a96 8d3d 10eb 8a3c
00000040: 8a2a 0f3e 5927 a33d efa2 41bd 80f1 aebd
00000050: 1eed 91bd 647b b63c 8856 183d 83a0 8f3c
00000060: 45fb 383d 29a1 e33d d01b 2cbd 9fd4 753d
00000070: de07 203d 856f b93d 7a0b 643c 9513 c83d
00000080: 5196 a4bb 29e5 273d b6c0 83bd 22fe aabb
00000090: 66e2 9e3d cf81 c9bd 6482 0c3d b72c 00bd
000000a0: bb44 793d 075a 6abb ec25 babc c47e e5bc
000000b0: edb3 c0bd 487a 943d d89f 0d3c ea8e 45bd
000000c0: 459b a43d a6b8 293d 9c57 933c 771a 523d
000000d0: d5ad 693d c793 0fbd a72b 0c3d 09e2 b33c
000000e0: 67e4 82bc b2c2 9e3c fbee cdbd e1a2 64bd
000000f0: 7812 b43d a2e0 3cbd f1bd db3b 630b d63d
00000100: ae0f 163d b839 a83d 66cf b1bd 2c59 7bbc
00000110: 7fa1 85bd b66c 8e3d a2fa 9dbd 2cd2 813c
00000120: 3023 0d3e 9194 c03d b85c e03d bec8 c63c
00000130: 6249 0a3d 2831 29bd a249 a2bd 5674 9b3c
00000140: 30fc b2bd 7508 6e3c 8b39 d23d 90d3 0f3d
00000150: 1f40 063d c7d2 5d3d df22 e63c 9c4d 643c
00000160: e680 fabb 7eb3 303d 5d07 f73b aaad fc3b
00000170: 4516 26bd 5f2d 8fbd e139 1e3d 2f7e 7bbd
00000180: 28d2 9bbc 41df e03d 05f3 653d 5d56 d53b
00000190: cd75 2c3b 0d66 bbbd 1ba3 debd 5129 103e
000001a0: 3120 63bd 1006 753c 587e 413d e7f7 89bd
000001b0: ddbc 3dbd 50fa 41bd ca70 17bd e453 fb3c
000001c0: e6f6 213e f25f 8cbd 8f0f 043e 2ef5 6dbd
000001d0: 1751 f2bd 95c2 b1bc 71ec 113d d1bd a9bd
000001e0: 736b 003d 6997 9b3d ce07 5abd f7e5 0f3e
000001f0: 768c 273d 1bda dc3d 1296 353c cdca 44bd
00000200: cf5f 4fbc e9ae fcbb a022 01bd e7b8 1c3d
00000210: 3e57 aebd 8b62 ac3d 3f8c 9ebd 43d8 3fbd
00000220: d396 02bc c7f1 213d aef2 8c3d 158f 983d
00000230: 4181 89bd 3187 77bb 9f3b e6bd 49f3 bcbc
00000240: b4c5 d73d aaf4 943d 2ade 413c 794f 533d
00000250: 8d20 66bd 6749 49bd 22a6 0c3a 8752 a8bd
00000260: f62e 10bd 192f 533d 3c43 5abd 4cda ce3d
00000270: 3e54 b9bd d786 8abd fed0 02bc 6b1e a73d
00000280: e4f1 853c a8c4 9b3d a15e 93bd 0d74 ed3d
00000290: e05a eaba 906e d3bd 79ef cf3d e18a 4bbc
000002a0: d847 9bbc d514 fdbc a339 a1bc 47d7 813c
000002b0: fe21 2a3e ae52 89bd 6242 a23b 60ce 5fbd
000002c0: d04b 8b3d a371 98bc 9801 ac3c 5153 69bc
000002d0: c5a3 c23d fa5d 60bc 3660 8d3d 5d89 673d
000002e0: 51c6 00bd 0da6 c0bd ae29 02bd e314 013d
000002f0: f8ef 3e3e 92c8 48bc 5a5a 4cbd 6eda 3bbd
00000300: 4e13 ec3c 2f6e b83d 19e2 77bd 8b65 583c
00000310: f082 bc3d 8a0c 163e b12c bcbd db9e 19be
00000320: 040c 9cbd ce05 963d b858 013e 1973 9ebd
00000330: 7ed9 32bc 27e7 67bd cb57 2fbd 40d3 91bd
00000340: a77f c33c d9e5 f43c bb1d 39bd c89e 02bd
00000350: 5256 d13d f876 f33a af93 8c3d cc89 c83b
00000360: 4fc4 363d 1cd8 873d bbbb 173e f7e7 b0bd
00000370: 7a33 abbd 5ca0 a1bd 6851 233d 0be9 d4bd
00000380: c0c0 69bd f43f d23d 9d4c 6fbc 41ff b0bd
00000390: c41e 7fbd 63c7 b3bd dcbb 1bbe de76 393d
000003a0: 25de 1e3d 485c efbd 28ef 453d 1dda 8c3d
000003b0: 97ec bdbc b5b4 87bd 5ce0 b23d 24a4 b43d
000003c0: 9c12 37bd 7a6b bf3a f3e9 90bd 6382 45bd
000003d0: 70bd afbc 5d37 93bd 3289 c93c 3141 63bd
000003e0: 861a a3bd 3469 713c 4506 05be 1767 873d
000003f0: 39a3 bbbd 93c9 ad3d 69f0 f7bc 9054 e83d

fc.6.bias f4 [128]
0.013427287 0.006353586 -0.07894809 -0.12877336 -0.05108769 0.06512753 -0.07078379 0.0062951925
0.019169014 0.035609458 0.018998422 0.02488115 -0.08608873 -0.031352922 -0.050460584 0.057229713
0.0429658 -0.06399104 -0.044431966 0.044056606 0.049381137 -0.027116973 0.05877799 -0.008608602
0.03927616 0.004227855 -0.07225201 0.07279161 0.04102145 0.10333774 0.05055041 -0.04915153
0.069896966 0.09657531 0.037620876 0.059365265 0.044250466 -0.08416083 0.0046438402 -0.016514905
0.022954263 0.12829079 -0.1033932 0.05957668 -0.1033747 -0.051724732 0.08545527 0.051664554
-0.009797329 -0.04948755 0.03160116 0.05534843 -0.060506675 -0.03955479 -0.029725932 0.051811457
0.050414454 0.005179624 -0.09453767 -0.05384695 -0.03345258 -0.025510525 -0.029251449 0.0342411
0.022353794 -0.009023051 -0.040546477 0.010612537 0.15756312 0.055364095 0.008107447 -0.057526346
-0.092060804 -0.05091014 0.038308285 0.006202272 -0.115111366 -0.05439324 -0.052519016 0.13298787
0.046688627 0.015213315 -0.04497982 0.08182171 0.027322093 -0.029077098 -0.04083809 0.075712256
-0.10327071 -0.018677322 -0.018245442 -0.07444382 -0.03097028 -0.033241287 0.03527843 0.011153372
-0.057487555 0.046666354 -0.093648806 0.019226722 -0.074395634 -0.033668905 0.023727728 0.12399143
0.09095953 0.018611895 -0.053045902 0.10483171 0.035305187 -0.048222344 0.024183428 0.031740103
0.0031432419 0.07073294 -0.12348427 0.08027461 -0.05189446 -0.043425143 0.09334966 0.12280345
0.06861252 -0.022108473 -0.033157248 0.060360026 -0.017126916 0.06477242 -0.037753917 -0.06435733
00000000: 20fe 5b3c be31 d03b 89af a1bd 2add 03be
00000010: 5341 51bd 9561 853d 17f7 90bd e747 ce3b
00000020: 5608 9d3c 39db 113d 94a2 9b3c 8ed3 cb3c
00000030: 4a4f b0bd ec6b 00bd c2af 4ebd b469 6a3d
00000040: e8fc 2f3d bc0d 83bd 4bfe 35bd b374 343d
00000050: e043 4a3d 6a24 debc 31c1 703d 180b 0dbc
00000060: 0ae0 203d d189 8a3b ddf8 93bd c513 953d
00000070: 1c06 283d bda2 d33d f20d 4f3d 1d53 49bd
00000080: 2426 8f3d 47c9 c53d 5918 1a3d fe28 733d
00000090: fa3f 353d 835c acbd 5b2b 983b 444a 87bc
000000a0: 940a bc3c a95e 033e d0bf d3bd ad06 743d
000000b0: 1db6 d3bd 50dd 53bd 2c03 af3d 369e 533d
000000c0: fa84 20bc 75b3 4abd 3870 013d 09b5 623d
000000d0: d9d5 77bd 3404 22bd cc83 f3bc 4038 543d
000000e0: 637f 4e3d d6b9 a93b f79c c1bd 9f8e 5cbd
000000f0: 9305 09bd 73fb d0bc bca0 efbc 6540 0c3d
00000100: 4e1f b73c 6bd5 13bc 1014 26bd 35e0 2d3c
00000110: 3a58 213e 76c5 623d 19d5 043c bfa0 6bbd
00000120: 608a bcbd 2787 50bd 26e9 1c3d 6e3c cb3b
00000130: 82bf ebbd 72cb 5ebd 2e1e 57bd f92d 083e
00000140: 933c 3f3d 4541 793c c23c 38bd 2492 a73d
00000150: 95d2 df3c 1833 eebc d745 27bd 070f 9b3d
00000160: 987f d3bd 2f01 99bc 7777 95bc 0076 98bd
00000170: 62b5 fdbc 0428 08bd 1d80 103d a2bc 363c
00000180: 1278 6bbd 3825 3f3d f2ca bfbd 5c81 9d3c
00000190: bd5c 98bd 68e8 09bd a760 c23c 38ef fd3d
000001a0: fd48 ba3d f977 983c a946 59bd 02b2 d63d
000001b0: 2c9c 103d cb84 45bd 531c c63c e901 023d
000001c0: d9fe 4d3b 6fdc 903d 52e5 fcbd 0467 a43d
000001d0: 498f 54bd 90de 31bd 1b2e bf3d 6080 fb3d
000001e0: b984 8c3d d41c b5bc e5cf 07bd 133c 773d
000001f0: bf4d 8cbc 67a7 843d daa3 1abd c7cd 83bd

fc.8.weight f4 [4, 128]
0.13104299 -0.074736394 -0.07121283 0.05976664 -0.14167209 -0.15476212 -0.10539539 0.01872011
-0.01436834 -0.25219694 -0.028597135 0.001733714 -0.023542987 -0.088470064 -0.16113742 -0.065184
0.093974896 -0.04134428 -0.2257854 -0.0107158525 0.08107727 0.10864672 0.06367631 0.0053170924
0.09414084 0.060548004 -0.13753477 0.08296313 0.09771692 -0.11264893 -0.1190407 -0.035491444
-0.04327281 0.015028353 -0.2369794 0.12628704 0.053997133 -0.008635276 -0.057812948 0.07421728
-0.0957295 0.04679812 -0.055732783 -0.10562669 -0.055009592 -0.028121768 0.02133071 0.041810133
0.063858464 0.068438075 0.11111638 -0.31438908 0.031936765 -0.01846915 0.016445333 -0.1390295
0.10757609 -0.029871956 -0.09714553 0.053047076 0.049019754 -0.12536396 0.08911602 -0.09675436
0.012469038 -0.027568769 0.05886919 0.044411354 -0.1335999 -0.069183245 0.067606665 -0.11362024
0.071758136 -0.027265953 -0.019328117 0.034340378 0.014368241 0.047755565 -0.04948895 0.041414365
0.07382437 0.08179207 0.008748541 -0.11044015 0.06274076 0.08539789 -0.130892 0.03220438
-0.0544739 0.030921057 -0.06441072 0.071999535 -0.07283657 0.055792872 0.07700086 0.05834015
0.0065389853 -0.07715772 0.03308714 -0.19502516 0.08449636 -0.05512619 -0.1231568 0.010391329
0.08395738 0.01595947 0.092392445 -0.13223101 0.0041943504 -0.14064027 0.10080185 -0.029127957
0.04253425 -0.0509246 0.08652605 -0.053896762 -0.01522706 0.0070857485 0.047358412 0.06453635
0.090307474 -0.077522814 -0.0688691 -0.16934085 -0.2147739 -0.051086787 0.09051679 0.07128635
0.005231263 0.053150076 -0.0072373017 0.015373509 0.05606459 0.004728772 0.07369936 0.108066484
-0.02954038 0.06528267 -0.07834677 -0.0017667355 0.077819 0.03547256 0.055318907 0.10673086
-0.07468793 0.10969747 0.042143982 0.026813144 0.04235027 -0.047537312 -0.02666078 -0.016278615
-0.07210838 -0.043279916 0.034965258 -0.051001295 -0.041297518 -0.047235575 -0.00078057527 -0.093657024
-0.11316385 -0.16565014 0.07143227 -0.07206909 -0.11488796 -0.11332447 -0.010277599 -0.12466819
0.0065433183 -0.038706366 -0.012883783 0.06590315 0.0041120104 0.0028022507 -0.13178356 0.11715951
-0.11846587 -0.018271206 -0.05529772 -0.05814994 -0.11094828 -0.103452004 -0.0016121469 -0.09368011
-0.05308748 -0.08906791 -0.010835309 -0.09218873 0.059338666 -0.005204067 -0.06353177 -0.073540136
-0.044422317 0.032642756 0.030819286 -0.06641579 0.039904837 -0.020571448 -0.103049174 0.024897058
0.05352371 0.07868454 0.06419947 -0.03837574 0.08877585 -0.060042948 -0.06447575 -0.2578759
0.045890797 -0.013968429 0.11761026 0.046328455 0.059866756 0.041490313 0.05486031 0.019931009
0.0272944 -0.11005216 0.07729598 -0.06287485 0.11103867 -0.022667313 -0.014002795 -0.0723086
-0.05225477 0.06943761 -0.05852069 0.08760199 0.10991834 -0.061961513 0.10967426 -0.15175474
0.097043104 -0.107305974 -0.042151522 -0.012431551 -0.035197493 0.1415303 0.10366548 0.06672008
-0.1555866 0.0022860304 -0.14362326 0.08852991 -0.19032434 0.017594155 -0.0017952841 -0.15629527
-0.03904915 -0.13260148 -0.08513497 0.07226158 -0.06652565 0.0015981719 0.043993153 -0.11887881
00000000: 2230 063e 650f 99bd 08d8 91bd ddcd 743d
00000010: 7d12 11be f679 1ebe 8ad9 d7bd eb5a 993c
00000020: 3069 6bbc f51f 81be 8a44 eabc ca3d e33a
00000030: 39dd c0bc cb2f b5bd 3501 25be 307f 85bd
00000040: e975 c03d 9f58 29bd 4a34 67be 8b91 2fbc
00000050: d70b a63d 2c82 de3d ba68 823d 013b ae3b
00000060: eacc c03d 2f01 783d ead5 0cbe 93e8 a93d
00000070: cf1f c83d 7bb4 e6bd 9ccb f3bd 7a5f 11bd
00000080: d43e 31bd 7b39 763c baaa 72be 6451 013e
00000090: 192c 5d3d f97a 0dbc 45cd 6cbd 3bff 973d
000000a0: d40d c4bd 63af 3f3d 0f48 64bd ce52 d8bd
000000b0: bd51 61bd 9f5f e6bc bebd ae3c 1a41 2b3d
000000c0: 3ac8 823d 4329 8c3d fc90 e33d 9bf7 a0be
000000d0: 20d0 023d 9d4c 97bc 5db8 863c c05d 0ebe
000000e0: da50 dc3d 08b6 f4bc 3cf4 c6bd e447 593d
000000f0: f0c8 483d 695f 00be 7682 b63d 2627 c6bd
00000100: f04a 4c3c e6d7 e1bc d220 713d aee8 353d
00000110: 6ace 08be f2af 8dbd 5d75 8a3d bab1 e8bd
00000120: eef5 923d d95c dfbc 0056 9ebc 7fa8 0c3d
00000130: c568 6b3c 579b 433d edb4 4abd 1ca2 293d
00000140: 3b31 973d 9a82 a73d 0a56 0f3c 722e e2bd
00000150: 3a7e 803d 17e5 ae3d 8d08 06be bde8 033d
00000160: 0620 5fbd 284e fd3c c4e9 83bd 7e74 933d
00000170: 572b 95bd 1187 643d a0b2 9d3d 15f6 6e3d
00000180: fc44 d63b de04 9ebd 6286 073d adb4 47be
00000190: 6d0c ad3d 00cc 61bd a239 fcbd 6540 2a3c
000001a0: d9f1 ab3d 6fbd 823c 4038 bd3d 9167 07be
000001b0: c370 893b 0104 10be 3371 ce3d c19d eebc
000001c0: 6538 2e3d 5096 50bd 9234 b13d dac2 5cbd
000001d0: eb7a 79bc 912f e83b e5fa 413d a22b 843d
000001e0: 20f3 b83d 48c4 9ebd 3e0b 8dbd b067 2dbe
000001f0: b0ed 5bbe 6140 51bd de60 b93d 94fe 913d
00000200: 046b ab3b e5b3 593d e326 edbb 2ce1 7b3c
00000210: fca3 653d d1f3 9a3b b1ef 963d f651 dd3d
00000220: abfe f1bc ecb2 853d 4574 a0bd ce91 e7ba
00000230: 915f 9f3d ad4b 113d 1496 623d b695 da3d
00000240: fcf5 98bd 11a9 e03d 2b9f 2c3d 3da7 db3c
00000250: 7a77 2d3d 7cb6 42bd b567 dabc bb5a 85bc
00000260: 8fad 93bd 4846 31bd bb37 0f3d bce6 50bd
00000270: 9627 29bd 177a 41bd 859f 4cba 41cf bfbd
00000280: 73c2 e7bd 31a0 29be 154b 923d f698 93bd
00000290: 614a ebbd a916 e8bd 6063 28bc 0952 ffbd
000002a0: 5569 d63b 918a 1ebd 8116 53bc 3bf8 863d
000002b0: 0bbe 863b f7a5 373b 45f2 06be 53f1 ef3d
000002c0: 3c9e f2bd 7fad 95bc dd7f 62bd a22e 6ebd
000002d0: da38 e3bd a5de d3bd ac4e d3ba 5cdb bfbd
000002e0: 4272 59bd 3d69 b6bd 9486 31bc 72cd bcbd
000002f0: 1a0d 733d e186 aabb f21c 82bd 369c 96bd
00000300: 2df4 35bd 69b4 053d ba78 fc3c 0005 88bd
00000310: 4173 233d 7485 a8bc 720b d3bd eaf4 cb3c
00000320: ae3b 5b3d 5c25 a13d 037b 833d e12f 1dbd
00000330: 1dd0 b53d 98ef 75bd dd0b 84bd 4f08 84be
00000340: fdf7 3b3d d6db 64bc a6dd f03d e8c2 3d3d
00000350: d836 753d bff1 293d 34b5 603d 5b46 a33c
00000360: 8198 df3c 0763 e1bd 5b4d 9e3d 88c4 80bd
00000370: 3e68 e33d cdb0 b9bc fb6b 65bc 8816 94bd
00000380: 1909 56bd 4e35 8e3d 64b3 6fbd ac68 b33d
00000390: de1c e13d 5bcb 7dbd e69c e03d 9865 1bbe
000003a0: 89be c63d 3cc3 dbbd 13a7 2cbd b4ad 4bbc
000003b0: 3f2b 10bd 52ed 103e 914e d43d 8aa4 883d
000003c0: 1852 1fbe 3ad1 153b fa11 13be 2b4f b53d
000003d0: 62e4 42be 9e21 903c bd4f ebba de0b 20be
000003e0: 00f2 1fbd afc8 07be 3e5b aebd e1fd 933d
000003f0: 9a3e 88bd c079 d13a 2a32 343d bc76 f3bd

fc.8.bias f4 [4]
-0.004310412 -0.02066038 -0.009517641 0.04158593
00000000: 5b3e 8dbb f53f a9bc e1ef 1bbc 0256 2a3d
