model/lv1_bc_model_2.0.pth (torch, 84972 bytes, 8 tensors)

fc.0.weight f4 [64, 184]
0	0x3e6c26a6	0.23061618
1	0xbe27ceab	-0.16387431
2	0xbd7cf0f6	-0.061753236
3	0xbcd659d1	-0.026165875
4	0x3d539f85	0.0516658
5	0xbde70d47	-0.11281829
6	0xbd03c75d	-0.03217255
7	0xbd801843	-0.062546276
8	0x3d630af9	0.055430386
9	0xbd806b6c	-0.06270489
10	0xbd5130b2	-0.05107183
11	0xbd1152fa	-0.035479523
12	0xbd950a9c	-0.07277414
13	0xbb732513	-0.0037100955
14	0x3c5b4cb4	0.013384987
15	0xbd533c5e	-0.051571243
16	0x3d8c9ab8	0.06865448
17	0xbd5e5942	-0.05428434
18	0xbc8b37b9	-0.016994344
19	0xbd94bc8c	-0.07262525
20	0x3d473de6	0.048643015
21	0x3d5e42a0	0.054262757
22	0x3c9fd753	0.019511854
23	0x3d743dd0	0.05962926
24	0xbb6bf3df	-0.0036003513
25	0x3ba1c76a	0.004937102
26	0x3d8c4bac	0.06850371
27	0xbd35f64e	-0.044424348
28	0xbd0c2c06	-0.03422167
29	0xbd721690	-0.05910355
30	0x3d31f260	0.043444037
31	0x3b20d04d	0.002453822
32	0x3d8aec85	0.06783394
33	0x3c3fc84a	0.0117054675
34	0x3c21d790	0.009878054
35	0xbd7ad2be	-0.061236136
36	0x3ba8326f	0.0051329653
37	0xbd15e617	-0.036596384
38	0x3c7fdcd1	0.015616612
39	0xbcb5bb2f	-0.022183983
40	0x3d27dab0	0.04098004
41	0xbaad3e8a	-0.0013217491
42	0xbc05d587	-0.008168585
43	0x3c843089	0.016136425
44	0x3c3d00d8	0.011535846
45	0x3d086307	0.033297565
46	0xbcef5b6b	-0.029218396
47	0xbd7ba41c	-0.061435804
48	0x3d2fa32e	0.04288023
49	0xbd813972	-0.06309785
50	0x3af26bcb	0.001849526
51	0xbc79a6a2	-0.015237482
52	0x3d602f8e	0.05473285
53	0x3d5fa417	0.054599848
54	0xbd74400a	-0.059631385
55	0x3cd85650	0.026408345
56	0xbd6d0780	-0.05786848
57	0x3da6299b	0.08113404
58	0xbbbdbeae	-0.005790553
59	0xbd1272dc	-0.03575407
60	0xbd58653e	-0.052830927
61	0xbd64bed0	-0.055846035
62	0x3b1bbd0b	0.0023763801
63	0xbd388dc6	-0.04505708
64	0xbc54fbbe	-0.012999473
65	0x3c5be5cc	0.013421487
66	0x3d580df9	0.0527477
67	0xbc9214e7	-0.017832233
68	0xbc9aee9f	-0.018912612
69	0xbc981c23	-0.018568104
70	0xbd929a7c	-0.07158372
71	0x3d00f809	0.031486545
72	0x3d1c3b1f	0.03814232
73	0x3d92fabe	0.071767315
74	0xbd954d3c	-0.07290122
75	0x3d0450d6	0.032303654
76	0x3c90d960	0.017681777
77	0x3ccb568c	0.024821542
78	0xbd911a71	-0.070851214
79	0x3d24a829	0.040199433
80	0x3d56585d	0.052330364
81	0x3cd5e467	0.026109887
82	0x3d47a606	0.048742317
83	0x3d106cc6	0.035259984
84	0x3d68b78d	0.056815673
85	0xbb14b302	-0.0022689705
86	0x3cbcc061	0.023040952
87	0x3d929750	0.07157767
88	0xbb05d983	-0.0020423837
89	0x3d91b205	0.07114033
90	0xbd828b5d	-0.06374238
91	0x3ca34eb0	0.019934982
92	0x3d8c7116	0.06857507
93	0x3cc22e0f	0.023703603
94	0x39c241ab	0.0003705149
95	0xba256405	-0.00063091546
96	0xbd334b56	-0.043773018
97	0xbd91495e	-0.07094072
98	0xbd85abd5	-0.06526915
99	0x3c93b3f5	0.018030146
100	0xbbf22c74	-0.007390553
101	0xbd094662	-0.033514388
102	0xbd01abd2	-0.031658
103	0x3bde781c	0.0067892205
104	0x3c543943	0.012953105
105	0x3c219482	0.009862067
106	0xbdc96d6d	-0.098353244
107	0x3d323401	0.043506626
108	0x3c9e7a68	0.019345477
109	0xbd87bd8d	-0.06627951
110	0xbd1b3cbb	-0.037899714
111	0xbc5c47cb	-0.013444851
112	0xbbcac796	-0.0061883433
113	0xbd2d9150	-0.04237491
114	0x3d8fde7c	0.070248574
115	0x3d2ed006	0.042678855
116	0x3d353b27	0.044245865
117	0x3adef1e5	0.0017009346
118	0xbcb116c5	-0.021617303
119	0xbd848d17	-0.06472223
120	0xbd0fa9d7	-0.03507408
121	0x3c303633	0.01075511
122	0x3d0e3a1e	0.034723394
123	0xbd2f4c8f	-0.04279762
124	0x3c9e3c0e	0.019315746
125	0xbc79c380	-0.015244365
126	0x3d0f30fe	0.034958832
127	0xbd0b8d5c	-0.034070358
128	0x3d7a3084	0.061081424
129	0xbd03bdfc	-0.032163605
130	0xbc6fddd8	-0.014640294
131	0xbcd7736b	-0.026300153
132	0xbd0a2cf2	-0.03373427
133	0x3d4d2561	0.050084475
134	0x3cfe85d1	0.031069668
135	0x3d2fbd54	0.042905167
136	0x3c596e14	0.013270874
137	0xbb8cadce	-0.00429318
138	0x3bb44c32	0.0055022473
139	0x3c55c814	0.013048191
140	0x3b7f1630	0.0038923137
141	0xbd5e2b49	-0.0542405
142	0x3b2b26a1	0.0026115554
143	0x3afa19ae	0.001908114
144	0xbca66438	-0.02031146
145	0x3d48bd5d	0.049008716
146	0xbd09b631	-0.033621017
147	0xbd8b61f0	-0.068057895
148	0xbdb5847b	-0.08863159
149	0xbc8a5201	-0.016884806
150	0xba399977	-0.0007080058
151	0xbd119fcc	-0.035552785
152	0xbd0703ca	-0.032962598
153	0x3cb31d9a	0.021864701
154	0x3d4ff106	0.050766967
155	0x3c7d7e1b	0.01547196
156	0xbcced1df	-0.025246559
157	0x3d721097	0.059097853
158	0xbd06c31d	-0.03290092
159	0x3ca9c2b8	0.020722732
160	0x3d831d42	0.06402065
161	0x3cf31168	0.029671386
162	0x3d871e8f	0.065976255
163	0xbd8d7eec	-0.06908974
164	0xbd031d54	-0.03201039
165	0x3c184cb2	0.009295629
166	0x3d8fa116	0.070131466
167	0x3ca1306b	0.019676408
168	0xbd8235a6	-0.06357889
169	0xbd362986	-0.044473194
170	0x3cfc1ffb	0.030776968
171	0xbd8f4c76	-0.06997006
172	0xbcdb4593	-0.026766574
173	0xbc5f9356	-0.0136459675
174	0xbd492246	-0.04910495
175	0xbc81629d	-0.015794093
176	0xbb2ff47b	-0.0026848603
177	0xbcb4c1bb	-0.022065034
178	0xbceeb6e5	-0.029139945
179	0x3d827eff	0.06371879
180	0x3d63c9b2	0.055612274
181	0xbc9a8264	-0.018861003
182	0xbbea50f6	-0.0071507646
183	0x3de8addf	0.11361288
184	0xbf045c0b	-0.51702946
185	0xbe73c7a8	-0.23806632
186	0x3cdf6966	0.027271938
187	0xbc6e7a25	-0.014555489
188	0x3d9853f5	0.074378885
189	0xbe1e2b74	-0.15446264
190	0x3c4b51b7	0.012409619
191	0x3d2142ca	0.039370336
192	0xbd278352	-0.04089672
193	0x3da9004a	0.08252008
194	0x3d152b54	0.036418274
195	0x3d9dcee2	0.077054754
196	0x3d0d33c8	0.03447321
197	0x3becca8f	0.0072262953
198	0x3d2b4f26	0.04182353
199	0x3d3382f4	0.04382606
200	0xbd2c633a	-0.042086817
201	0x3d61deaa	0.05514399
202	0xbcde8dba	-0.02716719
203	0x3ce82a86	0.02834059
204	0x3d588cda	0.0528687
205	0x3cc1e6ec	0.023669682
206	0x3ce521f4	0.027970292
207	0x3d3cd08a	0.046097316
208	0x3d1e2928	0.03861347
209	0x3c9a29a9	0.018818693
210	0x3c06ab5b	0.008219565
211	0xbd09970b	-0.03359131
212	0x3d9589ca	0.07301672
213	0x3cf6579d	0.030071074
214	0x3cd78893	0.02631024
215	0xbd8b9ecf	-0.068174
216	0xbd922955	-0.0713679
217	0x3d178e6b	0.037001055
218	0xbd5b7c36	-0.053585254
219	0xbd67cf20	-0.056594014
220	0x3d8c6ec7	0.068570666
221	0x3d2d928b	0.042376082
222	0xbc4fa600	-0.012673855
223	0xbc941564	-0.018076606
224	0x3c34b10a	0.0110285375
225	0xbd805a9b	-0.062672816
226	0x3cadbcad	0.021208132
227	0xbcb20efa	-0.021735657
228	0xbd3cc9ed	-0.04609101
229	0x3d5a07ae	0.05322998
230	0x3d969bb1	0.073539145
231	0xbca1660c	-0.01970198
232	0x3c66b006	0.014080053
233	0xbd0a234c	-0.033725068
234	0x3d7ad6b4	0.061239913
235	0xbcc32765	-0.023822496
236	0x3ce2443a	0.027620424
237	0xbceb1026	-0.028694224
238	0xbb5296d3	-0.0032133355
239	0x3cf6538b	0.030069133
240	0xbcf9fc2a	-0.030515749
241	0x3c4e5400	0.012593269
242	0xbd65a865	-0.056068797
243	0xbd80f7da	-0.06297274
244	0xbc5c21ae	-0.013435764
245	0x3c5ba3fe	0.013405798
246	0x3c87e8ee	0.016590562
247	0xbbafb047	-0.00536159
248	0xbd0a41e6	-0.033754252
249	0x38706770	5.7316793e-05
250	0x3b58cfc9	0.0033082834
251	0xbd3765cb	-0.04477481
252	0x3c53a768	0.012918331
253	0xbd10ae76	-0.03532263
254	0x3c49b932	0.01231222
255	0x3d3872ae	0.045031242

fc.0.bias f4 [64]
0	0xbd8db4b7	-0.06919234
1	0x3d42afa4	0.047530785
2	0xbcf8db1d	-0.030377919
3	0xbd173269	-0.03691331
4	0x3d551620	0.052023053
5	0xbda0bb80	-0.07848263
6	0xbd0f8424	-0.03503813
7	0xbd72891c	-0.05921279
8	0xbd61c305	-0.055117626
9	0xbd5ec5ba	-0.054387785
10	0xbc94e24a	-0.01817431
11	0x3d4611e8	0.04835692
12	0xbd1e021a	-0.038576223
13	0xbd314fe9	-0.0432891
14	0xbd8c4508	-0.06849104
15	0xbd22da81	-0.039759163
16	0x3d7c1a49	0.061548505
17	0xbcba6f88	-0.02275826
18	0x3cdbefb4	0.026847698
19	0x3ccb1daa	0.024794418
20	0x3cbbb0d0	0.02291146
21	0xbc26bb33	-0.010176468
22	0xbd95fdf5	-0.07323829
23	0xbd4bdb82	-0.049769886
24	0xbd8b1c9f	-0.067925684
25	0xbd88a7d6	-0.06672637
26	0xbc29f191	-0.010372535
27	0xbd53ac2f	-0.05167788
28	0x3c883a6d	0.016629422
29	0x3c9f4042	0.01943982
30	0xbd0d2483	-0.03445865
31	0xbc20d714	-0.009816904
32	0x3c83af3c	0.01607477
33	0x3d3e545e	0.046467178
34	0xbd5efc41	-0.054439787
35	0xbc36bbb7	-0.011153153
36	0x3d549bda	0.051906444
37	0xbb0e6bc2	-0.002173171
38	0x3d1b40c6	0.03790357
39	0xbd79782c	-0.06090562
40	0x3c1396b9	0.009008103
41	0xbc90db18	-0.017682597
42	0x3b85d23e	0.0040839007
43	0xbcf342f2	-0.029695008
44	0xbd3a9be3	-0.04555882
45	0xbb79361e	-0.003802664
46	0x3d6121b3	0.05496378
47	0x3d03b7fd	0.032157887
48	0xbd8f7429	-0.07004578
49	0x3d862f30	0.06551969
50	0xbd0ca125	-0.034333367
51	0xbd3e5f39	-0.04647753
52	0xbc79ac48	-0.015238829
53	0xbd9977b4	-0.07493535
54	0xbd8026dc	-0.06257412
55	0xbd716dbb	-0.058942538
56	0xbd42bd54	-0.04754384
57	0xbd23b982	-0.039971836
58	0x3d98b9f5	0.074573435
59	0xbd819a1c	-0.06328222
60	0xbc2c9b2f	-0.0105350455
61	0x3ba42d95	0.0050103166
62	0xbc8ebd3d	-0.01742422
63	0xbd8a1b69	-0.06743509

fc.2.weight f4 [64, 64]
0	0xbf26aac9	-0.6510435
1	0x3d75c65d	0.060003627
2	0xbd881b65	-0.0664585
3	0x3dc0ec67	0.0942009
4	0x3ec1d86e	0.37860435
5	0x3b614c55	0.0034377773
6	0xbda0258b	-0.07819661
7	0xbd25d1f8	-0.040483445
8	0xbd14fa3a	-0.036371447
9	0x3d7f37fc	0.06230925
10	0xbdbdb064	-0.092621595
11	0x3daf8d92	0.08571924
12	0x3d68e306	0.05685713
13	0x3e090250	0.13379788
14	0xbe069ce6	-0.1314579
15	0xbda73b42	-0.081655994
16	0x3cfb431c	0.030671649
17	0x3d91cc18	0.07119006
18	0x3da3baef	0.07994639
19	0x3e635060	0.2219863
20	0xbf0b04a2	-0.54303944
21	0xbd5a7991	-0.05333859
22	0x3e0630f4	0.13104612
23	0xbd4c25ab	-0.04984061
24	0x3d2a681e	0.0416032
25	0xbe5c40e3	-0.21509127
26	0xb8b49359	-8.6105145e-05
27	0x3e978f26	0.296014
28	0x3d25bce8	0.04046336
29	0x3e1825b2	0.1485813
30	0x3d883d95	0.06652371
31	0x3dcd4f35	0.10024873
32	0x3c587f16	0.013213893
33	0x3e13f3e9	0.14448513
34	0x3edf8027	0.4365246
35	0xbd3e48a0	-0.04645598
36	0x3c080c75	0.008303751
37	0xbe181c12	-0.14854458
38	0xbe0475c6	-0.12935552
39	0x3de06cd4	0.10958257
40	0xbdf1cbfa	-0.118064836
41	0xbaf725a1	-0.0018855819
42	0xbe3e6a9a	-0.18595353
43	0x3dd5e669	0.10444338
44	0x3d012270	0.031526983
45	0x3d9c9d09	0.076471396
46	0xbd26082a	-0.04053513
47	0xbddbeed7	-0.107389145
48	0xbdb212e0	-0.08695006
49	0xbcffcc8f	-0.03122547
50	0x3d594d5e	0.0530523
51	0x3d14c32d	0.036318947
52	0xbdc5304a	-0.09628351
53	0xbdbc0bdc	-0.091819495
54	0xbe55bd55	-0.20873006
55	0xbe056b12	-0.13029125
56	0xbe379c0a	-0.17930618
57	0x3d2053d4	0.039142445
58	0x3ebcee9a	0.3690079
59	0x3e1cbfd4	0.15307552
60	0x3d522364	0.051303282
61	0xbcb773b2	-0.022394035
62	0x3da0697f	0.07832622
63	0x3cc8eb4a	0.024526257
64	0xbeab11f7	-0.33412144
65	0x3dfbb0b6	0.12289564
66	0xbe6ebdcb	-0.23314588
67	0xbd7a1304	-0.06105329
68	0xbdfc9674	-0.12333384
69	0x3e0693c8	0.13142312
70	0xbe17e041	-0.1483164
71	0x3d17e519	0.03708372
72	0x3d181ce6	0.037136935
73	0xbccbec57	-0.024892969
74	0x3dd90b6f	0.10597884
75	0x3c8aa947	0.01692642
76	0xbc985289	-0.018594043
77	0x3d836113	0.06415
78	0x3d7cb595	0.061696608
79	0xbdc06695	-0.09394566
80	0xbdc81444	-0.0976949
81	0x3e9ffab7	0.31245968
82	0xbdeb6728	-0.11494285
83	0xbcb3f962	-0.0219695
84	0xbe355e92	-0.17711857
85	0xbd5bebc1	-0.05369163
86	0x3e0b35c9	0.13594736
87	0xbe7297bd	-0.23690696
88	0xbe9c9842	-0.30584913
89	0x3cdbaf76	0.026817065
90	0x3cbe13a8	0.023202732
91	0x3e015804	0.12631232
92	0x3b912540	0.0044294894
93	0x3e073531	0.13203885
94	0xbd0cde3f	-0.034391638
95	0x3d3cd37f	0.046100136
96	0xbf0806bb	-0.5313527
97	0x3bddaf9b	0.0067653186
98	0x3e4f6974	0.20255071
99	0xbe88cc3a	-0.26718313
100	0x3e7629b2	0.24039343
101	0xb996ddbb	-0.00028775432
102	0x3d4e0e1c	0.050306424
103	0x3e358e9d	0.17730184
104	0x3cd38410	0.025819808
105	0xbe0c0a9a	-0.13675919
106	0xbdc70c45	-0.09719137
107	0xbdebb517	-0.115091495
108	0xbdaaa742	-0.08332683
109	0x3d142047	0.036163595
110	0x3da926a4	0.08259323
111	0x3e242180	0.16028404
112	0xbdd81f94	-0.10552898
113	0x3db9d371	0.090735324
114	0x3db1bd80	0.086787224
115	0x3d21db3e	0.039515726
116	0xbd994e0c	-0.074855894
117	0x3da7929d	0.08182261
118	0x3e37fcb9	0.179675
119	0xbda9a53d	-0.0828347
120	0x3d22bae0	0.039729
121	0xbdbe59c8	-0.09294468
122	0xbe51d80f	-0.20492576
123	0x3def2855	0.116776146
124	0x3e8b8fe8	0.2725823
125	0x3d142e4f	0.036176976
126	0xbe80b23a	-0.25135976
127	0xbcae70a8	-0.021293953
128	0x3e04e679	0.12978543
129	0x3db0329d	0.08603404
130	0x3e970c3e	0.29501528
131	0x3dadf2d8	0.084935844
132	0xbcc16155	-0.023605982
133	0xbd65b0c1	-0.05607677
134	0x3dce02a2	0.10059096
135	0xbdcebee6	-0.10095005
136	0x3da9c9b5	0.08290426
137	0x3e0fbf3f	0.14037798
138	0x3c907b9a	0.017637063
139	0x3d50fe3f	0.051023718
140	0x3da0d34a	0.078528
141	0xbd484817	-0.048896875
142	0xbaaa5c6d	-0.0012997516
143	0x3d8dec38	0.06929821
144	0x3d56e116	0.052460752
145	0xbe23cd8b	-0.15996377
146	0x3d9fbfbd	0.07800243
147	0xbd666e6c	-0.05625765
148	0x3e79e5f5	0.24404128
149	0x3dc78554	0.09742227
150	0xbd5d460b	-0.054021876
151	0x3ed41767	0.41424105
152	0x3a802251	0.0009775852
153	0xbd9bdb9e	-0.07610248
154	0x3d963cbe	0.073358044
155	0x3d44832b	0.047976654
156	0x3d83d716	0.06437509
157	0x3de74458	0.112923324
158	0x3d1c04d5	0.038090546
159	0x3a4345e5	0.0007449075
160	0xbdb6e485	-0.089303054
161	0x3d11e55d	0.03561913
162	0xbcc189cd	-0.023625279
163	0x3e3977d2	0.18112114
164	0xbd04b4c6	-0.03239896
165	0xbb1610ca	-0.002289819
166	0x3d606173	0.054780435
167	0x3dc01a0c	0.09379968
168	0xbcb3b6cc	-0.02193775
169	0x3dd1c66a	0.102429226
170	0xbcc8df2e	-0.024520483
171	0xbe1af4d7	-0.15132461
172	0xbe08439b	-0.1330704
173	0xbe49f907	-0.19723903
174	0x3d99b2b0	0.07504785
175	0xbdb547a5	-0.08851556
176	0xbceaff72	-0.028686259
177	0xbdb37718	-0.0876295
178	0xbd8f8d00	-0.070093155
179	0x3d972388	0.07379824
180	0x3db6e627	0.08930617
181	0xbd19ae87	-0.037519958
182	0x3e2f6617	0.17128788
183	0x3e4e91be	0.20172784
184	0xbacf133f	-0.0015798582
185	0x3ded3bea	0.11583693
186	0x3e9ed16d	0.31019154
187	0xbc44fefc	-0.012023684
188	0x3dd5689a	0.10420342
189	0x3dd57c7c	0.10424134
190	0xbd872be3	-0.066001676
191	0xbd0bd8d6	-0.034142338
192	0xbec1f6a7	-0.37883493
193	0x3d43eb9a	0.04783211
194	0xbd34bcc0	-0.04412532
195	0xbe082e6b	-0.13298957
196	0x3d173a14	0.036920622
197	0xbe06cdd0	-0.13164449
198	0x3c4c85d2	0.012483077
199	0x3e2f5871	0.17123581
200	0x3e41b708	0.18917477
201	0xbda25de0	-0.079280615
202	0x3dbc6469	0.09198839
203	0x3e2d2001	0.1690674
204	0x3db5c727	0.08875876
205	0x3df051c0	0.117343426
206	0xbd4cd157	-0.05000433
207	0xbd9fddec	-0.07806
208	0x3d1b5df8	0.037931412
209	0xbc8ca195	-0.017166892
210	0x3d7fafab	0.06242339
211	0xbd3a69bf	-0.045511004
212	0xbdf3c420	-0.11902642
213	0xbda060a3	-0.07830932
214	0x3df6b826	0.12046842
215	0x3e264c56	0.16240057
216	0xbdb6e292	-0.089299336
217	0x3d92b5ca	0.0716358
218	0x3b9eae0a	0.0048425244
219	0x3d9b22a2	0.07574965
220	0xbde6946e	-0.112587795
221	0x3d2e89e6	0.04261198
222	0x3e0297e6	0.12753257
223	0xbe2589b6	-0.16165814
224	0x3d90be53	0.070675515
225	0x3df1ba4b	0.11803111
226	0x3db2534e	0.08707295
227	0xbd0f1846	-0.03493526
228	0xbe023040	-0.12713718
229	0x3e506ab5	0.20353206
230	0x3e32b56a	0.17452016
231	0x3dd698a9	0.10478336
232	0x3e3d459f	0.1848359
233	0xbdb4b165	-0.08822898
234	0xbcc9bb04	-0.024625309
235	0xbd11d09e	-0.035599343
236	0xbdcb73a4	-0.09934166
237	0xbdf02114	-0.11725059
238	0xbd9cf32e	-0.0766357
239	0x3d233f0e	0.039855056
240	0x3d6e41ff	0.058168408
241	0x3d19c2eb	0.037539404
242	0x3e01cb02	0.12675098
243	0xbd164357	-0.036685314
244	0x3d3d83d1	0.046268288
245	0xbda1e876	-0.079056665
246	0xbd569413	-0.05238731
247	0x3de55a99	0.11198921
248	0x3d81d49b	0.063393794
249	0x3dce7e58	0.10082692
250	0xbe279ede	-0.16369197
251	0xbda4be5b	-0.0804412
252	0x3e186b7e	0.14884755
253	0xbd4965da	-0.0491694
254	0xbb3b8244	-0.002861158
255	0x3dbb415f	0.09143328

fc.2.bias f4 [64]
0	0xbd9602fc	-0.07324788
1	0x3cba6c2f	0.022756664
2	0x3ce64804	0.028110512
3	0xbce5881f	-0.02801901
4	0x3d8d7fed	0.069091655
5	0x3ceb7555	0.028742472
6	0x3ddc64e6	0.10761432
7	0xbd399160	-0.045304656
8	0x3deb7d13	0.114984654
9	0x3d8107bf	0.063003056
10	0x3b9d62b6	0.004803027
11	0xbd9a2fa9	-0.07528622
12	0x3e0dc44c	0.13844413
13	0x3d21a575	0.039464433
14	0xbdb3f561	-0.08787037
15	0x3d9f9b44	0.077932864
16	0x3da0da4e	0.07854138
17	0x3dd13e15	0.10216919
18	0xbbbfd90f	-0.005854733
19	0x3da84151	0.08215583
20	0x3d84c7c6	0.06483416
21	0x3cd67ecd	0.02618351
22	0x3c82c445	0.01596273
23	0x3c696ac3	0.014246645
24	0xbccc1c6f	-0.024915902
25	0xbdc9f318	-0.098608196
26	0x3dd2b7b9	0.102889486
27	0xbd3be931	-0.045876686
28	0xbde3fe4c	-0.11132488
29	0xbd97aa05	-0.074054755
30	0x3c25ff54	0.010131676
31	0xbccee8d2	-0.025257502
32	0x3d15ef39	0.036605094
33	0x3d70de8b	0.058805984
34	0xbd230e47	-0.039808538
35	0x3d32316e	0.04350417
36	0x3dd7e2b1	0.10541285
37	0xbc98e606	-0.018664371
38	0xbda52c44	-0.080650836
39	0x3d243657	0.040090885
40	0xbd60ef0a	-0.054915465
41	0xbd313bb7	-0.04326984
42	0x3d2e4138	0.042542666
43	0x3dc9e3a6	0.098578736
44	0xbc80b625	-0.015711853
45	0xbdd410fc	-0.10354802
46	0x3d62e16b	0.055390757
47	0xbccae07c	-0.024765246
48	0x3e1d6b55	0.15372975
49	0x3dd175a5	0.10227517
50	0x3d55fc5e	0.05224263
51	0xbc8f0221	-0.01745707
52	0xbbf46e22	-0.007459418
53	0x3cf0db20	0.029401362
54	0x3df3fd06	0.11913495
55	0x3cc99e30	0.024611562
56	0xbdc3d60a	-0.09562309
57	0x3de565ec	0.11201081
58	0xbc411b74	-0.0117863305
59	0x3d7e6d05	0.062115688
60	0x3de2473e	0.110487446
61	0x3c9c51a7	0.019081904
62	0x3d6d5148	0.057938844
63	0x3ce64008	0.028106704

fc.4.weight f4 [64, 64]
0	0xbd8b00b9	-0.06787247
1	0xbdf867fa	-0.12129207
2	0xbd8e0ae2	-0.069356695
3	0xbcd12812	-0.025531802
4	0xbddd3361	-0.108008154
5	0xbd759180	-0.059953213
6	0xbd904b93	-0.07045665
7	0xbd224428	-0.03961578
8	0xbdf89929	-0.12138588
9	0x3da1f2a1	0.07907606
10	0xbdabd776	-0.08390705
11	0x3daa6d02	0.08321573
12	0x3d49ceaa	0.049269356
13	0x3d79d275	0.060991723
14	0x3cdb42ce	0.026765253
15	0xbcee61ac	-0.029099308
16	0xbdb3d085	-0.08780006
17	0xbda07652	-0.07835068
18	0xbd1efd9c	-0.03881608
19	0x3daea4ed	0.08527551
20	0xbdc49b20	-0.095999
21	0xbb3bd069	-0.0028658158
22	0x3d121c7c	0.035671696
23	0x3dcbded4	0.099546105
24	0xba8ee05b	-0.0010900603
25	0xbca7bba5	-0.020475218
26	0x3c0fa8d0	0.008768275
27	0xbcab8da2	-0.02094156
28	0xbdbe23f5	-0.09284202
29	0xbdeadfc0	-0.11468458
30	0xbdde75d4	-0.10862318
31	0xbcaa46a8	-0.020785645
32	0x3d721b68	0.059108168
33	0xbd088ea4	-0.033339158
34	0xbdea68ec	-0.114457935
35	0xbd7df1a8	-0.06199804
36	0xbdb5b5e1	-0.08872581
37	0xbc684c3a	-0.01417833
38	0xbdb3dc11	-0.08782209
39	0xbcf52c44	-0.029928334
40	0xbceb8528	-0.028750017
41	0xbde26c37	-0.110557966
42	0x3d8845a7	0.0665391
43	0x3bd3684b	0.0064516417
44	0xbe13f886	-0.14450273
45	0xbdacae23	-0.084316514
46	0x3c2fe0fb	0.010734792
47	0x3d9cee15	0.07662598
48	0xbd9c2601	-0.07624436
49	0x3c8dbeb5	0.01730285
50	0xbd7bb726	-0.06145396
51	0xbc3726c3	-0.011178675
52	0x3bd390c0	0.0064564645
53	0xbd10072c	-0.03516309
54	0x3d3d30c8	0.0461891
55	0xbbb6f2a8	-0.005583126
56	0x3d718c04	0.05897142
57	0x3dbf35f5	0.09336463
58	0xbdd31654	-0.10306993
59	0xbd7f8136	-0.062379085
60	0xbd0a4676	-0.033758603
61	0x3ced408f	0.028961448
62	0x3dc0538a	0.09390934
63	0xbd4376e8	-0.04772082
64	0x3e880b34	0.26571047
65	0x3de1e91c	0.1103079
66	0xbdf3acaa	-0.118981674
67	0x3c32d97e	0.010916112
68	0x3e1e7dbb	0.1547765
69	0x3c221525	0.009892737
70	0x3decef13	0.11569037
71	0xbdaf36d7	-0.08555382
72	0x3eae7ce1	0.3407965
73	0x3dcbc510	0.09949696
74	0x3c817c57	0.01580636
75	0xbddaa1cf	-0.10675394
76	0xbe2b09c4	-0.16702944
77	0x3e0e9b52	0.13926437
78	0xba0995a1	-0.00052484317
79	0x3e0dfa16	0.13864931
80	0x3e0990ef	0.13434194
81	0xbe0d3aae	-0.13791916
82	0xbdf3255e	-0.118723616
83	0xbc45b6e5	-0.012067531
84	0xbc770cd4	-0.015078742
85	0xbcb061e6	-0.021531057
86	0xbf295dd4	-0.66158795
87	0xbe0b6bd5	-0.13615353
88	0x3e40ea47	0.1883937
89	0x3e0dc338	0.13844001
90	0xbd025e3e	-0.031828158
91	0x3d128a54	0.03577645
92	0xbc909d51	-0.01765314
93	0xbef75981	-0.48310474
94	0xbcda55ec	-0.026652299
95	0xbdc38557	-0.09546917
96	0xbebcc8cd	-0.3687195
97	0xbdf76ba1	-0.120810755
98	0x3e8e55c5	0.27799812
99	0x3e179e93	0.14806585
100	0xbdcd09a1	-0.10011602
101	0x3c9c52d9	0.019082474
102	0x3d8d6689	0.06904323
103	0x3eabc746	0.3355047
104	0xbf05a16d	-0.5219944
105	0x3b11b649	0.0022233895
106	0x3df5f974	0.1201047
107	0x3dbb8e72	0.09158029
108	0xbd574f86	-0.052566074
109	0xbc2a9638	-0.0104117915
110	0x3dacbcd0	0.084344506
111	0xbd18ac14	-0.03727348
112	0xbe2608d4	-0.16214305
113	0xbd83f575	-0.064433016
114	0x3e602a96	0.21891245
115	0x3e73eeac	0.23821515
116	0xbe0cc03e	-0.1374521
117	0x3c9c95db	0.019114425
118	0x3e01a16f	0.12659238
119	0xbe014e82	-0.12627605
120	0x3d84d2de	0.06485532
121	0xbe885116	-0.26624364
122	0xbdb4deab	-0.08831533
123	0x3e01e92a	0.12686601
124	0x3cccf7bb	0.02502047
125	0xbd8bebcc	-0.06832084
126	0xbe548953	-0.2075551
127	0x3de531a4	0.11191109
128	0x3d0d0b78	0.034434766
129	0x3e123e64	0.14281613
130	0x3db9f9b6	0.09080832
131	0x3e048bab	0.12943904
132	0x3e40bb97	0.1882156
133	0x3d378921	0.04480851
134	0xbcff4288	-0.031159654
135	0x3d76f795	0.060294706
136	0x3e84b03c	0.25915706
137	0x3da6f0a8	0.0815137
138	0xbdec0c78	-0.11525816
139	0x3db067c0	0.08613539
140	0xbd15d106	-0.036576293
141	0xbcfc7a6e	-0.030820098
142	0x3c9e66ce	0.01933613
143	0x3d90ce00	0.070705414
144	0x3ded6a27	0.115925126
145	0xbd61c6d3	-0.055121254
146	0xbe23f3b1	-0.1601093
147	0xbe0cc25a	-0.13746014
148	0xbd014c82	-0.031567104
149	0x3dc76931	0.097368605
150	0xbf09d525	-0.5384086
151	0xbd5f3f1d	-0.05450355
152	0x3e1d593e	0.15366074
153	0x3df3c16f	0.11902129
154	0xbd9dd30d	-0.0770627
155	0x3d918f84	0.071074516
156	0x3ccf51d9	0.025307583
157	0xbe9a478f	-0.3013272
158	0xbd7d90f0	-0.0619058
159	0xbd8e07e3	-0.06935098
160	0x3d29ce42	0.04145647
161	0x3d739fec	0.059478685
162	0x3e0e82b0	0.13917041
163	0x3e77abb5	0.24186595
164	0xbe3c37a7	-0.18380605
165	0x3d970431	0.07373846
166	0x3d74c15a	0.059754707
167	0x3e202fba	0.15643206
168	0xbf6c187b	-0.92224854
169	0x3e06edd5	0.13176663
170	0xbd120377	-0.035647836
171	0x3c19d5e2	0.009389373
172	0x3d04ad12	0.032391615
173	0x3da5c6d2	0.080945626
174	0xbdb66e92	-0.08907808
175	0xbde56425	-0.11200742
176	0x3dfc2f16	0.123136684
177	0xbe198942	-0.14993766
178	0x3e2368a0	0.1595788
179	0x3e04ecae	0.12980911
180	0x3bbc336f	0.005743436
181	0xbe1150e1	-0.14191009
182	0xbd6e8d8c	-0.05824046
183	0xbd004f44	-0.031325594
184	0x3d395aa9	0.045252476
185	0xbe4a8963	-0.19778971
186	0x3d82d9ba	0.06389184
187	0x3dd104b5	0.10205976
188	0xbdbe97bf	-0.09306287
189	0x3d5ccad0	0.053904355
190	0x3dd118b3	0.10209789
191	0x3d3fc16a	0.046815313
192	0x3eb259db	0.3483418
193	0x3b96c507	0.004601124
194	0xbcf93b8c	-0.030423902
195	0xbe1fe065	-0.15612943
196	0x3e78927d	0.24274631
197	0x3d654cec	0.05598156
198	0x3e9ba779	0.3040121
199	0x3cd9c4e8	0.02658315
200	0x3e8a5065	0.2701446
201	0xbe33311d	-0.17499204
202	0xbea518bb	-0.3224543
203	0xbec21bcd	-0.37911835
204	0x3de3ebd8	0.11128968
205	0xbc794a6f	-0.0152155
206	0xbdf384fa	-0.11890598
207	0x3e1cf279	0.15326871
208	0x3df9fcff	0.12206458
209	0x3d214849	0.039375577
210	0xbec3a9f0	-0.3821559
211	0xbe1382f4	-0.14405423
212	0xbef73cae	-0.48288482
213	0xbe1b0b0b	-0.15140931
214	0xbe9c4668	-0.30522466
215	0xbd336b27	-0.04380336
216	0x3ea2425c	0.31691253
217	0x3e227d60	0.1586814
218	0x3c4d8bd8	0.012545548
219	0x3dea2cfa	0.1143436
220	0x3ea5feb4	0.32420886
221	0xbf6942c1	-0.91117483
222	0x3e5a4279	0.2131442
223	0xbef5bc2c	-0.47995126
224	0x3da07f4c	0.0783678
225	0x3da2f2bd	0.07956455
226	0x3e2cf673	0.16890888
227	0xbd00b2fb	-0.03142069
228	0x3caf384b	0.021389147
229	0xbcfc81b6	-0.03082357
230	0xbafb63fe	-0.001917958
231	0xbed0bef4	-0.40770686
232	0xbf188eea	-0.5959307
233	0xbdc00ecc	-0.09377822
234	0xbde9ea71	-0.11421669
235	0x3e714786	0.2356244
236	0xbc29396f	-0.010328635
237	0x3d0319d3	0.03200705
238	0xbd3cd70f	-0.046103533
239	0x39191ea8	0.00014602637
240	0xbe9c4030	-0.3051772
241	0xbdefa3e2	-0.1170118
242	0x3bf60efd	0.007509111
243	0xbd3c6332	-0.045993038
244	0x3c9b141b	0.018930485
245	0xbd9fb46e	-0.07798086
246	0x3d85f3bc	0.06540629
247	0x3e4d9018	0.20074499
248	0xbdb3d94c	-0.087816805
249	0x3ea2c36e	0.31789726
250	0x3b422643	0.0029624857
251	0x3e13497a	0.14383498
252	0x3e9558f6	0.29169434
253	0x3da8cee5	0.08242587
254	0x3e050b56	0.12992606
255	0x3e22ec2a	0.15910402

fc.4.bias f4 [64]
0	0xbc715537	-0.014729789
1	0x3e0369f0	0.1283338
2	0xbd88f0c7	-0.0668655
3	0x3d1453ec	0.036212847
4	0x3dccedae	0.10006271
5	0x3d808e2f	0.06277119
6	0x3d5f848c	0.054569766
7	0x3e286b6a	0.16447225
8	0xbce08591	-0.02740744
9	0xbab4a59c	-0.0013782266
10	0x3e0a8c6b	0.13530128
11	0xbdb9bd98	-0.09069365
12	0xbd2fbf5b	-0.0429071
13	0xbdeb041c	-0.11475393
14	0xbd7b7890	-0.061394274
15	0x3ddd00f2	0.10791196
16	0xbd744710	-0.059638083
17	0x3dc0c665	0.09412841
18	0x3d97ae12	0.07406248
19	0x3d17f0db	0.037094932
20	0x3d52a453	0.051426243
21	0x3dfc6d98	0.12325591
22	0x3e217eab	0.15770976
23	0xbde83de2	-0.11339928
24	0x3cff0d13	0.031134164
25	0xbc87e849	-0.016590254
26	0x3d45ff44	0.048339143
27	0xbd37a388	-0.04483369
28	0x3c47b7e0	0.012189835
29	0x3d2e809e	0.042603128
30	0x3d5ca3ec	0.053867266
31	0x3d614762	0.054999717
32	0xbd44911f	-0.04798996
33	0x3e288cb1	0.1645992
34	0x3d6e4651	0.058172528
35	0xbc2b7a04	-0.0104661025
36	0x3ccd4520	0.025057375
37	0xbd960b8c	-0.07326421
38	0x3d0b14b9	0.03395531
39	0xbc50bbef	-0.012740119
40	0xbd9c7d35	-0.07641069
41	0xbc890717	-0.016727014
42	0x3d3615fe	0.044454567
43	0xbdaeebb1	-0.08541048
44	0x3920218d	0.00015271288
45	0x3dbf8821	0.093521364
46	0xbd325dad	-0.043546367
47	0x3dfd7684	0.12376121
48	0x39342b82	0.00017182346
49	0x3d9c42bf	0.07629918
50	0x3e278a9e	0.16361472
51	0xbdb75170	-0.0895108
52	0xbda052b5	-0.07828275
53	0xbd7eecf3	-0.06223769
54	0x3daba329	0.0838073
55	0xbd3fe4dd	-0.04684912
56	0xbcd5bd28	-0.026091173
57	0x3e288a6a	0.16459051
58	0xbdab2ac9	-0.0835777
59	0x3d57e1a6	0.05270543
60	0x3cc6b326	0.024255347
61	0xbdbffdb7	-0.09374564
62	0xbd8b7c01	-0.06810761
63	0x3da565a4	0.08076027

fc.6.weight f4 [4, 64]
0	0xbd846099	-0.06463737
1	0xbe97a516	-0.29618138
2	0xbe1a83cb	-0.15089338
3	0xbe7a904f	-0.24469112
4	0xbe465874	-0.1936968
5	0x3e66073a	0.22463694
6	0xbeaadc8c	-0.3337139
7	0xbe1f7fe4	-0.1557613
8	0xbeec6c50	-0.46176386
9	0xbd367e2b	-0.044553917
10	0x3e39c16d	0.18140192
11	0x3e8af207	0.27137777
12	0x3e55df3f	0.20885943
13	0x3db53352	0.08847679
14	0x3e7e9bbd	0.24864097
15	0xbeba5874	-0.3639561
16	0xbc26b33b	-0.010174568
17	0x3e64a5fb	0.22328942
18	0xbe1a13c7	-0.15046607
19	0x3da665b1	0.08124865
20	0xbe8feb3c	-0.28109157
21	0xbe86dd3c	-0.26340663
22	0x3e3867bb	0.1800832
23	0xbd205c13	-0.03915031
24	0xbddba213	-0.107242726
25	0xbf0da3b2	-0.55327904
26	0xbe108d09	-0.141163
27	0xbeeb8cf6	-0.46005982
28	0xbdd45194	-0.10367122
29	0x3d9069b9	0.07051415
30	0xbee254a3	-0.44205198
31	0x3cd441c3	0.025910264
32	0x3d4433e6	0.047901057
33	0xbd9ba0e4	-0.07599047
34	0x3f24f535	0.64436656
35	0x3e46bd13	0.19408064
36	0xbd34ffda	-0.04418931
37	0x3e9b4d72	0.30332524
38	0xbf00a2ce	-0.5024842
39	0x3d3f2722	0.04666818
40	0x3b099152	0.0020991159
41	0x3e9e891d	0.30963984
42	0x3d43850d	0.04773431
43	0xbde0e2aa	-0.10980733
44	0x3e703e3f	0.23461245
45	0xbd58199f	-0.05275881
46	0xbb04954c	-0.002023059
47	0x3e12aca5	0.14323671
48	0x3dd80b79	0.10549063
49	0xbe3c2b08	-0.1837579
50	0xbfa3856f	-1.2775096
51	0x3ccb6348	0.024827614
52	0x3e10ba2d	0.1413352
53	0xbe5ba724	-0.21450478
54	0xbe270325	-0.16309793
55	0xbdbea8ac	-0.09309515
56	0xbdf51b4f	-0.11968099
57	0xbf26ea9f	-0.65201753
58	0x3ded9577	0.11600774
59	0x3e92e07a	0.28686887
60	0xbdf71539	-0.12064595
61	0x3e751aea	0.23936048
62	0xbc02cb76	-0.007983079
63	0x3d7f90e1	0.062394027
64	0x3dc6deb7	0.09710448
65	0x3e97ce5f	0.29649636
66	0x3d9f4df4	0.0777854
67	0x3eb0e32c	0.34548318
68	0x3e13cfc2	0.14434722
69	0x3e947ca5	0.29001346
70	0x3da58545	0.0808206
71	0xbd39b076	-0.045334302
72	0x3d526de5	0.051374335
73	0xbdcffa1b	-0.10155126
74	0x3db6fb43	0.08934643
75	0xbd266847	-0.04062679
76	0xbdbb36b6	-0.09141295
77	0x3d88db96	0.06682508
78	0xbe8a15d9	-0.26969793
79	0xbbb805ec	-0.0056159403
80	0x3d4e7b10	0.05041033
81	0x3e2156cc	0.15755767
82	0x3db90b11	0.09035314
83	0x3ee4a915	0.4466025
84	0x3e2da259	0.16956462
85	0x3bd89702	0.0066097984
86	0xbd17270c	-0.036902472
87	0xbe697340	-0.2279787
88	0x3e8e9872	0.27850682
89	0x3db8c519	0.090219684
90	0x3ed632fd	0.41835776
91	0xbd89675d	-0.06709168
92	0xbdebcbca	-0.11513479
93	0x3dbcb961	0.09215046
94	0x3e1574d0	0.14595342
95	0x3c09fbb5	0.008421828
96	0x3df229cc	0.11824378
97	0x3db20b1e	0.08693527
98	0x3bde833d	0.006790547
99	0xbebf22f8	-0.37331367
100	0x3f1b2b8e	0.60613334
101	0xbf069ee2	-0.52586186
102	0x3e4229f9	0.18961324
103	0x3f68c165	0.90920097
104	0x3e1b6192	0.15173939
105	0x3dbf7c0f	0.09349834
106	0x3ea97936	0.3310029
107	0xbd1d6f84	-0.038436428
108	0xbf15eca8	-0.58564234
109	0xbce65f1f	-0.02812153
110	0x3e9eaa99	0.3098953
111	0x3e2fe0ab	0.17175548
112	0x3e572b0b	0.21012513
113	0x3e4dc4c8	0.20094597
114	0x3e2dd0c8	0.16974175
115	0x3db05d9a	0.08611603
116	0xbe8c3531	-0.27384332
117	0x3cefc068	0.029266551
118	0x3cab5034	0.020912267
119	0xbdd3b0e8	-0.103364766
120	0x3eadf715	0.3397757
121	0x3ef92e72	0.48668247
122	0xbe80a9ae	-0.25129455
123	0xbd31728d	-0.043322135
124	0xbe996647	-0.29960844
125	0xbf855e91	-1.0419484
126	0x3cc1f524	0.023676462
127	0x3e41e381	0.18934442
128	0xbdaf06d9	-0.08546228
129	0xbe64d134	-0.2234543
130	0xbe1138dc	-0.14181846
131	0xbf628fd9	-0.88500744
132	0xbeb352da	-0.35024148
133	0xbe93fa6b	-0.2890199
134	0x3e6f3faa	0.2336413
135	0x3f114b19	0.56755215
136	0xbea4aabf	-0.3216152
137	0xbd8700d6	-0.06591956
138	0xbc2bf371	-0.010495053
139	0xbea1f358	-0.3163097
140	0x3df3b39e	0.11899494
141	0x3ddba056	0.10723941
142	0x3d478f3d	0.048720587
143	0x3f3e8770	0.7442541
144	0x3de7ed72	0.11324586
145	0xbe9cee1b	-0.3065041
146	0xbd81caa7	-0.06337481
147	0xbf548d36	-0.8302797
148	0xbea3556f	-0.31901118
149	0x3e159aa1	0.14609767
150	0x3e5deb95	0.21671899
151	0x3dc36c7e	0.095421776
152	0xbf38570c	-0.72007823
153	0x3e43d0f9	0.19122685
154	0xbef691d1	-0.48158124
155	0x3e026c8f	0.12736724
156	0x3caa5968	0.020794585
157	0xbe827f54	-0.2548777
158	0x3df6319d	0.12021182
159	0x3d2477a4	0.04015316
160	0xbc88dde2	-0.016707364
161	0x3f0ea54c	0.55720973
162	0x3e87e225	0.26539722
163	0x3e83497b	0.25642
164	0xbd8dc2e2	-0.069219366
165	0xbdbfdad1	-0.09367908
166	0x3dff5667	0.12467652
167	0xbebc1b51	-0.3673959
168	0x3d9c7866	0.07640152
169	0xbedf1563	-0.43571004
170	0xbf11092a	-0.5665461
171	0x3dc11af8	0.09428972
172	0xbe18f565	-0.1493736
173	0xbdadc231	-0.08484305
174	0xbfb9cf68	-1.451642
175	0x3e24fc93	0.16111974
176	0xbfbd15b1	-1.4772245
177	0x3e395012	0.1809695
178	0x3d8434c1	0.064553745
179	0x3e78335e	0.24238345
180	0x3eaa02e9	0.33205345
181	0x3cf3520b	0.029702207
182	0xbd944fa5	-0.072417535
183	0x3d92604c	0.071472734
184	0xbf72ed3a	-0.9489323
185	0xbeb53131	-0.35389093
186	0xbccbe816	-0.02489094
187	0xbf24e544	-0.6441233
188	0x3ec58a88	0.38582253
189	0x3dee9c83	0.11650946
190	0xbdecdaed	-0.11565194
191	0x3e39107d	0.18072696
192	0x3d37ddfa	0.044889428
193	0x3e9fb638	0.3119371
194	0x3e61cfd8	0.22051942
195	0x3ea56010	0.32299852
196	0x3dfce3ac	0.123481125
197	0xbe7994b4	-0.24373132
198	0xbe904f34	-0.28185427
199	0xbd4becaa	-0.049786247
200	0x3e865c47	0.26242277
201	0x3c77154b	0.01508076
202	0xbeb3fde8	-0.35154653
203	0x3d6a8624	0.057256833
204	0xbe4ed376	-0.20197853
205	0xbd243688	-0.040091068
206	0xbddb2b9b	-0.107016765
207	0xbeaf475b	-0.34234127
208	0xbdcdf417	-0.10056322
209	0x3d9daf53	0.07699456
210	0x3e36e9d9	0.17862643
211	0x3eb28128	0.34864163
212	0x3deb6233	0.114933394
213	0xbd68d2a0	-0.056841493
214	0xbf0774f2	-0.5291282
215	0x3dddd2be	0.108312115
216	0x3ed5a1c7	0.4172499
217	0xbe51bec5	-0.20482929
218	0x3e5e0cbb	0.21684544
219	0x3e0370cc	0.12835997
220	0x3da92a8c	0.08260068
221	0xbb501430	-0.0031750314
222	0xbdefe0df	-0.11712813
223	0xbea425ab	-0.32059988
224	0xbebd4094	-0.36963332
225	0xbf16ab1c	-0.5885484
226	0xbf8a5e0d	-1.0809952
227	0xbd25b036	-0.04045125
228	0xbeff2f15	-0.49840608
229	0x3f0daf57	0.5534567
230	0xbd97b4f5	-0.07407562
231	0xbcecc0b7	-0.028900487
232	0xbeab408e	-0.3344769
233	0x3d690dbf	0.056897875
234	0x3db1a14c	0.08673343
235	0xbf39736e	-0.72441757
236	0x3e42f66d	0.19039316
237	0x3dc500a1	0.096192606
238	0x3e0e53af	0.1389911
239	0xbf028ab0	-0.5099287
240	0x3e1e29f4	0.15445691
241	0xbf0e2caf	-0.5553693
242	0xbe008534	-0.12550813
243	0xbf5c0c37	-0.8595614
244	0xbedf8eac	-0.43663538
245	0x3e0a6ec9	0.13518824
246	0x3e82ef4e	0.255732
247	0x3d11fae9	0.035639677
248	0x3f038eaf	0.5138959
249	0x3e8a67f0	0.27032423
250	0x3d34f354	0.04417737
251	0x3ef8d4bb	0.485998
252	0x3e360082	0.17773631
253	0x3e1d81dc	0.15381569
254	0xbdce1bda	-0.10063906
255	0xbf55c0ec	-0.834975

fc.6.bias f4 [4]
0	0x3d506d21	0.050885323
1	0xbd18c018	-0.03729257
2	0x3dbbc0c0	0.091676235
3	0xbd3106a4	-0.043219224
