model/lv1_bc_model_3.8.pth (torch, 302390 bytes, 10 tensors)

fc.0.weight f4 [128, 191]
0	0x3e6268c2	0.22110274
1	0xbe418b42	-0.18900779
2	0x3cb29e13	0.021803891
3	0x3c14eb84	0.009089354
4	0x3dab7e60	0.083737135
5	0x3dfa68be	0.12227009
6	0x3d532e8b	0.05155806
7	0xbd485f80	-0.0489192
8	0x3cdc7862	0.026912872
9	0x3d495171	0.049149934
10	0x3bb6bf08	0.005576972
11	0x3ac53e21	0.0015048423
12	0xbd9cf025	-0.076629914
13	0xbd93eec7	-0.072232775
14	0xbab7cc0d	-0.0014022604
15	0xbc5fb07a	-0.013652915
16	0x3c3a3830	0.011365935
17	0xbd9acf5d	-0.07559083
18	0xbd98f9b5	-0.07469503
19	0x3d2d9eab	0.042387646
20	0xbd8ffecb	-0.0703102
21	0xbd814b01	-0.06313134
22	0xbcc9ea2e	-0.024647798
23	0xbd840213	-0.06445708
24	0x3b4187e1	0.0029530453
25	0x3d90c6a7	0.0706914
26	0xbc44b577	-0.012006155
27	0x3d819d0e	0.06328784
28	0xbd60bac2	-0.054865606
29	0x3d1b6d71	0.03794617
30	0xbd551280	-0.052019596
31	0xbd84209a	-0.06451531
32	0x3b9f8405	0.004868033
33	0xbbff6d82	-0.007795037
34	0xbd67d02b	-0.05659501
35	0x3d21ad79	0.039472077
36	0x3beb6ceb	0.007184615
37	0xbc4176ba	-0.011808092
38	0x3ce48d94	0.027899541
39	0x3d181141	0.03712583
40	0xbae89175	-0.0017743545
41	0xbd6bc80d	-0.05756383
42	0xbd62c340	-0.055361986
43	0x3d7121cb	0.058870118
44	0x3d19416e	0.037415914
45	0xbc01a009	-0.0079116905
46	0x3d5a5679	0.053305123
47	0x3c23195a	0.009954775
48	0xbd37dafd	-0.044886578
49	0x3d8f3504	0.06992534
50	0x3d1290a3	0.035782468
51	0x3c0cd7d2	0.008596377
52	0x3bb9058e	0.005646414
53	0x3d7212ed	0.05910008
54	0xbd3abfda	-0.04559312
55	0xbc951314	-0.018197574
56	0xbd608971	-0.054818574
57	0xbd6527e5	-0.05594625
58	0x3c8d4a64	0.017247386
59	0x3d7d9a8f	0.061914977
60	0x3c506da8	0.012721457
61	0x3d3931fd	0.04521369
62	0xbd5a3e20	-0.053281903
63	0xbcf62534	-0.030047037
64	0x3d1e68f3	0.038674306
65	0x3d3d6d41	0.04624677
66	0x3cac16ce	0.021006968
67	0xbd5d18a6	-0.053978585
68	0x3d28a963	0.041177165
69	0xbd09410b	-0.033509295
70	0xbd305e3d	-0.043058623
71	0xbda12cc5	-0.07869867
72	0xbd941579	-0.07230658
73	0x3d6679e1	0.056268577
74	0xbd6cfebf	-0.057860132
75	0xbc594f90	-0.013263598
76	0xbd555f68	-0.05209294
77	0x3c409b98	0.011755846
78	0xbc386ce2	-0.011256428
79	0x3d7dfdfd	0.0620098
80	0xbd9ca642	-0.07648899
81	0x3d8e8834	0.069595724
82	0x3c93f9e1	0.018063487
83	0x3cd8d6d1	0.02646962
84	0x3d0ab763	0.033866297
85	0xbd8572c5	-0.06516031
86	0xbd8b0375	-0.06787769
87	0x3d42f659	0.047598217
88	0xbd85cd99	-0.06533355
89	0xbd903454	-0.07041231
90	0xbc9439e6	-0.018094014
91	0xbd5f375d	-0.054496158
92	0x3c91160f	0.017710714
93	0xbb2b31b8	-0.0026122164
94	0xbdfd013b	-0.1235375
95	0x3a9e4ac8	0.001207673
96	0xbd106c97	-0.03525981
97	0x3cb511a3	0.022103136
98	0xbd85d1cf	-0.065341584
99	0x3d503eab	0.050841015
100	0xbd597265	-0.05308761
101	0xb9cf13f8	-0.00039496995
102	0xbd31c2c4	-0.043398634
103	0x3bbacc8a	0.0057006525
104	0xbcc8d54e	-0.024515774
105	0x3d539f15	0.051665384
106	0x3d88fca9	0.06688816
107	0xbd54e36c	-0.0519747
108	0xbd7265d0	-0.059179127
109	0x3cc58a52	0.024113808
110	0xbd61f4d3	-0.055165123
111	0xbc31121b	-0.010807539
112	0x3b9169d2	0.0044376636
113	0xbc179086	-0.009250766
114	0xbd8ade7b	-0.06780716
115	0xbc2154fd	-0.009846923
116	0x3d5c1a8c	0.053736255
117	0xbd64643b	-0.05575965
118	0x3cfb7f58	0.03070037
119	0xbd2dcd00	-0.04243183
120	0xbd647d08	-0.0557833
121	0x3d1bcf12	0.038039275
122	0x3cefaebb	0.029258123
123	0xbd71d894	-0.059044436
124	0x3c03b612	0.008039014
125	0x3bbae08a	0.0057030367
126	0x3d34022b	0.04394738
127	0x3ccecb2e	0.025243368
128	0x3d28d715	0.041220743
129	0x3b9e386a	0.0048285024
130	0x3d79f079	0.06102035
131	0xbc8d8ed3	-0.017280018
132	0x3c1eb1ad	0.009685916
133	0xbd72e49f	-0.05930006
134	0xbd02c8d5	-0.03192981
135	0x3d694eb1	0.05695981
136	0x3d6672b5	0.056261737
137	0xbd8536be	-0.06504582
138	0xbd4a5659	-0.049398754
139	0xbd993de5	-0.074825086
140	0xbd503db2	-0.050840087
141	0x3c808b1b	0.01569133
142	0xbdb8b45d	-0.090187766
143	0xbd4d5c49	-0.050136838
144	0xbbc57095	-0.0060253837
145	0x3cc7ea40	0.024403691
146	0x3d650b06	0.055918716
147	0x3cf5867c	0.029971354
148	0x3c0095b5	0.007848193
149	0xba092f10	-0.0005233148
150	0xbd887cb5	-0.06664411
151	0xbd631d61	-0.05544794
152	0x3d7e422f	0.062074836
153	0x3cb50e1c	0.022101454
154	0xbd115e18	-0.035490125
155	0xbd4a3485	-0.049366493
156	0xbd805a7f	-0.06267261
157	0x3d60950d	0.054829646
158	0xbd93f4e3	-0.07224443
159	0x3ca7ac7d	0.020467991
160	0x3d1ede3b	0.038786154
161	0xbd077f17	-0.033080187
162	0x3c5bae92	0.01340832
163	0x3ceeb16c	0.029137336
164	0x3c24bbba	0.010054523
165	0xbc9b0780	-0.018924475
166	0xbd865d3b	-0.06560751
167	0xbc529d68	-0.012854911
168	0x3d1580fd	0.036499966
169	0xbd303699	-0.04302082
170	0xbcee387e	-0.029079672
171	0xbd015ef1	-0.031584684
172	0xbd5735cd	-0.052541543
173	0xbd991e55	-0.074764885
174	0xbd94f34d	-0.072729684
175	0xbd8c9d95	-0.06865994
176	0x3c20de1c	0.00981858
177	0xbd3c5861	-0.045982722
178	0xbf59d9f9	-0.85098225
179	0x3e5a1154	0.21295673
180	0x3e8eb2f8	0.27870917
181	0x3d868c15	0.06569687
182	0xbdc6c8d8	-0.09706277
183	0xbdfff466	-0.12497787
184	0x3e93ea8f	0.28889892
185	0x3dbddd6a	0.09270747
186	0x3ebb1bd7	0.36544678
187	0xbbe4941c	-0.006975664
188	0xbd58fa16	-0.052972876
189	0x3e392244	0.18079478
190	0xbec86d54	-0.3914591
191	0x3ef0cbc8	0.47030473
192	0x3c02ee9c	0.007991459
193	0xbe52aff8	-0.20574939
194	0xbdd2b32a	-0.10288079
195	0xbecc14d9	-0.39859655
196	0x3e32a0f0	0.17444205
197	0x3da9d60e	0.08292781
198	0xbd3ee3c1	-0.04660392
199	0xbde2926d	-0.11063085
200	0xbca4f21d	-0.02013498
201	0xbca271e1	-0.019829692
202	0x3bbf1531	0.0058313836
203	0xbd33f95e	-0.043938987
204	0x3c450eb3	0.01202743
205	0xbd8608dc	-0.065446585
206	0xbde1a60a	-0.110179976
207	0xbca4d289	-0.020119922
208	0x3c3ee8ff	0.01165223
209	0xbd9ec5c2	-0.07752563
210	0x3ce3b345	0.027795443
211	0xbd95715c	-0.07297012
212	0xbda7547e	-0.081704125
213	0x3a62685e	0.0008636768
214	0xbcd22afb	-0.02565526
215	0x3d476f23	0.048689973
216	0x3ccdba15	0.025113145
217	0xbd2f7168	-0.042832762
218	0xbd149658	-0.03627619
219	0xbd125237	-0.035722937
220	0x3d591a33	0.0530035
221	0xbcaf6df1	-0.021414729
222	0x3bc8a0eb	0.0061226985
223	0x3c05663a	0.0081420485
224	0x3b5fe7d8	0.003416529
225	0xbdc68502	-0.09693338
226	0xbdad3dce	-0.08459054
227	0x3cffb3f3	0.031213736
228	0x3baecd79	0.005334553
229	0xbdd4fccf	-0.10399782
230	0xbd0a756c	-0.03380339
231	0x3d5cadf2	0.053876825
232	0x3d5ee21c	0.054414853
233	0x3d533fcb	0.05157451
234	0xbd51d258	-0.05122599
235	0xbd72d646	-0.05928638
236	0xbce38cb2	-0.02777705
237	0xbd283bb2	-0.041072555
238	0xbda46692	-0.08027376
239	0xbdcf817c	-0.10132119
240	0xbac7477c	-0.0015203799
241	0xbd820f88	-0.063506186
242	0xbdab7800	-0.083724976
243	0x3ccdafc7	0.025108231
244	0x3ce8c429	0.028413849
245	0x3d80f3cf	0.06296503
246	0x3c52227b	0.012825604
247	0xbd6cf0f8	-0.057846993
248	0x3d98dee8	0.07464391
249	0xbc4ecf7c	-0.01262271
250	0x3d34bb2e	0.04412382
251	0x3be7e631	0.0070770015
252	0xbd3e4808	-0.046455413
253	0xbd80677b	-0.06269737
254	0x3c97718b	0.018486759
255	0xbd8b0bfe	-0.06789397

fc.0.bias f4 [128]
0	0x3cdd63e2	0.027025167
1	0xbd206be0	-0.039165378
2	0xbd68620d	-0.056734134
3	0xbd627050	-0.05528289
4	0x3cd2b78f	0.025722293
5	0xbd0c0ca2	-0.034191735
6	0xbc898d02	-0.01679087
7	0xbd9f8d2b	-0.077905975
8	0xbdb5a4b6	-0.08869307
9	0x3d1be451	0.038059536
10	0xbd288e61	-0.041151408
11	0xbc0c9b8a	-0.008582005
12	0xbd0b1877	-0.03395888
13	0x3ce20963	0.027592367
14	0xbd0449e1	-0.03229702
15	0xbc949c22	-0.018140856
16	0x3b2ea075	0.0026645933
17	0xbccbfb0d	-0.024899984
18	0xbd37d01f	-0.044876214
19	0x3c6360f0	0.013878092
20	0x3d0b73b5	0.034045894
21	0xbdd08718	-0.10182017
22	0xbdeb330e	-0.11484347
23	0xbe08a4af	-0.13344072
24	0xbd272114	-0.04080303
25	0x3c1bc0b4	0.009506393
26	0x3b3d2854	0.0028863149
27	0x3db9a6b8	0.09065002
28	0xbe044f8d	-0.12920971
29	0xbdb771e0	-0.08957267
30	0x3ccdcd3b	0.025122276
31	0x3d374b02	0.044749267
32	0xbdc8069c	-0.09766886
33	0xbdde80b7	-0.10864394
34	0xbdb4aa28	-0.08821517
35	0xbd4713c2	-0.048602827
36	0x3c6a7e10	0.014312282
37	0xbd7f2881	-0.062294487
38	0x3d15c3ce	0.036563687
39	0x3c915621	0.017741265
40	0x3cdc8b38	0.026921853
41	0x3a8df90f	0.0010831672
42	0xbdad69e8	-0.08467466
43	0xbceee5e1	-0.02916235
44	0xbd91e709	-0.071241446
45	0x3c63db67	0.01390729
46	0xbd933139	-0.07187123
47	0x3d3dcda5	0.046338696
48	0xbdaef648	-0.08543068
49	0x3c35ed79	0.011103981
50	0x3bea340d	0.007147318
51	0x3d054263	0.032534014
52	0x3d33db07	0.043910053
53	0x3b8999d2	0.004199245
54	0xbda38807	-0.079849295
55	0xbd2d1b7c	-0.04226254
56	0xbc9dc6f2	-0.019259904
57	0x3adda79b	0.0016910912
58	0x3d281dd7	0.041044082
59	0x3cf05f76	0.029342394
60	0x3d42e88e	0.047585063
61	0xbda5bfb1	-0.08093203
62	0xbcac124c	-0.021004818
63	0xbdbaa620	-0.09113717
64	0xbd573400	-0.052539825
65	0x3ca041d5	0.019562641
66	0x3ca1fc4d	0.019773627
67	0xbb6fe45b	-0.0036604616
68	0x3c2977ff	0.010343551
69	0x3cdffd80	0.027342558
70	0x3d0ec1c5	0.03485276
71	0xbdec0022	-0.11523463
72	0xbc22d989	-0.00993956
73	0x3c6dec4d	0.0145216705
74	0xbd52a80b	-0.05142979
75	0xbdeb91e1	-0.115024336
76	0xbc2d38d7	-0.010572634
77	0x3ba9de3c	0.005183963
78	0xbd78be48	-0.06072834
79	0xbd9e85d4	-0.077403694
80	0xbcbf4c7e	-0.023351904
81	0x3d16e804	0.03684236
82	0xbc24a6ef	-0.010049566
83	0xbc317a86	-0.0108324345
84	0xbc3ee1c4	-0.011650506
85	0xbdb8e438	-0.09027904
86	0xbd95e13d	-0.073183514
87	0xbc0147b0	-0.007890627
88	0x3d83cb2f	0.064352386
89	0xbd7311ee	-0.05934327
90	0xbab4c3ec	-0.00137913
91	0xbd49826f	-0.049196657
92	0xbd658026	-0.056030415
93	0x3c637fa4	0.013885412
94	0xbe2dac50	-0.16960263
95	0x3d702952	0.058633156
96	0xbe07a2c5	-0.13245685
97	0x3d987fd5	0.07446257
98	0xbd677f42	-0.056517847
99	0x3cc31915	0.023815671
100	0xbc0f0796	-0.008729836
101	0x3c12eacd	0.008967114
102	0xbd7fa353	-0.062411617
103	0xbd0f7c94	-0.035030916
104	0xbd531427	-0.05153289
105	0xbd482479	-0.048862908
106	0xbc8e8e8f	-0.017401962
107	0xbdafa237	-0.08575862
108	0xbe03d36b	-0.12873618
109	0xbe02e19b	-0.12781374
110	0xbd8f0a90	-0.069844365
111	0xbd210322	-0.03930963
112	0xbe11b532	-0.14229277
113	0x3d03a832	0.032142825
114	0xbdfd60a4	-0.12371948
115	0xbe047440	-0.12934971
116	0xbd5da577	-0.054112878
117	0xbd36d27f	-0.04463434
118	0x3bb75252	0.00559453
119	0xbdb74dce	-0.08950387
120	0xbcb6e5b8	-0.022326335
121	0xbda851dd	-0.08218739
122	0xbdf6aaf1	-0.12044323
123	0xbce6206e	-0.028091636
124	0xbdd6e99e	-0.10493778
125	0xbc05c283	-0.008164051
126	0xbcfbd0c8	-0.030739203
127	0xbca12675	-0.019671658

fc.2.weight f4 [128, 128]
0	0xbe5bb82c	-0.21456975
1	0x3e617f87	0.22021304
2	0xbe150922	-0.14554265
3	0xbcaaed3c	-0.020865075
4	0xbc29c250	-0.010361269
5	0x3d0e96d6	0.034811817
6	0xbdc6032a	-0.09668572
7	0xbdc2cf2d	-0.09512172
8	0x3d8bea48	0.06831795
9	0xbe37a25e	-0.17933032
10	0xbd5335f0	-0.05156511
11	0xbc8dc095	-0.017303744
12	0xbedce492	-0.43143135
13	0x3c5457f7	0.012960426
14	0xbeb4d3ee	-0.3531794
15	0x3c9a0e96	0.018805783
16	0xbdbe8ded	-0.09304414
17	0xbdc5c541	-0.09656764
18	0x3d27477a	0.04083965
19	0x3c7e0d71	0.015506134
20	0x3bcf69b1	0.006329738
21	0x3e7f6ac4	0.24943072
22	0x3d01ba13	0.031671595
23	0x3deeff83	0.11669829
24	0x3e02be65	0.12767942
25	0xbe930776	-0.2871663
26	0xbde489cd	-0.11159096
27	0xbd12224b	-0.035677236
28	0xbcf0f0d3	-0.029411709
29	0x3cf463f9	0.029832827
30	0x3cffa9dd	0.031208927
31	0xbe29cbac	-0.16581601
32	0x3d0964fd	0.033543576
33	0xbcf5df6a	-0.030013759
34	0xbe58fa1d	-0.2118916
35	0x3d00fff5	0.0314941
36	0xbce47457	-0.027887506
37	0x3d26dcbe	0.04073786
38	0xbe5f524f	-0.21808742
39	0xbe1623f9	-0.1466216
40	0xbdac07ab	-0.083999
41	0xbc8bff50	-0.017089516
42	0xbeb50002	-0.35351568
43	0xbdde4d14	-0.10854545
44	0xbda9072e	-0.082533225
45	0xbc868369	-0.016420083
46	0x3de06977	0.10957616
47	0x3d9e6d4a	0.07735689
48	0xbe63510f	-0.2219889
49	0x3dd7b58a	0.10532673
50	0x3da54da4	0.080714494
51	0xbdb0de9e	-0.08636211
52	0xbd61c49d	-0.055119146
53	0xbdfed85a	-0.124436095
54	0xbe9104d8	-0.28324008
55	0xbcd73bb6	-0.02627359
56	0xbe556e55	-0.2084287
57	0x3d9be6f6	0.07612412
58	0x3d396600	0.04526329
59	0xbe16e4df	-0.14735745
60	0x3e0f1b18	0.13975179
61	0x3d2dd3cd	0.042438317
62	0x3c31a736	0.010843089
63	0xbd2db9f2	-0.04241366
64	0x3c56a1ef	0.013100131
65	0xbdafc123	-0.0858176
66	0xbd5ff234	-0.054674342
67	0xbecfc629	-0.40580872
68	0x3db438af	0.08799874
69	0x3cf8810d	0.030334974
70	0xbccdcfa1	-0.02512342
71	0xbd9c994c	-0.076464266
72	0xbdc7d718	-0.09757823
73	0xbd17196f	-0.03688949
74	0x3ddf470a	0.109022215
75	0x3ddfaa4b	0.10921153
76	0xbd3993c7	-0.045306947
77	0x3e1503e6	0.14552268
78	0x3dadc1d3	0.08484235
79	0xbdcc7955	-0.0998408
80	0xbdcef5b3	-0.10105457
81	0x3ba9a373	0.0051769554
82	0x3da03112	0.078218594
83	0xbcdc2c9c	-0.02687674
84	0x3d4a508e	0.04939323
85	0x3dd8916c	0.10574612
86	0x3c33cd66	0.010974264
87	0x3d170c3d	0.036876906
88	0xbdef9e7c	-0.1170015
89	0xbd2b04c1	-0.04175258
90	0x3de30ce7	0.11086445
91	0xbed9db64	-0.42550194
92	0xbdc91758	-0.098189056
93	0xbedb5cb8	-0.42844176
94	0x3a8c7390	0.0010715593
95	0xbe3f9007	-0.18707286
96	0xbd72f508	-0.05931571
97	0x3e06cd42	0.13164237
98	0x3d0219f9	0.03176305
99	0x3dff8fe2	0.12478615
100	0x3e2c508c	0.16827601
101	0x3d6ead15	0.058270533
102	0xbcb66f27	-0.022269798
103	0x3dbe6d45	0.09298185
104	0xbe04d229	-0.12970795
105	0x3d6c1af9	0.05764291
106	0xba3d94b4	-0.00072319363
107	0xbe33e677	-0.17568384
108	0xbc82dcfd	-0.015974516
109	0xbd9351cc	-0.07193336
110	0x3d00308a	0.03129629
111	0xbdbb8bdd	-0.09157536
112	0x39c7b89b	0.0003809378
113	0x3cb7b311	0.022424253
114	0xbc490ad8	-0.012270652
115	0x3d21de62	0.03951872
116	0x3ca04747	0.019565238
117	0xbd297aa0	-0.04137671
118	0xbd4e1fbc	-0.050323233
119	0x3d252487	0.04031804
120	0xbd92bd74	-0.071650416
121	0x3db618fb	0.088914834
122	0x3cfb4033	0.030670261
123	0xbdfba978	-0.12288183
124	0xbdc56322	-0.09638049
125	0xbd9fa036	-0.0779423
126	0x3c43fcc6	0.011962121
127	0xbd8029b0	-0.06257951
128	0x3def0d40	0.11672449
129	0xbdcbd9e4	-0.09953669
130	0xbd03b260	-0.032152534
131	0xbe2dac94	-0.16960365
132	0x3d40f366	0.047107123
133	0x3dd96a13	0.10615935
134	0x3d737bbf	0.059444185
135	0x3d450389	0.048099075
136	0xbd1e9a67	-0.03872147
137	0x3db32081	0.08746434
138	0x3dea7e31	0.1144985
139	0x3cba5771	0.022746773
140	0x3d1e9ed1	0.038725678
141	0xbdc930c8	-0.098237574
142	0xbe713d90	-0.2355864
143	0x3d6ed05c	0.058304176
144	0xbd8e3a07	-0.069446616
145	0xbd1a70a4	-0.03770508
146	0x3c801a4f	0.015637545
147	0xbd825560	-0.0636394
148	0xbca473b5	-0.020074705
149	0xbeab6897	-0.33478233
150	0x3d1153ec	0.035480425
151	0xbd4898ea	-0.048973955
152	0xbd3e9e81	-0.04653788
153	0x3e1a70f4	0.1508215
154	0x3dbbdd46	0.09173064
155	0xbcf66cfa	-0.030081261
156	0xbdcf5929	-0.10124428
157	0x3ddd962e	0.1081966
158	0xbc61fc4d	-0.013793063
159	0xbdad2aa9	-0.084554024
160	0xbd826f0a	-0.06368835
161	0xbd6a3958	-0.057183594
162	0xbd08f779	-0.033439133
163	0xbd6a01c1	-0.05713058
164	0xbd2e0b09	-0.042490993
165	0xbb80b3ac	-0.0039276686
166	0xbe33d44b	-0.17561452
167	0xbd92ca14	-0.071674496
168	0x3daa544f	0.08316862
169	0x3d973833	0.07383766
170	0xbcb59414	-0.022165336
171	0xbd718636	-0.058965884
172	0xbda89179	-0.08230872
173	0xbdca077c	-0.09864709
174	0xbd9afbee	-0.07567583
175	0x3919b17e	0.00014657338
176	0x3c695f47	0.014243907
177	0xbc86ee77	-0.01647113
178	0xbd815e8c	-0.063168615
179	0xbd4b1e7c	-0.04958962
180	0xbd446ff9	-0.047958348
181	0x3cf31582	0.029673342
182	0xbd8824fb	-0.066476785
183	0x3e92a41f	0.2864084
184	0x3cd5453f	0.026033996
185	0xbd8c6fd0	-0.06857264
186	0x3d22f147	0.03978088
187	0x3c8fa768	0.01753588
188	0xbe8108dd	-0.25202075
189	0xbda108ee	-0.07863031
190	0xbd7169fe	-0.058938973
191	0xbcb360fb	-0.02189683
192	0xbd30db29	-0.043177757
193	0x3b6bdc27	0.0035989375
194	0xbd7067de	-0.058692805
195	0x3ef386a7	0.4756367
196	0x3daff895	0.08592335
197	0x3d34abcd	0.044109154
198	0xbd86ff97	-0.06591719
199	0x3bbd1e35	0.005771423
200	0x3d855dcc	0.06512031
201	0x3d0c24f7	0.03421494
202	0x3e22257f	0.15834616
203	0x3d529557	0.051411953
204	0xbcfaf160	-0.030632675
205	0xbdc4a709	-0.09602172
206	0xbda13641	-0.07871676
207	0xbd70e567	-0.058812525
208	0xbe6e9427	-0.23298703
209	0x3e3d552b	0.1848952
210	0x3d17256e	0.03690093
211	0xbd2669ef	-0.04062837
212	0x3d2746eb	0.040839117
213	0xbddf8c79	-0.10915465
214	0x3e038457	0.12843452
215	0x3c8e0faf	0.017341463
216	0xbe1ad98d	-0.15122052
217	0xbd604fd5	-0.054763634
218	0xbe03e31b	-0.12879603
219	0xbc798b6f	-0.015230997
220	0xbdbca922	-0.09211947
221	0x3dce9db0	0.1008867
222	0xbd2201ed	-0.039552618
223	0x3c2c821e	0.010529069
224	0xbdc19547	-0.094523005
225	0xbda2d178	-0.07950109
226	0xbd242ea7	-0.040083554
227	0xbe3d9c5b	-0.18516676
228	0xbd5fe942	-0.05466581
229	0xbda03ca8	-0.07824069
230	0x3d403322	0.046923764
231	0x3c4b5dda	0.012412513
232	0x3e1b28aa	0.15152231
233	0xbe959a97	-0.29219505
234	0xbc71080b	-0.01471139
235	0x3dab78e9	0.08372671
236	0x3d2fcbae	0.042918853
237	0x3d073f31	0.03301925
238	0x3c8f90c7	0.01752509
239	0xbd2e5d7c	-0.042569622
240	0x3d19adcd	0.037519265
241	0x3e61f015	0.2206424
242	0xbd0bc296	-0.03412112
243	0x3d94f2c7	0.072728686
244	0xbdfda9e1	-0.123859175
245	0x3cade330	0.021226496
246	0xbd2c77ca	-0.042106427
247	0xbd219dc5	-0.0394571
248	0xbdb19162	-0.08670308
249	0x3ddfb000	0.10922241
250	0x3cff75be	0.031184074
251	0x3d5bfb9b	0.053706747
252	0xbe20f29b	-0.15717547
253	0xbc0867fc	-0.008325573
254	0xbdee72cc	-0.116429895
255	0x3d249ff7	0.040191617

fc.2.bias f4 [128]
0	0x3e224a87	0.15848742
1	0xbca88ba7	-0.020574404
2	0xbd135c14	-0.035976484
3	0x3d76c468	0.0602459
4	0xbddfd72f	-0.10929715
5	0xbd6117c4	-0.054954305
6	0xbdb70280	-0.08936024
7	0xbd1ce526	-0.03830447
8	0x3c99bb39	0.018766033
9	0xbd4a38b0	-0.049370468
10	0x3c872ed3	0.01650182
11	0xbd2b0bd3	-0.041759323
12	0xbe13c3a6	-0.14430103
13	0xbd86741c	-0.06565115
14	0x3d5cdba2	0.053920396
15	0x3d905727	0.07047873
16	0x3d8080b8	0.06274551
17	0xbd4b29e7	-0.049600508
18	0xbd0fac42	-0.035076387
19	0x3dbd10ce	0.09231721
20	0xbe22c5d6	-0.15895781
21	0xbe0458bd	-0.12924476
22	0xbdeaaffa	-0.11459346
23	0xbd8f777f	-0.07005214
24	0xbe2a805b	-0.16650526
25	0x3adf8046	0.0017051778
26	0xbcf3b09b	-0.029747298
27	0xbc61d052	-0.013782578
28	0x3d801ba6	0.062552735
29	0xbd75205d	-0.059845317
30	0x3ccbbc23	0.024869984
31	0xbdcf3cd6	-0.101190254
32	0x3d5a9deb	0.05337326
33	0xbc927a84	-0.017880686
34	0xbe363f3b	-0.17797558
35	0x3dcd2b18	0.10017985
36	0xbb0536d3	-0.0020326867
37	0xbd2e4260	-0.04254377
38	0x3ca9d682	0.020732168
39	0xba1849dc	-0.0005809346
40	0x3c16c7a6	0.009202873
41	0xbd784511	-0.06061274
42	0x3d139729	0.03603283
43	0x3dc9a9fe	0.098468766
44	0x3d3712c1	0.04469562
45	0xbd5c1cc2	-0.053738363
46	0xbd8f3bb8	-0.06993812
47	0xbe181485	-0.14851578
48	0x3d830295	0.06396977
49	0x3bb8c2de	0.0056384644
50	0xbd10a29b	-0.035311323
51	0xbdaed3ec	-0.08536515
52	0x3d54a47f	0.05191469
53	0xbd68ceef	-0.056837972
54	0xbda70be6	-0.08156566
55	0x3da331c9	0.0796848
56	0x3da46c27	0.08028441
57	0xbdbf99dd	-0.09355519
58	0xbc8859ff	-0.016644476
59	0x3bb3705b	0.0054760403
60	0x3dd71961	0.105028875
61	0xbd389ca1	-0.045071248
62	0xbd22814d	-0.039674092
63	0x3d7668a3	0.060158383
64	0xbe03b71e	-0.12862822
65	0xbceaf0f0	-0.028679341
66	0xbda7ce4a	-0.081936434
67	0xbcad00bb	-0.021118512
68	0x3e109a0a	0.14121261
69	0x3d5f2cca	0.054486074
70	0x3dde6ce6	0.108606145
71	0xbd980a9e	-0.074239
72	0x3db5a5f7	0.08869546
73	0xbdb2b325	-0.08725575
74	0x3d4bd3a4	0.049762383
75	0x3c89f572	0.01684067
76	0x3d40cebb	0.047072154
77	0xbce9127d	-0.028451199
78	0x3d821799	0.06352157
79	0xbbbc9088	-0.005754534
80	0x3dac2a83	0.08406546
81	0x3d4d6d2b	0.05015294
82	0x3d41396e	0.04717391
83	0x3dd35b6b	0.10320171
84	0x3bcc492e	0.0062343096
85	0xbe0e80b1	-0.1391628
86	0xbd4e405b	-0.050354343
87	0x3cc52fb9	0.024070607
88	0xbd90901f	-0.07058739
89	0x3c7b2f0f	0.015331044
90	0xbdde4c79	-0.1085443
91	0x3d8023f5	0.06256858
92	0xbdaf9d1f	-0.0857489
93	0x3dbc511b	0.09195157
94	0xbd5cbd58	-0.05389151
95	0xbdfd7072	-0.12374963
96	0xbd22175e	-0.039573066
97	0x3bca768f	0.006178684
98	0x3e46fcc7	0.19432364
99	0x3df8363c	0.121197194
100	0x3b1f6dd3	0.0024326935
101	0xbaae1dc3	-0.0013284016
102	0xbc82a05c	-0.015945606
103	0xbdf0e21a	-0.117618755
104	0xbb2d328d	-0.0026427836
105	0xbd42d3ba	-0.0475652
106	0xbdec33b9	-0.11533303
107	0xbd416632	-0.0472166
108	0xbcb1676d	-0.021655763
109	0xbe3a4afd	-0.18192668
110	0xbe4a7acf	-0.1977341
111	0x3ce09d70	0.027418822
112	0xbdf139a4	-0.11778572
113	0x3c8b95c3	0.017039185
114	0xbc7cc177	-0.015426985
115	0xbda73715	-0.08164803
116	0xbd1fbdab	-0.03899924
117	0xbd1f155c	-0.03883873
118	0xbdb5e2b0	-0.08881128
119	0xbcc6a51c	-0.024248652
120	0xbd2d80ee	-0.042359285
121	0xbe234ff9	-0.15948476
122	0x3d90911c	0.070589274
123	0xbc40048c	-0.011719834
124	0x3cc92085	0.02455164
125	0x3d868634	0.06568566
126	0xbd39f12b	-0.04539601
127	0xbce6d017	-0.028175397

fc.4.weight f4 [128, 128]
0	0x3d2a76d7	0.04161724
1	0x3e6254fa	0.22102728
2	0xba9a4fd6	-0.001177306
3	0xbe2acf9b	-0.16680758
4	0xbe25ba78	-0.16184413
5	0xbe83a08b	-0.25708422
6	0xbd88e1f7	-0.066837244
7	0xbd3b9b4b	-0.045802396
8	0xbc7d673a	-0.015466506
9	0xbe152341	-0.1456423
10	0xbde3c057	-0.1112067
11	0xbde28f40	-0.11062479
12	0xbda3978b	-0.07987889
13	0xbe538803	-0.20657353
14	0x3e30ee96	0.17278513
15	0xbc361022	-0.011112245
16	0x3da6312c	0.081148475
17	0xbd5047e5	-0.050849814
18	0xbcd77101	-0.026299002
19	0x3d8f9436	0.07010691
20	0xbdfb7e1b	-0.12279912
21	0xbbc3a358	-0.0059704
22	0xbd1b92a5	-0.037981648
23	0x3e72af9f	0.23699807
24	0x3cdd735e	0.02703255
25	0x3db3f2eb	0.08786567
26	0x3e160f07	0.1465417
27	0x3e4a129b	0.1973366
28	0xbe2d93cf	-0.16950916
29	0x3db82f36	0.0899338
30	0xbe986d8d	-0.2977108
31	0xbe658c94	-0.22416908
32	0xbd910437	-0.07080882
33	0x3d2eeeae	0.04270809
34	0xbd92b805	-0.07164005
35	0x3caf318a	0.021385927
36	0x3e47623e	0.1947107
37	0x3da8ecd2	0.08248295
38	0x3d261bc9	0.04055384
39	0xbe4b0de9	-0.19829525
40	0x3d4e9e53	0.05044396
41	0x3d9b6276	0.07587139
42	0x3d23930d	0.03993516
43	0x3d7cb3f6	0.06169506
44	0xbe8106b9	-0.2520044
45	0xbcf164b4	-0.029466964
46	0xbda6cb26	-0.08144216
47	0xbe697711	-0.22799326
48	0x3c0f1ffd	0.008735654
49	0x3e15c793	0.14626913
50	0xbe1eb0b7	-0.15497099
51	0x3dc3c35e	0.09558748
52	0xbe0cd178	-0.13751781
53	0x3d99088e	0.07472335
54	0xbd960244	-0.07324651
55	0x3d08d524	0.03340639
56	0x3e15ddd0	0.14635396
57	0x3e5be566	0.21474227
58	0x3ea4595d	0.3209943
59	0xbec71d8f	-0.3888974
60	0xbc6ec2fa	-0.014572853
61	0xbd531ecd	-0.051543046
62	0xbd8656b3	-0.06559505
63	0xbe8048b9	-0.25055483
64	0xbbd2bfae	-0.0064315414
65	0xbe3c31eb	-0.18378417
66	0x3e385ae8	0.18003428
67	0x3c8c3e8e	0.017119672
68	0x3e107971	0.14108826
69	0xbe0e83dc	-0.13917488
70	0xbc894709	-0.016757505
71	0x3d8bbe93	0.068234585
72	0x3db7f5d5	0.089824356
73	0x3e059f98	0.13049161
74	0x3d2cd2ea	0.04219333
75	0x3d29b27c	0.04142998
76	0xbe3238f7	-0.17404543
77	0x3c638e56	0.013888916
78	0xbe0c3a98	-0.13694227
79	0xbe03b06e	-0.12860271
80	0x3b6a8f3f	0.0035790948
81	0xbe1e1583	-0.15437894
82	0x3d87e54a	0.0663553
83	0xbe8303fa	-0.2558897
84	0x3d7ef5d1	0.062246148
85	0x3ce8cb0c	0.028417133
86	0x3e0394da	0.12849751
87	0x3d863924	0.065538675
88	0x3d243e9f	0.040098783
89	0xbaae1589	-0.0013281564
90	0xbdf2b847	-0.11851554
91	0x3e3909b5	0.18070109
92	0xbd5af0e1	-0.053452376
93	0x3d09491e	0.033516996
94	0xbdd0880b	-0.10182198
95	0x3db6ab1a	0.08919354
96	0xbdd363b2	-0.1032175
97	0xbdc68520	-0.0969336
98	0xbd889c30	-0.066704154
99	0xbe39b5ea	-0.18135801
100	0xbed3e76e	-0.41387504
101	0x3d68d402	0.05684281
102	0xbe937e96	-0.28807515
103	0xbec97120	-0.3934412
104	0x3d35d40a	0.04439167
105	0xbe915bbe	-0.28390306
106	0xbd3c00cc	-0.045899197
107	0x3c2289d6	0.009920558
108	0xbea4f2f5	-0.32216612
109	0x3d3c11bf	0.04591536
110	0xbd90d1f3	-0.07071295
111	0x3dee2e24	0.116298944
112	0xbd0d1585	-0.03444435
113	0xbd32343d	-0.04350685
114	0x3db883e6	0.09009533
115	0xbeb1e528	-0.34745145
116	0xbd0284d4	-0.031864956
117	0x3e29c478	0.16578853
118	0xbd4cf599	-0.050038908
119	0xbe788598	-0.24269712
120	0xbe9df905	-0.3085405
121	0xbe1d32df	-0.15351437
122	0xbd85fc6b	-0.065422855
123	0x3e457b9a	0.19285432
124	0xba9c78ee	-0.0011937895
125	0x3e21dd6b	0.1580712
126	0x3dad328c	0.08456907
127	0xbe907b1b	-0.28218922
128	0x3db37d8a	0.08764179
129	0xbec303be	-0.38088793
130	0xbdfdd394	-0.12393871
131	0x3ca24b64	0.01981134
132	0x3e53849b	0.20656054
133	0x3bd103a1	0.0063786064
134	0xbe9bb36c	-0.30410326
135	0xbc99e32a	-0.018785078
136	0x3dd22571	0.10261048
137	0xbe77d7bf	-0.24203394
138	0x3de23229	0.110447235
139	0xbdcb2361	-0.09918857
140	0x3e28e1cf	0.16492389
141	0xbed0be9e	-0.4077043
142	0x3c50956b	0.0127309365
143	0xbc160555	-0.009156545
144	0xbde7a099	-0.113099284
145	0xbebe045e	-0.37112707
146	0x3cc9a743	0.02461589
147	0xbd813682	-0.06309225
148	0xbd69b0fa	-0.057053544
149	0xbe14087a	-0.14456359
150	0xbde5f1ab	-0.11227735
151	0x3e9c5c8e	0.30539364
152	0x3dcfeba6	0.10152368
153	0x3da1a3b8	0.07892555
154	0xbe0b46fc	-0.13601297
155	0xbe74c0f8	-0.23901737
156	0x3e678e8e	0.22612974
157	0xbeb6fdfe	-0.35740656
158	0xbd38775d	-0.04503571
159	0xbdcfaf04	-0.101408035
160	0x3e280417	0.1640781
161	0xbe89c2f6	-0.26906556
162	0xbc73af26	-0.014873302
163	0x3c63b221	0.01389745
164	0xbe16bf2d	-0.14721365
165	0x3d8cfd56	0.068842575
166	0x3e4497da	0.19198552
167	0xbd1a067c	-0.03760384
168	0x3e08728f	0.1332495
169	0xbe802380	-0.25027084
170	0x3d017b6c	0.031611845
171	0x3c9693f0	0.018381089
172	0x3cceea9e	0.025258359
173	0xbdaa133e	-0.083044514
174	0xbe593b91	-0.21214129
175	0x3b9d942f	0.0048089246
176	0xbdd93ec7	-0.10607677
177	0xbe8adf24	-0.27123368
178	0x3dfc5a4c	0.1232191
179	0x3c0d48db	0.008623327
180	0x3e354dff	0.17705534
181	0x3e1f605a	0.15564099
182	0xbe1c8aed	-0.15287371
183	0x3e1cc4fb	0.15309517
184	0xbe468872	-0.19387987
185	0xbe26acc6	-0.16276845
186	0xbe7d5f58	-0.24743402
187	0x3bc67771	0.006056719
188	0x3c757b74	0.014983047
189	0x3c6f044c	0.014588427
190	0x3dd5a8b0	0.10432565
191	0xbd879796	-0.066207096
192	0xbab6f282	-0.0013957771
193	0xbd0f1811	-0.03493506
194	0x3dc9773e	0.09837197
195	0xbe8dd5e6	-0.27702254
196	0x3d80ba5b	0.062855445
197	0xbbb8c4bd	-0.0056386874
198	0x3e05cecf	0.13067172
199	0x3e04bfd2	0.12963799
200	0x3d8c9602	0.06864549
201	0x3caa2e41	0.020774009
202	0xbc04d68b	-0.008107792
203	0xbe85ca82	-0.26131064
204	0xbd433a94	-0.047663286
205	0xbd827af1	-0.063711055
206	0x3e80fafb	0.25191483
207	0xbdc688b4	-0.09694043
208	0x3d7f36cd	0.06230812
209	0x3cb7be2a	0.022429544
210	0x3d9dca39	0.077045865
211	0x3dbf355b	0.093363486
212	0x3e178e55	0.14800389
213	0x3c73347a	0.014844054
214	0x3e82f8aa	0.2558034
215	0xbc200a94	-0.009768147
216	0x3a966c68	0.0011476399
217	0xbdba6a5d	-0.091023184
218	0xbe1f4d99	-0.15556945
219	0xbd4905ae	-0.049077682
220	0x3e47795e	0.19479892
221	0x3dbf52e8	0.09341985
222	0x3c11f844	0.008909289
223	0xbd45ce75	-0.048292596
224	0x3e50adff	0.20378874
225	0xbdaf82f7	-0.085699014
226	0x3da6876b	0.08131298
227	0x3dcfa7f6	0.10139458
228	0x3bb0c7d7	0.0053949165
229	0x3dc1b708	0.094587386
230	0xbce6f9a8	-0.028195217
231	0x3d333b40	0.043757677
232	0xbcc28f1f	-0.023749886
233	0xbd48425c	-0.04889141
234	0xbdabe1fb	-0.08392712
235	0xb982b75a	-0.0002493214
236	0x3e036772	0.1283243
237	0xbc905fdd	-0.017623836
238	0x3d7d738b	0.06187777
239	0xbe5ede83	-0.21764569
240	0xbd4a1dc6	-0.0493448
241	0x3d5e1fcf	0.054229554
242	0xbe016136	-0.1263474
243	0x3ed2eda7	0.4119694
244	0xbd168cb9	-0.036755297
245	0xbdc36240	-0.09540224
246	0xbdf606e9	-0.12013037
247	0x3deb069a	0.114758685
248	0x3d7b73bc	0.06138967
249	0x3e6dc9e8	0.23221552
250	0x3da104a5	0.07862214
251	0x3cf97eae	0.030455913
252	0xbd66e1e9	-0.05636779
253	0xbc167628	-0.009183444
254	0x3d89d172	0.06729402
255	0xbdfa225b	-0.12213584

fc.4.bias f4 [128]
0	0xbe1e2802	-0.1544495
1	0x3e306558	0.1722616
2	0xbd0d12d7	-0.034441795
3	0x3c00c27f	0.0078588715
4	0x3dba0b50	0.09084189
5	0xbcfc0af7	-0.030766947
6	0xbd81a86f	-0.06330954
7	0xbe7ff309	-0.24995054
8	0x3c64cdc5	0.013965075
9	0xbd9835a1	-0.07432104
10	0xbe1a902a	-0.15094057
11	0xbe2b8728	-0.16750777
12	0x3dbab534	0.09116593
13	0xbc86dc66	-0.016462516
14	0x3e77639a	0.24159089
15	0xbdf25670	-0.11832893
16	0x39aebaed	0.00033327137
17	0xbd15650a	-0.03647331
18	0x3da6c58c	0.08143148
19	0xbcf8b9a4	-0.030361958
20	0xbe5cd925	-0.21567209
21	0xbe246c12	-0.1605685
22	0x3e057f5c	0.13036865
23	0x3e3a4249	0.18189348
24	0x3e30116b	0.17194144
25	0xbdbd921f	-0.09256386
26	0xbe119a1d	-0.14218946
27	0x3d9c3ccd	0.07628784
28	0x3d9794d9	0.07401437
29	0xbd890ac3	-0.06691506
30	0xbd2df15b	-0.042466503
31	0xbd0ab7c0	-0.033866644
32	0x3e3237a7	0.17404042
33	0xbdab5c93	-0.083672665
34	0xbda415ca	-0.080119684
35	0x3e48d73e	0.19613358
36	0x3e1d9895	0.15390237
37	0x3e8e3d09	0.2778094
38	0x3e0927bd	0.13394065
39	0x3d1232dd	0.03569304
40	0xbd5e9c2b	-0.054348152
41	0x3e043eda	0.12914601
42	0xbc97b2df	-0.01851791
43	0x3d629e92	0.055327006
44	0xbc726c31	-0.014796303
45	0xbd72ad7b	-0.059247475
46	0x3e13fc9a	0.14451829
47	0x3e726366	0.2367073
48	0xbe156f83	-0.1459332
49	0x3d22cc1c	0.039745435
50	0x3e431e98	0.1905464
51	0xbe4777a6	-0.19479236
52	0x3cf80591	0.030276092
53	0xbdd88b16	-0.105734035
54	0xbe85756d	-0.2606615
55	0xbd4909da	-0.04908166
56	0x3dafe9ec	0.08589539
57	0x3cbfef05	0.023429403
58	0x3d22e8fd	0.039772976
59	0x3e0e32b6	0.13886532
60	0xbdaa5426	-0.08316831
61	0x3bfb7fd1	0.007675149
62	0xbd34935b	-0.04408584
63	0xbe19303e	-0.14959809
64	0x3d34878b	0.044074576
65	0xbd8de207	-0.06927877
66	0xbc825f23	-0.015914505
67	0xbe0ade89	-0.13561453
68	0xbe4d26b3	-0.20034294
69	0x3e8c687c	0.27423465
70	0xbe3ac92f	-0.18240808
71	0xbd53d776	-0.05171915
72	0x3cee666a	0.02910157
73	0xbe025d21	-0.12730838
74	0x3de67754	0.11253229
75	0x3da9c20f	0.08288967
76	0xbd238bba	-0.039928176
77	0x3d4d5282	0.050127514
78	0xbe18d22b	-0.14923923
79	0xbe24c9ac	-0.16092557
80	0x3cd29f11	0.025710614
81	0xbdeeae2c	-0.116543144
82	0x3cfc2993	0.030781543
83	0xbd7ec065	-0.0621952
84	0x3d30fdfd	0.043210972
85	0xbea2ed51	-0.31821683
86	0x3c39881e	0.011323957
87	0xbe55bdb2	-0.20873144
88	0x3d0f96c3	0.035055887
89	0x3c75641b	0.01497748
90	0xbe155624	-0.14583641
91	0xbd86b5e6	-0.06577663
92	0xbe361400	-0.17781067
93	0xbea98704	-0.3311082
94	0x3dcb3477	0.09922116
95	0xbd0b1183	-0.033952247
96	0x3c2e2f51	0.010631398
97	0xbd67b517	-0.056569185
98	0x3c3f0bef	0.01166056
99	0xbdbba293	-0.09161868
100	0x3daf7c39	0.085686155
101	0xbe42e0b1	-0.19031025
102	0xbdb29e8b	-0.08721646
103	0x3cc848bf	0.02444875
104	0x3d63d241	0.055620436
105	0x3cdbbed2	0.026824389
106	0xbd027c2c	-0.0318567
107	0xbdd07e06	-0.10180287
108	0xbd2b9316	-0.04188832
109	0xbda22dea	-0.07918914
110	0x3d5b137d	0.053485382
111	0xbe40e0e9	-0.18835796
112	0x3c4f4e98	0.012653016
113	0x3e73967d	0.23787875
114	0xbe172b9d	-0.14762731
115	0x3dbf1448	0.0933004
116	0x3d8cd249	0.06876046
117	0xbd7e1e62	-0.062040694
118	0x3d573a4b	0.052545827
119	0xbd86da3e	-0.06584595
120	0xbd24ac0d	-0.040203143
121	0x3e790939	0.24319924
122	0x3d343fd1	0.044006173
123	0xbe37e0f7	-0.17956911
124	0xbcdf2eec	-0.027244054
125	0xbd392a81	-0.04520655
126	0x3e4e7abc	0.20164007
127	0xbd2ff254	-0.04295571

fc.6.weight f4 [128, 128]
0	0x3d8965b6	0.06708853
1	0x3e0b795d	0.13620515
2	0x3dfd2062	0.12359692
3	0xbea4c669	-0.32182625
4	0x3e6f1987	0.23349582
5	0xbda99905	-0.08281139
6	0x39f655f5	0.0004698482
7	0x3e03dbb0	0.12876773
8	0x3db20b2c	0.08693537
9	0x3dfa4ac4	0.12221292
10	0xbe514b25	-0.20438822
11	0xbd14b562	-0.036305793
12	0x3c68835b	0.014191474
13	0x3af7e5a1	0.0018913039
14	0x3e122062	0.14270166
15	0x3d3d3c08	0.04619983
16	0xbe4e2b2f	-0.2013366
17	0x3d081803	0.033226024
18	0xbd1ab63c	-0.03777145
19	0xbe0fe20d	-0.14051075
20	0x3d86013f	0.065432064
21	0x3e0bdc6f	0.13658307
22	0x3d2a6ca4	0.041607514
23	0x3ee81e6a	0.45335704
24	0xbdf80dc0	-0.121119976
25	0x3df64d26	0.12026434
26	0xbcd8d2af	-0.02646765
27	0x3b053bc4	0.0020329813
28	0x3db1712e	0.086641654
29	0x3eba96d5	0.364432
30	0x3c5a1603	0.013310912
31	0x3d6a1135	0.057145316
32	0xbd8a0336	-0.06738894
33	0x3ef405af	0.47660586
34	0x3e4f7e5f	0.2026305
35	0xbd687697	-0.05675372
36	0x3d8ae7de	0.067825064
37	0xbdd9e554	-0.10639444
38	0xbdf686b6	-0.12037413
39	0xbe08f3cf	-0.13374256
40	0x3dfcb898	0.12339896
41	0xbe50483d	-0.20340057
42	0xbd8225ba	-0.06354852
43	0x3e913349	0.2835944
44	0xbe23904c	-0.15973014
45	0x3b5dd0a9	0.0033846295
46	0x3dbf562f	0.0934261
47	0x3e94375c	0.28948486
48	0xbdcd7e92	-0.10033907
49	0xbe9ed237	-0.31019756
50	0xbd464d9d	-0.04841386
51	0xbc8cc619	-0.017184304
52	0x3e5eebc2	0.21769622
53	0x3e2255a7	0.15852986
54	0xbdbf96a3	-0.093549035
55	0xbddf1a4c	-0.108936876
56	0x3d14670f	0.036231097
57	0x3d8006cf	0.06251299
58	0x3d6a411b	0.057190996
59	0xbea559dd	-0.32295123
60	0xbea49400	-0.32144165
61	0xbd25b7ff	-0.040458675
62	0x3ed4a128	0.41529202
63	0xbb965958	-0.0045882873
64	0x3c92e3ae	0.017930832
65	0x3e6ec533	0.23317413
66	0x3dc5829e	0.09644054
67	0x3d3bb088	0.04582265
68	0x3c930353	0.017945921
69	0xbdc8cd0a	-0.09804733
70	0x3e0f2991	0.139807
71	0xbd8cb78e	-0.06870948
72	0x3e1541f0	0.14575934
73	0xbd9cf50e	-0.07663928
74	0x3ea0b778	0.31389976
75	0x3e70626d	0.23475046
76	0x3e625a9d	0.22104879
77	0x3dd50f9a	0.104033664
78	0x3a73057d	0.0009270532
79	0xbdaa50f7	-0.08316224
80	0x3e0c836b	0.13722007
81	0x3dfdb659	0.12388296
82	0x3cef7bb0	0.029233783
83	0x3dc2305b	0.09481879
84	0xbac37500	-0.0014912188
85	0x3e4b1338	0.1983155
86	0xbd8c9a63	-0.068653844
87	0xbdf9c872	-0.12196435
88	0xbd28ca1c	-0.04120837
89	0xbdc62d81	-0.09676648
90	0xbe14b5c3	-0.14522462
91	0xbe1f41b4	-0.15552408
92	0x3e5193de	0.20466563
93	0x3b6203c5	0.003448711
94	0x3c6d45b4	0.014481951
95	0xbe11a70d	-0.14223881
96	0x3cbd5680	0.023112535
97	0xbe1150d9	-0.14190997
98	0xbc2f6f34	-0.010707665
99	0x3df60246	0.120121524
100	0xbdfb9a53	-0.122852944
101	0xbdf437d5	-0.119247116
102	0xbc7acba0	-0.015307337
103	0x3de874d4	0.11350408
104	0x3e4383f0	0.19093299
105	0x3e9178e3	0.28412542
106	0xbe3bc782	-0.18337825
107	0xbdeda3a7	-0.1160348
108	0x3b55304b	0.0032530006
109	0x3c3390f6	0.010959854
110	0x3e61e03c	0.22058195
111	0xbc81aceb	-0.015829524
112	0x3e70aec3	0.23504166
113	0xbe131601	-0.14363863
114	0x3d852c69	0.06502611
115	0xbe79110c	-0.24322909
116	0x3d538f87	0.05165055
117	0xbe63026c	-0.22168893
118	0x3da6ef14	0.08151069
119	0x3d92ffb5	0.071776785
120	0x3f0ad6b5	0.54233867
121	0x3d8c3915	0.06846825
122	0xbce47168	-0.027886108
123	0x3d8fe8bd	0.07026813
124	0x3e016961	0.12637855
125	0x3eabe769	0.3357499
126	0x3e66ef92	0.22552326
127	0x3cca0692	0.024661336
128	0x3dfed797	0.12443464
129	0xbddfa467	-0.10920029
130	0xbdaf0d52	-0.085474625
131	0x3d8f694a	0.07002504
132	0xbd7e1786	-0.062034152
133	0xbe3c2679	-0.18374051
134	0xbe8fbab0	-0.2807212
135	0x3e2fd1d3	0.17169885
136	0xbcd86f59	-0.026420282
137	0x3e160870	0.14651656
138	0xbdbdfc3b	-0.09276625
139	0xbcc1ff9a	-0.02368145
140	0x3d44127f	0.0478692
141	0xbd01f03a	-0.03172324
142	0x3d88a028	0.066711724
143	0x3d5d0392	0.053958483
144	0x3da665d5	0.08124892
145	0x3d5b5d40	0.053555727
146	0xbd942bb5	-0.07234899
147	0x3d7de67c	0.061987385
148	0xbe2a8ccb	-0.16655271
149	0xbd321f02	-0.043486603
150	0xbd593eda	-0.053038456
151	0xbebe02b2	-0.3711143
152	0x3e05fab2	0.13083914
153	0xbd1e7446	-0.038685106
154	0x3ec78e23	0.3897563
155	0xbd51c5ce	-0.051214032
156	0x3d42de18	0.047575086
157	0xbc1b4ed3	-0.009479242
158	0xbd8d3930	-0.06895673
159	0x3cdd5327	0.02701719
160	0x3c24cadb	0.01005813
161	0xbe680d8e	-0.2266142
162	0x3c290e69	0.010318377
163	0xbcabcaf3	-0.020970797
164	0xbe17bce6	-0.14818153
165	0x3d3dcdd6	0.04633888
166	0xbe52a14d	-0.20569344
167	0x3e26a66b	0.16274421
168	0xbdc6f015	-0.09713761
169	0x3ba0a3de	0.004902347
170	0xbd4a92f1	-0.04945654
171	0x3e56c2f6	0.20972809
172	0xbe3799f8	-0.17929828
173	0x3dee4d99	0.11635894
174	0xbd8f1b01	-0.069875725
175	0x3d07f319	0.03319082
176	0xbe30b0c0	-0.17254925
177	0xbc05763b	-0.008145864
178	0xbc0afe40	-0.0084834695
179	0x3d99e9fb	0.07515331
180	0x3d77c2b2	0.06048841
181	0x3d23fae9	0.04003421
182	0x3ecc6368	0.3991959
183	0xbcfd78a7	-0.03094132
184	0xbedebeb0	-0.43504858
185	0x3e46ba4c	0.19407004
186	0xbdd84fa1	-0.10562063
187	0x3e1493fe	0.1450958
188	0x3d3d6c75	0.04624601
189	0x3d201dd4	0.039090946
190	0xbc75d2d1	-0.015003876
191	0xbe177546	-0.1479083
192	0xbd549595	-0.051900465
193	0x3d823086	0.06356911
194	0x3c820191	0.015869888
195	0xbe872c41	-0.2640095
196	0xbdcdb58b	-0.10044392
197	0x3dc90a38	0.09816402
198	0xbc6d8c24	-0.014498744
199	0x3db800e2	0.089845434
200	0x3e5a36b6	0.21309933
201	0xbd455546	-0.048177026
202	0x3e756da1	0.23967601
203	0x3de8230d	0.113348104
204	0x3d9a97b3	0.075484656
205	0xbd78159a	-0.060567476
206	0xbd9f7dfb	-0.07787701
207	0xbdaaa930	-0.08333051
208	0x3e92cecd	0.286734
209	0xbc4d7ab1	-0.012541459
210	0x3e4781e9	0.1948315
211	0x3e0763b0	0.13221622
212	0xbea0410b	-0.31299624
213	0xbe0f544e	-0.13997003
214	0x3dc9915d	0.09842179
215	0xbd875b8f	-0.0660926
216	0x3e3d5565	0.18489607
217	0x3e126802	0.14297488
218	0xbd8d0576	-0.06885807
219	0xbcfc9a25	-0.03083522
220	0x3e06877b	0.13137619
221	0xbcc2a304	-0.023759373
222	0x3dadcf9a	0.084868625
223	0x3e11434e	0.14185831
224	0xbe6acb2b	-0.22929065
225	0xbcea822d	-0.028626526
226	0xbde03f45	-0.10949568
227	0xbd257ed9	-0.040404174
228	0xbe17ffdc	-0.14843696
229	0xbdea0d4f	-0.1142832
230	0xbe36b25a	-0.17841473
231	0xbe03f7b5	-0.12887461
232	0xbf2c7cab	-0.6737773
233	0x3cd16cad	0.025564516
234	0x3e1a7af1	0.15085961
235	0x3ceee6cb	0.029162785
236	0xbc57beb6	-0.013168028
237	0x3c3f16e9	0.011663177
238	0x3ec3ed33	0.38266906
239	0xbe9ef0cf	-0.31043097
240	0xbdb2e886	-0.087357566
241	0x3cd515b0	0.026011318
242	0x3d042307	0.032259967
243	0xbc1acb9e	-0.00944796
244	0x3d33a363	0.04385699
245	0x3e5036ad	0.20333357
246	0x3da21a84	0.07915214
247	0xbbda8232	-0.0066683525
248	0x3dc0e638	0.09418911
249	0xbe1785e8	-0.14797175
250	0x3c6e5964	0.01454768
251	0xbd984c6f	-0.074364536
252	0xbd47bd4c	-0.048764512
253	0x3da58931	0.08082808
254	0xbe546311	-0.20740916
255	0xbdb64db1	-0.08901537

fc.6.bias f4 [128]
0	0x3e785cfd	0.24254222
1	0x3e54c545	0.20778377
2	0xbd9f5b9c	-0.07781145
3	0x3e2bbecf	0.16772006
4	0x3d80c306	0.06287198
5	0x3e19ac86	0.15007219
6	0x3e844ce4	0.25839913
7	0xbcc630ca	-0.024193186
8	0x3ce6403e	0.028106805
9	0x3d8ff9b6	0.070300505
10	0xbda61cdd	-0.08110974
11	0xbda48817	-0.080337696
12	0x3d823e04	0.06359485
13	0x3b194bc9	0.0023391119
14	0xbceefd73	-0.029173588
15	0x3e29a5ac	0.16567105
16	0xbd8450bb	-0.064607106
17	0x3dc25978	0.09489721
18	0x3e19ff93	0.150389
19	0xbd63da5f	-0.055628177
20	0xbe069883	-0.13144116
21	0x3d37aee4	0.044844523
22	0x3d9727d9	0.07380647
23	0xbdac1e86	-0.084042594
24	0xba9cc473	-0.0011960402
25	0x3cdd3345	0.027001986
26	0x3ea7536c	0.32680833
27	0x3e727e32	0.23680952
28	0xbe2235f8	-0.158409
29	0xbda4a605	-0.08039478
30	0x3d93b178	0.07211584
31	0x3e1b05c2	0.15138915
32	0xbe45b4da	-0.1930727
33	0xbe2a0972	-0.16605166
34	0xbccd8ffc	-0.025093071
35	0x3d2f1bad	0.042751003
36	0xbcf11540	-0.029429078
37	0x3d6c149d	0.057636846
38	0x3d94785e	0.07249521
39	0xbcd1060f	-0.025515584
40	0xbe1b463d	-0.15163513
41	0xba1f6dbd	-0.0006081721
42	0x3d126c94	0.03574808
43	0x3bec280f	0.007206924
44	0x3ddbb8f4	0.107286364
45	0xbcebeb2f	-0.028798668
46	0x3bb75696	0.0055950386
47	0xba9dbe3f	-0.0012034847
48	0x3d308c15	0.043102343
49	0x3b4978c8	0.0030742157
50	0x3da71445	0.08158163
51	0xbdb6f468	-0.089333355
52	0xbc5ea10c	-0.013588201
53	0x3df7b55b	0.12095138
54	0xbd8f9d1f	-0.0701239
55	0xbe4b7ea8	-0.19872534
56	0xbba23c56	-0.0049510403
57	0x3e1bda21	0.15219928
58	0xbde69fee	-0.11260973
59	0x3df1efef	0.11813342
60	0x3d96d251	0.073643334
61	0x3e68a8a1	0.22720577
62	0xbb38142a	-0.002808819
63	0x3d875c34	0.06609383
64	0xbd3a0981	-0.04541922
65	0x3be57d42	0.0070034573
66	0x3e63e9b7	0.22257124
67	0x3e647a9f	0.22312401
68	0xbc390333	-0.011292267
69	0x3d755f4b	0.05990533
70	0xbe20e9db	-0.15714209
71	0xbc811c69	-0.015760617
72	0x3e9f18e1	0.3107367
73	0xbd0f4c09	-0.034984622
74	0x3ca39036	0.019966226
75	0xbc8806f7	-0.016604884
76	0xbe16799b	-0.14694826
77	0x3e494d77	0.19658457
78	0xbe6db185	-0.2321225
79	0xbd9538da	-0.07286234
80	0xbc8588e4	-0.016300626
81	0x3b719c94	0.003686701
82	0x3d513f7f	0.051085945
83	0x3de3c421	0.11121393
84	0xbdf03af0	-0.117299914
85	0xbe502a1d	-0.20328565
86	0xbde69b88	-0.11260134
87	0x3e0db82a	0.13839784
88	0xbe19e327	-0.15028058
89	0x3e1a974f	0.15096782
90	0xbe3eef11	-0.18645884
91	0x3e3f7e38	0.18700492
92	0xbd216aaa	-0.039408363
93	0xbe584c3b	-0.2112283
94	0x3e2cd110	0.16876626
95	0xbe851d0c	-0.25998724
96	0xbd0269fc	-0.031839356
97	0x3eb0d650	0.34538507
98	0xbe13366f	-0.14376234
99	0xbcca2503	-0.024675852
100	0x3bd40a8b	0.0064709834
101	0x3e3c244b	0.1837322
102	0x3b90b965	0.004416632
103	0x3e13d014	0.14434844
104	0x3cdec6ae	0.027194347
105	0xbe16ac60	-0.14714193
106	0x3dc9482a	0.09828217
107	0xbe2b827a	-0.16748992
108	0x3e9abd53	0.30222568
109	0xbe021a3f	-0.12705325
110	0x3cb9f3e3	0.022699302
111	0xbdb1419e	-0.086550936
112	0x3e43b119	0.19110526
113	0x3dc942a3	0.09827163
114	0x3d250b16	0.040293775
115	0x3e0cc1fa	0.13745871
116	0x3d9c0d5d	0.07619736
117	0x3e0ee84a	0.13955799
118	0x3c8d7511	0.017267736
119	0xbd85afaa	-0.06527646
120	0xbcfcdfb1	-0.030868383
121	0xbde67949	-0.11253602
122	0xbe0b9631	-0.13631512
123	0x3db5c2ea	0.088750675
124	0x3c9387fc	0.018009178
125	0xbe326273	-0.17420368
126	0xbd1b1c23	-0.03786863
127	0xbcc28685	-0.023745785

fc.8.weight f4 [4, 128]
0	0xbf23393d	-0.63759214
1	0xbc574162	-0.013138147
2	0xbde2a119	-0.11065883
3	0x3df33b8c	0.11876592
4	0x3dfb0752	0.122572556
5	0xbe0f43f1	-0.13990761
6	0xbdb5e00d	-0.08880625
7	0x3d35bdac	0.04437034
8	0xbe5a256b	-0.21303336
9	0xbe4aa6a0	-0.19790125
10	0x3de1d125	0.11026219
11	0xbd6c1498	-0.057636827
12	0xbf32f082	-0.69898236
13	0x3d060115	0.032715876
14	0xbcabf1b9	-0.020989286
15	0x3da9aa18	0.08284396
16	0x3d5332e2	0.051562198
17	0xbebdbbbd	-0.37057295
18	0xbc99eb51	-0.018788965
19	0x3d5968cb	0.053078454
20	0xbd1d6d70	-0.038434446
21	0x3de8513e	0.11343621
22	0x3de9d837	0.11418193
23	0xbd64e857	-0.05588564
24	0x3da682bd	0.08130405
25	0x3e38e372	0.18055514
26	0x3dac62bc	0.084172696
27	0x3d8b5b5c	0.06804535
28	0x3c0c19dc	0.008551087
29	0xbd6f1428	-0.058368832
30	0xbe39577b	-0.18099777
31	0x3d4cf83a	0.050041415
32	0x3db45a8e	0.088063344
33	0xbd4d07b6	-0.05005618
34	0xbe5599b6	-0.20859417
35	0x3dba3ed3	0.09094014
36	0xbdb0f0b2	-0.08639659
37	0x3d82785a	0.063706115
38	0xbd1e52f2	-0.03865332
39	0x3dc69e27	0.09698134
40	0xbc19a530	-0.009377763
41	0x3d06b7dd	0.03289019
42	0x3d9697a2	0.073531404
43	0x3d9aba6f	0.07555091
44	0x3d9f2fbf	0.07772779
45	0xbf02451f	-0.5088672
46	0x3dba3d08	0.09093672
47	0x3d88eac1	0.06685401
48	0x3d89d755	0.067305245
49	0xbe234f66	-0.15948257
50	0x3d99af96	0.075041935
51	0xbdf91636	-0.121624395
52	0xbd73a8d4	-0.05948718
53	0x3de56fe9	0.11202986
54	0x3dda7409	0.10666663
55	0x3da15cd5	0.078790344
56	0xbde3ebd6	-0.111289665
57	0xbe6b892f	-0.2300155
58	0xbd10c1e3	-0.035341155
59	0x3d22f471	0.0397839
60	0xbd9ea8d4	-0.07747045
61	0x3e48eaf3	0.19620876
62	0xbeb644c8	-0.3559935
63	0x3c9e6863	0.019336885
64	0xbf02994a	-0.5101515
65	0x3db08ae9	0.08620245
66	0xbd4d3e15	-0.050108034
67	0x3d3d9769	0.046286974
68	0x3db30112	0.087404385
69	0x3dc18698	0.094495
70	0xbc9ef4ad	-0.01940378
71	0xbea04b07	-0.3130724
72	0x3df65e55	0.12029711
73	0xbcd528f0	-0.026020497
74	0x3db7a154	0.08966318
75	0xbe902348	-0.28151917
76	0x3d9569c1	0.072955616
77	0xbe81c77f	-0.25347516
78	0x3cc36d79	0.023855912
79	0xbc5f1930	-0.013616845
80	0x3d118139	0.035523627
81	0x3dd2208d	0.10260115
82	0xbe3dcf9e	-0.18536231
83	0x3d0e6209	0.034761462
84	0xbe51b4e9	-0.20479168
85	0xbebe5815	-0.37176576
86	0xbd2714d4	-0.040791348
87	0xbec9ec29	-0.39437988
88	0xbc87a979	-0.016560303
89	0x3e136bb3	0.14396553
90	0xbcec9a6e	-0.028882232
91	0x3df8bbcc	0.121451944
92	0x3d5565dc	0.052099094
93	0x3d57262b	0.052526634
94	0x3e002668	0.12514651
95	0xbef17d1b	-0.4716576
96	0xbe227feb	-0.1586911
97	0x3c97db3a	0.018537153
98	0x3d6a69d2	0.057229824
99	0x3d73b3da	0.05949769
100	0xbeeefa1e	-0.466752
101	0x3d9eb919	0.07750148
102	0x3da0459f	0.07825779
103	0x3d064c3a	0.03278754
104	0x3d77d992	0.060510226
105	0x3d1fc0c5	0.0390022
106	0x3da06099	0.078309245
107	0x3d9c9b3d	0.07646797
108	0xbbfc60ed	-0.007701984
109	0xbf3a69fe	-0.7281798
110	0xbce7aca3	-0.028280562
111	0x3d6b0163	0.05737437
112	0x3ce964f0	0.028490514
113	0x3d7fa9c5	0.062417764
114	0xbf0e3628	-0.55551386
115	0x3d5bea36	0.053690158
116	0x3d586904	0.052834526
117	0x3dc4c6ad	0.09608207
118	0x3dd43cf0	0.103631854
119	0xbda3dbf9	-0.08000941
120	0x3d96ecba	0.07369371
121	0x3c8a242a	0.016862947
122	0xbdd46d0f	-0.10372364
123	0x3dbe1ba4	0.09282616
124	0xbeb00563	-0.3437911
125	0xbe502e00	-0.20330048
126	0x3cc5c4a4	0.024141617
127	0xbebee307	-0.37282583
128	0x3d27e2c9	0.040987764
129	0x3cdebf93	0.02719096
130	0x3e0c2261	0.1368499
131	0x3dd1e825	0.10249356
132	0xbd55e8e7	-0.052224066
133	0xbce51940	-0.027966142
134	0x3c1b2c10	0.009470955
135	0x3b37bc07	0.0028035657
136	0x3dc639a7	0.09678965
137	0x3dac02c3	0.08398964
138	0xbcceda91	-0.025250705
139	0xbe50dda8	-0.20397055
140	0x3d8f28e8	0.06990224
141	0x3d44b84f	0.048027333
142	0x3d363fe5	0.04449453
143	0x3d67d5bf	0.05660033
144	0xbde79954	-0.11308542
145	0x3d92a45e	0.07160257
146	0xbc7a8987	-0.015291578
147	0xbd55c0dc	-0.05218588
148	0xbe31f980	-0.17380333
149	0x3dffd0ea	0.12491019
150	0x3de9fd1e	0.114252314
151	0x3de722d3	0.11285939
152	0xbf2a9b97	-0.6664366
153	0x3d8442c1	0.06458045
154	0xbef69634	-0.4816147
155	0xbef76453	-0.4831873
156	0xbd3800bf	-0.044922587
157	0xbd555189	-0.05207971
158	0x3d51146c	0.051044866
159	0xbe6aaf82	-0.22918513
160	0xbe84adbe	-0.25913805
161	0xbd2f40cf	-0.042786416
162	0x3c172e38	0.009227328
163	0xbdec7df1	-0.11547459
164	0x3d54f871	0.051994745
165	0xbef0fe5c	-0.4706906
166	0x3e0bd2d8	0.1365465
167	0x3ce246ec	0.027621709
168	0x3d23dbb5	0.04000445
169	0xbe9c43bc	-0.30520427
170	0xbe3a51ae	-0.18195221
171	0x3ca95edd	0.020675117
172	0xbef1de8e	-0.47240108
173	0xbd1a29f2	-0.03763766
174	0x3e14add2	0.14519432
175	0xbe96b809	-0.29437283
176	0xbd9453cc	-0.072425455
177	0x3e13eb75	0.14445288
178	0x3db4ba35	0.08824579
179	0x3deb2aab	0.11482748
180	0xbe25786d	-0.1615922
181	0x3ce49f43	0.027907973
182	0x3ce037d5	0.027370373
183	0x3bdb8ecd	0.006700373
184	0xbbc9d0a8	-0.006158907
185	0x3dcae1bd	0.099063374
186	0xbd461963	-0.048364054
187	0x3da5f25a	0.081028655
188	0x3d50b050	0.050949395
189	0x3e9cb53b	0.30607018
190	0x3d784a26	0.06061759
191	0xbed8c2cb	-0.42336115
192	0x3dd9c5fc	0.10633466
193	0x3e15b590	0.14620042
194	0xbe04011c	-0.12891048
195	0xbdf679a9	-0.120349236
196	0xbf0c9fbb	-0.5493123
197	0x3da62229	0.08111984
198	0xbe8c30f6	-0.27381104
199	0x3dfa0e47	0.122097544
200	0xbe95684a	-0.2918113
201	0xbdbc66e0	-0.09199309
202	0xbe8bc117	-0.27295753
203	0x3d4969ab	0.04917304
204	0xbe96b8eb	-0.29437956
205	0x3d93f408	0.0722428
206	0x3da3ea07	0.080036215
207	0x3db14523	0.08655765
208	0xbe920ee6	-0.28526992
209	0x3da3b73a	0.07993932
210	0x3e2ed17d	0.17072101
211	0xbedb2ad5	-0.42806116
212	0x3d8ede67	0.06976014
213	0x3e3180ed	0.17334338
214	0x3ca84e2a	0.020545084
215	0x3cf08ed1	0.029364975
216	0x3dca8d66	0.09890251
217	0x3d4dcef8	0.05024621
218	0xbd25a1a2	-0.04043735
219	0xbe9877ad	-0.29778805
220	0x3defa66b	0.117016636
221	0x3c48e33e	0.01226121
222	0x3e82cb45	0.25545707
223	0xbd8a9868	-0.067673504
224	0x3d58b2d1	0.052904908
225	0xbf017d1f	-0.50581545
226	0xbdb2bf6b	-0.08727916
227	0x3c0bbf6c	0.008529525
228	0x3d136b1f	0.03599083
229	0xbef47d0d	-0.47751656
230	0xbe63f13b	-0.22259991
231	0x3e3dc312	0.18531445
232	0x3dd4b9fb	0.103870355
233	0x3c91b990	0.017788678
234	0xbd2af032	-0.041732974
235	0xbd758c0a	-0.059948005
236	0xbe47564d	-0.19466515
237	0xbc974a93	-0.018468177
238	0xbd7b917d	-0.061418045
239	0xbf2487df	-0.6426982
240	0x3dcd7b06	0.100332305
241	0xbe6ee5ee	-0.23329899
242	0x3dfba1a8	0.12286693
243	0xbd2b08a2	-0.04175628
244	0xbe10d8b9	-0.14145173
245	0xbde5853e	-0.112070546
246	0x3da7e34b	0.081976496
247	0x3d8d3209	0.06894309
248	0x3d5ac6a5	0.0534121
249	0xbf184d66	-0.594931
250	0xbddbd117	-0.1073324
251	0xbcdcc784	-0.026950605
252	0x3dba978b	0.09110936
253	0x3d51c147	0.051209714
254	0x3cd2437e	0.025666948
255	0x3db498b0	0.08818185

fc.8.bias f4 [4]
0	0x3dc6ad95	0.09701077
1	0xbd55a711	-0.05216128
2	0x3c9c5b53	0.019086516
3	0x3d942fc4	0.07235673
