model/lv1_bc_model_3.2.pth (torch, 302390 bytes, 10 tensors)

fc.0.weight f4 [128, 191]
000000 41 d6 6a 3e c8 d3 cb bd 13 13 2b 3d ec f3 35 3d
       0.22933294 -0.099525034 0.041766237 0.044422075
000010 73 94 9c bd a8 18 1a 3c cb 6d 53 3d 68 45 64 3d
       -0.07645502 0.009405293 0.05161838 0.055730253
000020 d9 5c cb bc 45 de 28 3c 7a 71 20 bd 02 c2 45 bd
       -0.024824547 0.010306899 -0.03917072 -0.048280723
000030 7e 38 5f 3d 90 42 df 3b de a5 26 bd 88 16 17 3d
       0.054497235 0.006813355 -0.040685527 0.03688672
000040 1f c1 90 bd 26 85 58 3d 88 04 82 3c 17 71 58 3c
       -0.07068085 0.052861355 0.015871301 0.0132105565
000050 bc ff 3c 3d fe e0 32 3d 78 c2 d3 3c b1 36 8e bd
       0.046142325 0.0436716 0.025849566 -0.06944025
000060 da 66 22 3d 2f 06 58 bd 44 df 28 bb 17 c1 54 bd
       0.03964887 -0.052740272 -0.0025767842 -0.051941957
000070 8b 48 f9 bc 9d 9f c4 bb 5a b2 c0 bc 7f 69 4f bc
       -0.030430099 -0.0060004727 -0.023522545 -0.01265943
000080 97 b0 91 3d 11 6f 1a 3c 4b 39 96 3a 90 54 07 bd
       0.0711376 0.009425894 0.0011461166 -0.03303963
000090 ab 2c f1 bb b7 47 35 3d fa 23 34 ba c8 dc 4a 3d
       -0.007360061 0.044257846 -0.0006871816 0.04952696
0000a0 f5 3d 39 bd cb b4 59 3d 64 46 71 3c 26 4e 26 3d
       -0.045225102 0.053150933 0.014726255 0.040601872
0000b0 50 53 4f 3d ed 86 23 3d c0 c8 92 3b f6 a0 6e bd
       0.050616562 0.039923597 0.0044794977 -0.058258973
0000c0 f4 43 25 3d 21 d2 04 3d a9 39 76 bd 96 1f b0 bb
       0.04034801 0.032426957 -0.060113583 -0.005374859
0000d0 98 a4 b1 3c ea 55 f3 bb 3a 55 86 bd b7 48 87 3d
       0.02168493 -0.0074260132 -0.065592244 0.06605666
0000e0 ea b3 8f bc 0b b5 10 3b b4 e6 1e bd 49 4a ad bb
       -0.017541844 0.0022080566 -0.038794234 -0.0052883965
0000f0 d4 b9 f2 bc 91 38 9f 3a 2d 82 57 3d 3a 23 46 3d
       -0.029629625 0.0012147595 0.05261438 0.04837344
000100 00 85 6f bd c0 6c 56 3d 7b 98 65 bd ba 65 1c 3d
       -0.058476448 0.052349806 -0.05605362 0.03818295
000110 85 2a 83 3d 6d 09 6c bc 6e c7 b7 bc a2 c2 9c 3c
       0.06404594 -0.014406544 -0.022433963 0.019135777
000120 25 d9 83 bd 64 05 58 3d f8 a0 e9 bc 60 10 47 bd
       -0.064379014 0.052739516 -0.028519139 -0.0485996
000130 15 ba b3 3b c7 5c b2 3c 50 23 21 bc 77 a8 b4 bc
       0.005484829 0.021772755 -0.009835079 -0.022052987
000140 07 c2 16 3c df cf 40 3c 1d 09 88 bd 35 fe e4 bc
       0.009201533 0.01176831 -0.06642363 -0.027953247
000150 2c bb 60 3d 3d a7 04 bd 96 67 4d bd ab 4b 02 bd
       0.054866 -0.032386053 -0.050147615 -0.031810444
000160 82 c0 5e bd 02 f7 ca bc 55 b3 70 3d 95 bb 0a bd
       -0.05438281 -0.024775986 0.058764774 -0.0338703
000170 dd d4 23 bb a5 b5 81 3d 01 2d 6c bd 47 6e d9 ba
       -0.0024998703 0.06333474 -0.057660107 -0.0016588651
000180 c6 98 1c bd cd 27 8e bd f5 4a e2 3c 0a 78 b0 3b
       -0.038231634 -0.06941185 0.027623633 0.0053854035
000190 81 76 99 bd 3b 12 49 bb a6 05 d4 bb fe 14 27 3d
       -0.07493306 -0.0030681032 -0.0064704 0.040791504
0001a0 1c 81 40 bd 09 05 89 3d 99 6e 88 3d 46 cb 57 3d
       -0.04699813 0.066904135 0.0666172 0.05268409
0001b0 71 ea 39 bd 74 59 2c 3d 93 58 01 3d 1c 28 f2 ba
       -0.045389596 0.042077497 0.03157861 -0.0018475088
0001c0 48 45 82 bc f6 99 9c bb 9d aa 7d bd 6a 64 82 bd
       -0.015902176 -0.0047790958 -0.061930288 -0.06366809
0001d0 75 d4 57 bd ef 97 86 bc 7c 48 85 bc 2d fd 59 3d
       -0.05269285 -0.01642987 -0.016269915 0.053219963
0001e0 b5 71 4b 3c c7 d8 79 bc b6 46 45 3d 9e 26 49 bd
       0.012417247 -0.015249438 0.04816314 -0.049109094
0001f0 6e a3 c7 3c 20 42 3d bd 2a 22 fb 3c 54 47 78 3d
       0.024369922 -0.04620564 0.03065594 0.0606149
000200 dc 8d f9 bc d2 18 5c 3d a0 72 4d 3d 8f b5 3a bd
       -0.030463152 0.053734608 0.050158143 -0.045583304
000210 45 3c 17 bd ee f1 21 bd 8c fb 01 bd 15 0d 95 bd
       -0.036922712 -0.039537363 -0.031734034 -0.07277886
000220 f3 5e 50 bc dc da 49 bd ca 48 a8 3c 70 04 54 bd
       -0.01271795 -0.049280986 0.020542521 -0.051762044
000230 36 5d e5 3a 7e d9 79 3d 59 72 da bb 44 31 b8 3c
       0.0017499093 0.060998432 -0.0066664633 0.02248443
000240 9f 20 8b bc e8 52 a1 3c fa bc b4 3c ba a5 da bc
       -0.016983328 0.019692853 0.022062767 -0.026690353
000250 70 af 20 bb 76 92 39 3d 69 e8 97 3c b4 4d 27 3d
       -0.0024518631 0.04530569 0.018543439 0.040845588
000260 50 27 2f 3d 1b 76 5a 3d 68 08 07 bd 4d c5 43 bd
       0.0427621 0.05333529 -0.032967 -0.047795583
000270 ee 52 34 3d e0 f1 bb 3c 58 ce 19 3d af 95 2c 3d
       0.0440244 0.022942483 0.0375503 0.042134937
000280 2a c3 5a bd 7d 2a 57 bd 8d 02 75 bd 29 1f 89 3d
       -0.05340878 -0.052530754 -0.059816886 0.066953965
000290 f0 cf 33 3d 74 9a 90 3c 12 10 7f bd 90 83 a0 3c
       0.043899477 0.017651774 -0.062271185 0.019593984
0002a0 36 da b5 bc 54 74 93 3c c4 e0 24 bd be ae 26 bd
       -0.022198778 0.017999806 -0.040253416 -0.04069399
0002b0 fb 4b 09 3c 7f a4 6e 3c d6 0c be 3c 86 00 99 3c
       0.008379932 0.014565586 0.02319948 0.018677007
0002c0 24 68 8f bc 7c 15 26 3d 62 33 03 3e bd ea c5 3e
       -0.017505713 0.040547833 0.1281257 0.38655654
0002d0 9e b1 c3 be 11 8b ea be ed 02 21 3e e7 81 e6 be
       -0.3822145 -0.45809224 0.15723772 -0.45020983
0002e0 ca 56 c8 3c 2e 75 96 3f 25 a0 aa be 52 70 51 bd
       0.024455447 1.175451 -0.33325306 -0.051132508
0002f0 d2 33 17 3d 2a aa 5d 3d 23 7a f3 3c 9b f4 ee bd
       0.036914654 0.05411736 0.029721325 -0.116677485
000300 d5 1e 4a bc 47 5f f5 3c 95 2f 0e bd d1 e0 ca 3c
       -0.0123364525 0.029952658 -0.034713347 0.024765404
000310 37 02 39 bd 0d ad 37 bc e3 4f 6d bc 9a 36 c8 bc
       -0.045168128 -0.011210692 -0.0144843785 -0.024440099
000320 42 6c 13 b9 3f 37 29 3d 39 c7 94 bc 36 60 9c bd
       -0.00014059342 0.041312452 -0.018161403 -0.07635538
000330 ec 29 a1 bd f3 f9 c9 3c 59 d4 43 ba d9 2f 48 bd
       -0.07869324 0.024655318 -0.0007470302 -0.048873756
000340 0c b2 83 bd e4 84 93 bd 6a af 06 3d 1d f2 d1 3c
       -0.06430444 -0.07203081 0.03288213 0.025628144
000350 ad 92 62 bd 52 77 bb bb 38 09 1d 3d 18 36 a3 bb
       -0.055315662 -0.005721011 0.03833887 -0.0049808137
000360 d1 ac 77 3a 02 85 0a 3d 27 aa bb 3c d8 8d a7 bd
       0.0009448054 0.033818252 0.022908283 -0.081813514
000370 54 d5 84 bb d1 f5 82 3d 92 7b 85 3d 34 9a 8f 3c
       -0.004053751 0.06394542 0.0651771 0.017529584
000380 bc 73 40 bd e2 ee a1 bd c9 85 19 3d 18 f2 b9 3b
       -0.046985373 -0.079068914 0.037481103 0.005674612
000390 3a b1 8a bb cf cc 07 3d 3a 59 ae bd 4f a9 c3 ba
       -0.004232553 0.033154305 -0.08513112 -0.0014927777
0003a0 e2 98 2c 3d 5e 47 17 3d d7 7e 78 bd 60 fa a4 bd
       0.042137988 0.036933295 -0.06066784 -0.08055568
0003b0 c1 fd 26 bd c8 fb 22 bd 41 ab da 3c 49 e1 d2 bc
       -0.040769342 -0.0397909 0.026692988 -0.02574219
0003c0 f7 25 b1 bc ef 37 85 3c 53 c6 6c 3d e6 7b a1 bb
       -0.021624548 0.016262023 0.057806324 -0.0049281
0003d0 96 a8 11 3d 6f b4 29 bb 56 27 5e 3d 45 89 1d 3d
       0.035561167 -0.00258949 0.054236732 0.03846099
0003e0 53 f7 0a 3d 5d 1f 08 3d f2 53 8b 3d b5 7e 3b bd
       0.033927273 0.033233035 0.06803121 -0.045775134
0003f0 7f d7 de 3c 0f c0 3b 3c 27 d1 63 bd e8 dc 6a bc
       0.027202366 0.011459365 -0.055619385 -0.014334895

fc.0.bias f4 [128]
000000 7e 39 7b bd a7 50 8b bc 42 45 7c 3d 78 a4 61 3d
       -0.061334126 -0.017006231 0.061589487 0.05508849
000010 00 99 e8 bc 18 d9 bc bd 7c d7 f7 bc ce 53 de bd
       -0.028393269 -0.09221095 -0.030254118 -0.10855828
000020 78 c9 ff 3c dc 75 8b ba 78 3c 89 bc 00 06 91 bc
       0.031223997 -0.0010639983 -0.016752467 -0.017703056
000030 d3 1e ab bd 21 34 43 3d bb 12 01 3d ab b7 ba bc
       -0.08355489 0.047657136 0.031512003 -0.022792658
000040 41 17 b7 3b 99 8f 54 3d 45 0c b1 bd 83 52 88 3a
       0.005587489 0.051894758 -0.08644918 0.0010400567
000050 a0 26 bc ba 73 b0 be bb 2a bb 40 bd b1 59 bd 3c
       -0.0014354773 -0.005819374 -0.047053494 0.023114057
000060 b5 8e a2 bc 49 13 3c bc ec 81 82 bd e8 fb a1 bd
       -0.019843439 -0.011479207 -0.06372437 -0.079093754
000070 72 50 c6 3c ee 3e 41 3d cb 3e 64 3c 71 7f 15 bb
       0.024208281 0.047179155 0.013930987 -0.0022811557
000080 83 6b 69 bd 58 37 2a 3d 2d 73 ec bc 11 cb 3a 3d
       -0.056987297 0.041556686 -0.028863514 0.045603815
000090 63 02 32 3d 91 be 7e bd d1 2f 7f bd 07 24 c9 bb
       0.043459307 -0.062193457 -0.06230146 -0.006138328
0000a0 c7 0d 8a 3c 20 28 c4 38 6b 1b b6 bc 12 72 ea bc
       0.016852273 9.353482e-05 -0.02222987 -0.028618846
0000b0 8d 14 72 bd a2 07 82 bc f9 bc 5d bc e7 9e 41 3d
       -0.05910163 -0.01587278 -0.013533824 0.04727068
0000c0 04 5b 97 3c ee c4 a4 bd a3 ce e6 bc 64 5e 29 bd
       0.018476017 -0.08045374 -0.028174704 -0.041349784
0000d0 d9 20 41 3d 17 13 d4 bc 87 8e a0 3c b5 9a 13 bd
       0.047150467 -0.025888009 0.019599212 -0.036036212
0000e0 25 8c 15 3d 22 0b 16 bd 28 33 5d bc 8c 89 ac bd
       0.036510605 -0.03663171 -0.013500966 -0.084246725
0000f0 0d d9 bd 3c 19 c8 57 3c 5e d5 af 3d 58 98 91 bd
       0.023174787 0.013170266 0.085856184 -0.071091354
000100 6f 3b 0e bd 22 c8 2a 3d c8 ab ef 3c c8 6c e2 3c
       -0.03472465 0.041694768 0.029256716 0.027639762
000110 63 98 56 3b 1e 54 2e bd 35 2a b8 bc 87 c5 7d bc
       0.0032744638 -0.04256069 -0.022481063 -0.015488989
000120 57 b8 99 bd 8d 52 7b bd 70 5a af bd a1 35 a2 bd
       -0.07505863 -0.061358023 -0.085621715 -0.07920385
000130 4b 26 3a 3a 71 5c aa bc ec 89 35 bc 94 1f 15 3c
       0.0007101043 -0.020796033 -0.011080246 0.009101767
000140 ff a6 64 bd 8d c2 84 3c 70 ff 92 3d 28 d3 25 3d
       -0.055823322 0.01620605 0.07177627 0.040484577
000150 0f 08 52 bd 5a 53 3c 3d 87 f5 21 3d 1e 32 9b bd
       -0.051277217 0.045977928 0.039540794 -0.075779185
000160 25 f0 8f 3c 2e eb a0 bc 5b 34 0a bc 0a ba 82 3c
       0.017570565 -0.019643392 -0.008435334 0.015957851
000170 ca 44 62 bd 54 79 9d bd 4c 85 10 3d 6a 7a fc bc
       -0.055241384 -0.07689157 0.03528337 -0.03082009
000180 e9 4c 14 3c b8 70 04 bb 50 a1 99 bd eb c5 68 3b
       0.00905154 -0.0020208787 -0.07501471 0.003551836
000190 f4 db 81 bd ed 37 bb bc 5b 63 c5 bd f6 cb a5 3c
       -0.06340781 -0.022853816 -0.09638091 0.020238858
0001a0 59 fc fc bc a2 75 43 bd 78 bf 63 bd ea 0c 10 bd
       -0.030882047 -0.047719605 -0.05560252 -0.035168566
0001b0 bb a4 ca bd 28 9a 56 bd 2d a5 50 3d 68 34 4a 3d
       -0.09894701 -0.05239311 0.050938774 0.049366385
0001c0 7e 82 b7 bb ac 2f 17 3d 99 b1 54 bd 1b c2 60 3c
       -0.0056002727 0.036910698 -0.051927183 0.013718153
0001d0 6f 3b 46 3c 8d ea 8f 3d c2 e8 06 3d 7b d2 5a bd
       0.012099131 0.07027159 0.03293682 -0.053423386
0001e0 20 71 14 bd 04 10 c3 3c 1b 3c 22 3d 29 14 98 bd
       -0.036240697 0.023811348 0.039608102 -0.0742572
0001f0 b1 9e 23 3d 7d e0 a4 39 0b 93 8e bd f0 6f 80 bd
       0.03994626 0.00031447774 -0.0696164 -0.062713504

fc.2.weight f4 [128, 128]
000000 40 80 2f bd 7e cc 2a 3b b1 84 e8 bb 1f 91 97 3c
       -0.042846918 0.0026061828 -0.007095896 0.018501816
000010 8c aa 44 3d 1c a6 50 3c fa 9d 81 3d e5 66 05 be
       0.04801421 0.012734916 0.0632896 -0.13027532
000020 58 3d 34 be 9f 33 3b 3d bc 48 95 bc 31 fc a4 bd
       -0.17601526 0.045703527 -0.018223159 -0.08055914
000030 04 87 b7 3c 89 5a 56 bb 66 ba c8 bb 78 c3 32 3e
       0.022403248 -0.0032707772 -0.006125736 0.17457378
000040 f7 7e e0 bd 07 b0 31 bd 77 01 31 3d 72 d4 5a bd
       -0.109617166 -0.043380763 0.043214288 -0.05342526
000050 de 85 ef bc bc 88 ec ba d3 45 54 3d cd b5 0e bb
       -0.029238638 -0.0018046121 0.051824402 -0.0021775842
000060 0b eb 9a b9 e6 98 68 3c 6a 3f c9 3d 3c 45 f2 3c
       -0.0002954829 0.01419661 0.098265484 0.02957403
000070 cc 43 c4 3c bc 0a c2 bc 84 bf b2 3d eb 4d 57 3c
       0.02395811 -0.02368676 0.08727935 0.013141136
000080 f7 cd 0e 3d fc e8 e1 bc 23 e5 e5 bc a8 3b 23 3e
       0.034864392 -0.027576916 -0.028063362 0.15940726
000090 2d f9 a5 3d a1 f8 97 bd 03 58 32 bd 3f a4 a8 bb
       0.08104167 -0.07420469 -0.043540966 -0.005146533
0000a0 fb 4c 5b bd 5a e0 07 be ed da e3 bd f7 39 0c 3d
       -0.05354021 -0.13269177 -0.11125741 0.034234967
0000b0 c9 6e 35 bd c6 15 36 be 11 af 9c 3d de d1 49 3d
       -0.044295106 -0.17781743 0.07650579 0.04927241
0000c0 22 9e 44 3d b8 8f 6c 3c 4c 21 0a bd 7e 7b 6f 3d
       0.04800237 0.014438562 -0.03372316 0.05846738
0000d0 2a ae cf bd 96 14 2f be 5e 0e d6 bd a9 3e 2a bd
       -0.10140641 -0.17097697 -0.10451959 -0.041563664
0000e0 a5 7a 2c 3d b6 3f ea bc 77 79 86 bd e8 a0 86 bd
       0.04210915 -0.028594833 -0.06566136 -0.06573659
0000f0 53 c7 23 3d fb 55 a3 bc d7 28 82 3d bc a8 84 bc
       0.039985012 -0.01993846 0.06355446 -0.01619374
000100 84 65 05 be cc aa 8d 3a 08 9d ce bc a7 b3 04 bd
       -0.13027006 0.0010808348 -0.025221363 -0.032397892
000110 7b 9c 40 3d 83 2c 6a bb d5 dd 06 bd 05 80 1f bd
       0.04702423 -0.0035732097 -0.0329264 -0.03894045
000120 22 16 0e be c2 11 22 bd a8 64 96 3d aa db a6 3d
       -0.1387563 -0.039567716 0.073434174 0.08147366
000130 a6 cd e8 3c 24 27 5c 3d ec 1f aa 3d 9d bc da bc
       0.028418373 0.053748265 0.0830687 -0.026701266
000140 e4 5b 8b 3d 17 1d b5 bb 2b a2 30 3e 33 c1 31 bc
       0.06804636 -0.0055271494 0.17249362 -0.010849285
000150 7d 76 40 3c 70 11 0e 3c 3c 1a 84 bd 2b 49 39 bd
       0.011747 0.00867115 -0.06450316 -0.045235794
000160 d9 c1 04 3e 9c ad 50 bd eb cb d1 bc 11 46 9f bc
       0.12964572 -0.050946817 -0.025609931 -0.01944259
000170 b3 c4 27 3b 01 83 e2 3c 2d 72 79 bd 1e 1e 9e 3b
       0.002559942 0.027650358 -0.060899902 0.0048253676
000180 72 4e d9 bd 90 a0 06 3c 88 f9 36 3d e7 62 af bd
       -0.106106654 0.008216992 0.044671565 -0.08563786
000190 5e 12 29 3c 17 ae 59 3e 57 1d 2a bc 9b 80 56 bd
       0.0103193205 0.21257816 -0.010382972 -0.05236874
0001a0 d9 cd ce 3b 9d 02 4c 3b 63 32 f5 bb f2 6e d7 bc
       0.00631116 0.0031129487 -0.007482813 -0.02629802
0001b0 60 78 54 3d 2c 80 86 bd b4 f6 b6 bd 9e a6 77 bd
       0.05187261 -0.065674156 -0.08933774 -0.060461633
0001c0 80 8b 73 3d ae e3 00 3c 1b c4 96 bd 46 42 80 bb
       0.05945921 0.007866783 -0.07361623 -0.0039141504
0001d0 5f 66 0b 3e 61 47 b8 3d 66 d2 eb 3b ac 6b 29 bd
       0.1361327 0.089979894 0.0071967123 -0.04136245
0001e0 c1 01 4b bd 66 05 df bd c5 4c b2 bd b9 76 f7 3c
       -0.04956222 -0.108897015 -0.08706049 0.030207979
0001f0 38 c7 f0 3c cd ed 67 3c c0 1c 85 3d a7 4b 90 3c
       0.02939187 0.014155817 0.06499624 0.017614199
000200 e7 b9 e4 bd 15 63 9c 3d b6 e4 2d 3d 41 5e 88 3d
       -0.111682706 0.07636086 0.042454444 0.066586025
000210 67 f4 07 3d 2e bf 11 3d 95 b3 69 3d 2d 13 47 3c
       0.033192065 0.035582714 0.05705603 0.012150568
000220 f3 f4 20 be 94 d3 3b bb 12 bb 7b 3d a4 9b f6 bc
       -0.1571844 -0.0028660046 0.0614577 -0.030103512
000230 ca 5f 06 bd 4a 54 c4 bc 03 46 63 3d c7 5f 23 3d
       -0.032806195 -0.023965973 0.05548669 0.039886262
000240 37 f3 a8 bd 8d 6a ec ba c9 73 14 3d 67 f8 fb 3b
       -0.082495145 -0.0018037126 0.036243234 0.007689524
000250 71 75 14 bc c5 2c 91 bd ee 7b 7d 3d 08 07 c6 ba
       -0.009061203 -0.07088617 0.061885767 -0.0015108297
000260 9a b6 74 3c e8 59 cb bc 31 0f 32 be 2d 68 2f be
       0.014936114 -0.024823144 -0.17388608 -0.17129584
000270 58 13 6e 3d fa 6f 9e 3d 8e 26 f2 bb 7f d0 23 bd
       0.058123916 0.077362016 -0.00738985 -0.03999376
000280 86 c7 49 3c f8 74 6b bd d8 7d c5 bc d5 e8 45 3d
       0.0123156365 -0.057484597 -0.024107859 0.04831775
000290 77 a7 c2 bc 69 a5 81 3d 27 9e 31 3c 7d 2e 6e bd
       -0.023761494 0.063303776 0.010840929 -0.058149803
0002a0 e9 27 b2 bd 7d d0 60 3c 30 a5 97 bc 98 29 16 3c
       -0.086990185 0.0137215825 -0.018511385 0.00916519
0002b0 0f 61 97 bd b6 81 cc bc ce b2 9a bd 03 0f 25 3d
       -0.07391559 -0.024964195 -0.075536355 0.04029752
0002c0 dc fa 84 3d f7 f1 34 bd 9b b7 16 bd 04 7a a6 3c
       0.0649316 -0.04417607 -0.036796194 0.020321853
0002d0 bc 81 52 bd 99 56 8c bc 91 ae 98 3c 2b 63 b4 bd
       -0.051393256 -0.017131137 0.018637927 -0.08807977
0002e0 e1 de 11 be 5c 10 11 bd 21 86 7a 3d bf 04 d4 bd
       -0.14245178 -0.035415992 0.06116307 -0.10352468
0002f0 10 f3 94 bd 4f f7 29 bb 7f 71 01 3d b0 dc 47 bd
       -0.07272923 -0.002593476 0.03160238 -0.04879445
000300 21 d5 68 bd 65 93 c3 3c 89 fd 93 bd 15 a2 97 3c
       -0.05684388 0.023873994 -0.07226092 0.018509904
000310 b6 c5 9c bc 19 e2 7f bc 7c b0 89 bd 38 c8 27 3c
       -0.019137245 -0.015617871 -0.06723115 0.010240607
000320 86 a4 8f 3d 20 0b 1e bc 63 c8 c0 bc 92 ff 87 bc
       0.07013802 -0.009646207 -0.023533052 -0.016601358
000330 af 4f 74 3d cb 8e 1a 3d cf d5 92 3d 71 1e db 3c
       0.059646305 0.037733834 0.07169687 0.026747914
000340 a4 ed 83 3d 2f 51 6d 3d 53 75 f3 bb 62 03 0e be
       0.06441811 0.05793875 -0.0074297576 -0.13868478
000350 f5 aa 00 3e a3 69 fa bd 8d a5 71 3d 31 2c f3 3c
       0.12565215 -0.1222718 0.058995772 0.029684158
000360 4e 49 74 3d 85 04 96 3d 35 b4 75 3d 6e 3a 48 3d
       0.05964022 0.07325081 0.059986312 0.048883848
000370 00 8d 9b 3c d2 2b db 3d c7 9d 08 3d 68 18 3c 3d
       0.018988132 0.107017174 0.033353593 0.045921713
000380 32 ae 0d be c1 74 bf 3c a7 74 3f bd c3 17 a4 3b
       -0.13835981 0.023371102 -0.046742108 0.0050077154
000390 79 15 c8 bc 4e f5 73 3d 47 ba 3d 3d 8b 97 f0 3c
       -0.024424301 0.059560113 0.046320226 0.029369136
0003a0 a2 77 25 bd 4d 16 8d bc 4b 93 54 bd b2 d2 b3 bd
       -0.040397294 -0.017222548 -0.051898282 -0.08780421
0003b0 8b d5 81 bd fb bd 9a bc 6b 28 6a bd 46 6c 76 bd
       -0.06339558 -0.018889418 -0.05716745 -0.06016185
0003c0 2c 1a c9 3d c2 ef 6f 3d 1d 9e fb bd c9 d3 a5 3d
       0.09819445 0.05857826 -0.12286017 0.080970354
0003d0 77 6f 9e 3c 15 b3 ab 3c 1a 55 ab 3d 75 76 a2 bc
       0.01934026 0.020959416 0.08365841 -0.019831875
0003e0 86 58 01 bd c3 f8 b1 bd a8 5a 6a 3d 48 58 ec 3c
       -0.031578563 -0.08690026 0.057215363 0.02885069
0003f0 4a 03 18 3d 8e 4f 66 3d 8a 68 20 be dc 9e 58 3e
       0.03711251 0.056228213 -0.15664878 0.2115435

fc.2.bias f4 [128]
000000 0a f0 c4 3c bd f0 d4 bd 63 a6 95 bd 70 37 b3 bd
       0.02404024 -0.1039748 -0.073071264 -0.08750808
000010 49 40 83 bb d9 7b 61 bd d7 f0 b0 bc 81 2d 2b 3d
       -0.004005466 -0.05504975 -0.021599216 0.041791443
000020 7b f6 ae bc 38 13 29 3d 37 3a 7f bc 4d 99 99 3d
       -0.021357765 0.041278094 -0.015577844 0.07499943
000030 a7 30 69 3a ca ed af 3c a1 ba 78 bd 7b 92 56 bd
       0.00088954944 0.021475691 -0.06072486 -0.05238579
000040 e9 d0 af bc 73 69 26 bd 71 27 e0 3d be 9e fb 3c
       -0.02146192 -0.040627908 0.10945023 0.030715343
000050 75 86 f4 3c e2 4d f5 bd 2e b8 1a 3d 54 4c 2c bc
       0.02984927 -0.119777456 0.037773304 -0.010516245
000060 ad 55 b3 3d d2 b8 83 bd 28 c8 55 3d dd 9b af 3d
       0.08756576 -0.06431736 0.052192837 0.085746504
000070 57 1e 42 3d ff d9 26 bd a8 7a 04 bc 8f 82 b0 bc
       0.047392216 -0.04073524 -0.008085884 -0.02154663
000080 88 99 aa bd 1b 40 94 3c 0e 42 34 3d f0 77 7b bd
       -0.08330065 0.018096974 0.044008307 -0.06139368
000090 75 35 7d bd 1f 35 51 3d cb 92 78 3d 07 d8 13 3d
       -0.06181856 0.05107605 0.060686868 0.03609469
0000a0 6d 76 11 bd da 84 20 bb af 23 64 bd 0c 4d 00 3d
       -0.03551333 -0.0024493248 -0.055698093 0.031323478
0000b0 7b 9c 1f bd 04 b6 67 3d da 65 a9 bc 04 84 a7 bd
       -0.03896759 0.056570068 -0.02067845 -0.08179477
0000c0 7e c8 50 bb b9 b6 a5 bd 54 e3 77 bd 68 ce ee bd
       -0.0031857784 -0.08091492 -0.06051953 -0.116604626
0000d0 b0 5b 03 3d fe d8 52 bc 13 f7 39 bb 91 b3 82 bc
       0.032069862 -0.012869118 -0.0028376027 -0.015954765
0000e0 35 5f 5f bd fd 2d 49 3d cb a1 1b bd b8 e5 44 3d
       -0.054534156 0.049116123 -0.037996095 0.04807064
0000f0 84 5a a0 bd 33 31 84 3c 58 12 42 bd 4d 7e f6 3c
       -0.078297645 0.016136741 -0.047380775 0.030089522
000100 22 9f fb 3d 3d 4d d3 3a 2f a3 93 3b ff 8e 24 3d
       0.122862116 0.0016121041 0.004505537 0.040175434
000110 18 75 eb bc 05 ac 04 bd e0 a1 b7 bd 9c 08 85 bc
       -0.028742358 -0.032390613 -0.08966422 -0.016239457
000120 97 94 06 3d ab a2 5e bd 4a 9f a2 bc 76 79 ca 3d
       0.03285655 -0.05435435 -0.019851346 0.09886448
000130 67 a0 8d bd d9 9e 38 3d 04 2d 3d bd 7d 1c ab 3d
       -0.0691536 0.045073364 -0.04618551 0.08355043
000140 38 0a 17 bd 58 ef 22 bd c6 9a fb bc 14 ec 96 bd
       -0.03687498 -0.039779037 -0.03071345 -0.07369247
000150 f2 7d 5e 3d 4e 43 69 bd 13 49 1b 3a cc 37 3d bd
       0.05431933 -0.056948952 0.00059236697 -0.04619579
000160 12 58 9f 3c ee 0a 49 3c d2 dc 88 bd 42 3c 35 3c
       0.019451175 0.012270672 -0.06682743 0.01106173
000170 f4 d0 95 bd 5d 41 c4 3d 9b b7 7a ba 37 58 8a bc
       -0.07315245 0.095827796 -0.00095641025 -0.016887767
000180 e8 ac b1 bb 1e bd 22 3d 90 28 b6 bd 9f e3 db bd
       -0.0054222234 0.039731137 -0.088944554 -0.10736775
000190 0e f9 9a bd 94 b9 af 3c 4f c8 d3 3d 60 94 76 3b
       -0.07567035 0.021450795 0.1034094 0.003762506
0001a0 3c 29 0f 3d 32 a9 79 3d 94 36 ab bc b7 1b cb bd
       0.034951434 0.060952373 -0.020900048 -0.099173956
0001b0 1d e8 15 3c 60 39 bb bd 31 0d d2 bd e2 3e 01 bc
       0.009149578 -0.09141803 -0.10256422 -0.007888528
0001c0 d1 c0 f0 3c 2b cf 39 3d c7 27 8a bb 31 d8 0b bd
       0.029388817 0.045363586 -0.0042161676 -0.034141723
0001d0 45 6f a2 bd db 73 2d 3d fa 4e 85 bd b0 cd d0 3d
       -0.07931379 0.042346817 -0.06509204 0.10195482
0001e0 98 17 61 3c 1c 8e 6b bd 21 07 1e 3d 91 c7 6b bd
       0.013738535 -0.057508573 0.038581017 -0.05756337
0001f0 61 b6 15 3d 1d 8f c9 bd ed 57 67 3c bf 71 8d bd
       0.036550883 -0.0984175 0.014120084 -0.06906461

fc.4.weight f4 [128, 128]
000000 3d c2 52 3d 71 4e 87 3c 9f 2b 80 3d cd f5 9a 3c
       0.05145477 0.016516896 0.0625832 0.018916035
000010 7b 73 37 bd c2 6d f5 3c db af d8 3c 4e 57 2c 3d
       -0.044787865 0.029959563 0.026451042 0.042075448
000020 35 54 9d 3d 5c 0d b3 3d c2 9f 39 3d 48 ab 8e bc
       0.07682077 0.087427825 0.045318373 -0.017415658
000030 ee cd 50 3d 12 e8 16 bd 0d e5 28 bb c9 9d 10 be
       0.05097764 -0.036842413 -0.002577129 -0.1412269
000040 84 36 19 3d 5f 79 d3 bb c8 1c 83 bd 41 ae 99 bd
       0.037405506 -0.0064536775 -0.06401974 -0.075039394
000050 34 16 02 3d 9e 90 55 3c 10 8f d5 3d cf ea c7 bc
       0.031759456 0.013034968 0.10427678 -0.024403958
000060 77 00 13 bd 90 12 00 3e 1e a9 0f bd 49 a0 4a 3d
       -0.035889115 0.12507081 -0.035073392 0.049469266
000070 c5 d6 71 3c b5 40 34 bd e7 c0 62 bd a7 0c 1f bd
       0.014760678 -0.044007022 -0.055359747 -0.038830426
000080 0f fb 71 3d e5 3d 09 3d ba 98 fb bd 9a ee 12 bd
       0.05907732 0.033506293 -0.1228499 -0.03587208
000090 ad ac f5 bc 26 03 ec 3b ea 4c d8 3d 51 e6 1e bd
       -0.029989565 0.0072025238 0.10561545 -0.038793866
0000a0 a2 6d 9c 3c fb 7f 43 bd f5 f9 e2 bd e2 f2 94 3d
       0.019095246 -0.047729474 -0.11082832 0.07272889
0000b0 57 08 31 bd ce ee dd bb 8f c8 4e 3d 4b 77 4f 3c
       -0.043220844 -0.0067728525 0.050484236 0.012662719
0000c0 30 34 cc bd 55 0f 6b bc a2 94 77 3d 27 9a 34 3d
       -0.099708915 -0.014346917 0.06044448 0.044092324
0000d0 d2 54 5f 3b 7c d9 0f 3d 73 30 d2 bc 3e 2a d4 3d
       0.0034077656 0.03511952 -0.025657868 0.103596196
0000e0 15 70 c5 bd 26 ed 80 bd b5 e9 3a bd 9c 72 b2 3d
       -0.096405186 -0.062952325 -0.045633037 0.08713266
0000f0 8b 63 c1 3d 01 65 07 bd 14 55 c3 bd 34 f2 8e 3d
       0.094428144 -0.03305531 -0.09537712 0.0697979
000100 2a fb fe bd b8 ed 3e bd 7d b6 86 bd 02 57 97 3d
       -0.124502495 -0.046613425 -0.065777756 0.07389642
000110 a5 77 e0 3d 69 32 8a 3c d6 a2 f8 bd c0 77 9d 3d
       0.109603204 0.01686974 -0.121404335 0.07688856
000120 11 67 7d bd 1a 1a 5f bd ff 8e 85 3d 1f 01 90 3d
       -0.06186587 -0.05446825 0.06521415 0.07031464
000130 24 42 a3 3d ee 18 aa bd 8e 93 c2 bc f5 1a aa bd
       0.079716 -0.08305536 -0.023752 -0.08305923
000140 fd 33 3f bd e3 75 cb bc 4a f3 50 bd cd 12 31 3d
       -0.04668044 -0.024836486 -0.05101327 0.04323082
000150 56 f3 87 3c 6c bb 82 3c d7 da c8 bd 97 46 a0 3c
       0.016595524 0.01595851 -0.098073654 0.01956491
000160 f9 64 79 bd fb e6 c7 3c 09 b4 85 3b 66 0d 84 bd
       -0.06088731 0.024402132 0.0040802998 -0.06447868
000170 22 40 c5 bb 84 5c a4 bd 6c 51 26 be e9 77 44 bd
       -0.006019608 -0.080254585 -0.16241997 -0.047965918
000180 f8 1c 8f 3d eb 59 28 3c 44 f4 21 3e be ce b1 bd
       0.06987947 0.010275344 0.15815836 -0.08682011
000190 95 2c e9 bd f3 0c 4a 3c 1b ae 56 3b 3e 3f 5b 3d
       -0.113854565 0.012332189 0.0032757584 0.05352711
0001a0 fa b6 71 bc 48 58 9a 3c 74 4f 81 bc d7 6a b9 3d
       -0.014753098 0.018840924 -0.015784957 0.09053581
0001b0 e5 df 43 3d a2 55 4d 3d d8 28 9d bd 4c 4d 37 bc
       0.047820944 0.050130494 -0.07673806 -0.011187863
0001c0 fe 84 6d 3c e1 2b 52 3d 04 f9 b4 bd 16 f9 ed bd
       0.01449704 0.051311377 -0.088365585 -0.11619775
0001d0 4e ba 05 bd 1c 8f 12 3e c9 c0 bb 3d c3 9b fd 3d
       -0.032648377 0.14312404 0.0916763 0.12383225
0001e0 ac 34 a4 3c c3 87 18 bd 41 4b a3 bd 69 49 cd bd
       0.020044647 -0.037238847 -0.07973338 -0.100237675
0001f0 2a f8 57 3d 65 ee 9c bd 0f 3e 0d 3d 56 9e 04 be
       0.052726902 -0.07662658 0.03448301 -0.12951025
000200 80 8b e3 3c 24 4f 9c bd 90 9f ba bd ff 30 90 3d
       0.02777648 -0.076322824 -0.091124654 0.07040595
000210 0f ec 09 bd bc b3 50 3d 13 8f 01 bc 92 b8 8b bd
       -0.03367239 0.050952658 -0.007907647 -0.06822313
000220 de 8b 9b bc c7 be 3d bd 43 a4 dc 3d 3f 7b 9b bd
       -0.018987592 -0.046324518 0.10773518 -0.07591867
000230 5d ac 29 bb 83 2d 38 3e df 8f b8 3d 6e 7f c5 bb
       -0.002589009 0.17986111 0.09011816 -0.0060271537
000240 eb da b2 3c eb 6c f1 3b ff 92 0d be 8a 95 15 3e
       0.021832904 0.0073677204 -0.13825606 0.14607826
000250 58 ce 3e 3d 5d 6d b7 bc c3 06 55 3d 82 3c 59 3e
       0.046583503 -0.022391016 0.0520084 0.21214488
000260 85 88 df 3c 29 e5 05 3b ff 37 32 3d 85 75 9d bd
       0.027286777 0.002043078 0.043510433 -0.07688431
000270 ef 55 5c bd 94 bb bd 3c 66 e4 4f 3b 15 df 0a 3d
       -0.05379289 0.023160733 0.003172183 0.033904154
000280 a4 2c fd 3d 91 bc cf 3d 07 26 24 3e 26 f0 a8 3d
       0.1236203 0.10143388 0.16030131 0.0824893
000290 09 2f 6d 3d 3e ac 9d 3d 5c 40 5f 3d 24 58 80 bd
       0.057906184 0.07698868 0.054504737 -0.062668115
0002a0 f9 7d 30 bd 7f 7b 74 3e 73 e8 f8 bd e4 30 f8 bd
       -0.043088887 0.23875235 -0.12153711 -0.121187
0002b0 72 ab 8f bd be 2e 69 3d a5 db cf 3a c1 54 9d bd
       -0.070151225 0.056929342 0.0015858306 -0.07682181
0002c0 34 9b 37 be b8 84 b1 3d 35 0a 9b bc 61 19 cf 3d
       -0.17930299 0.08667892 -0.018925766 0.101122625
0002d0 f0 9c a0 3d 4f ee 67 3d bf cd f6 3d c7 52 be 3c
       0.078424335 0.056623753 0.12050962 0.02323283
0002e0 40 42 bc 3c 1e 5e 9e 3c db db e8 bc 47 7d d0 bd
       0.02298081 0.019331988 -0.028425148 -0.10180145
0002f0 9b e1 0c 3d 92 ff 20 bd 73 0b 44 bd 2c 15 ec bd
       0.03439484 -0.03930623 -0.04786248 -0.11527476
000300 ac a9 25 bc 83 48 c7 bc 29 e5 15 bd cd d9 82 3d
       -0.010111254 -0.024326568 -0.036595497 0.063891985
000310 f4 cc 04 3e 80 09 ab bc 8d ca b1 3d 1f e8 45 3d
       0.12968808 -0.020878553 0.086812116 0.04831707
000320 51 86 95 3d 07 d9 17 bb 5c e9 ab bd f2 34 8a bc
       0.073010094 -0.002317013 -0.08394119 -0.01687095
000330 da 05 36 3b 26 7c 87 bd 7a 1f ab 3c e5 24 be 3c
       0.0027774484 -0.06615476 0.020889033 0.023210952
000340 18 d5 1b bd 5d ae cc bd 7a 8f 98 bd 3f 87 e0 3d
       -0.03804502 -0.09994195 -0.07449241 0.10963296
000350 c9 24 21 3d e3 d9 3d 3e 21 a0 74 3c f9 b4 ca 3d
       0.03934172 0.18540148 0.014930756 0.09897799
000360 9d 12 fe 3c 8d ac e0 bd 70 bb f5 bd 13 93 98 3c
       0.031014735 -0.109704114 -0.119986415 0.018624818
000370 fc 32 cd bd d7 e9 e2 3d 13 99 2b 3d 43 90 88 3d
       -0.1001949 0.11079758 0.04189403 0.06668141
000380 f9 ae bf 3c b3 28 c8 bd 1a 44 b9 bd 08 71 9d 3c
       0.023398863 -0.09773388 -0.090461925 0.019218937
000390 96 dd 12 be 50 77 b4 3c 36 23 ab 3d f6 a8 0b 3c
       -0.14342341 0.022029549 0.08356325 0.00852417
0003a0 31 51 cf 3c 4c 20 89 3c 99 61 54 be 5f 30 9e bd
       0.02530727 0.016739033 -0.20740356 -0.0772407
0003b0 2f 78 1a 3d 67 38 1d bd b2 a7 89 3d 25 18 06 3e
       0.037712272 -0.038383868 0.067214385 0.13095148
0003c0 f8 2a cf 3c ab bf ca bc 6b eb a6 bc 2f c1 6f 3d
       0.025289044 -0.024749598 -0.020375928 0.058533844
0003d0 9e 26 9c 3d 66 c2 0e bb 60 32 61 3c 4e 21 79 bc
       0.07624553 -0.002178335 0.0137449205 -0.015205694
0003e0 62 7a 44 3e 50 cf 42 3d 81 df 96 3d ef 4a c8 3c
       0.1918731 0.04756099 0.07366849 0.024449794
0003f0 a4 35 80 bd a0 18 53 3c de f1 27 3d fa de b3 bd
       -0.06260231 0.012884289 0.041002147 -0.08782764

fc.4.bias f4 [128]
000000 53 76 ff bd 1f 8e 95 3d 4e 23 b1 3d 85 09 11 3c
       -0.124737404 0.07302498 0.08649312 0.008852367
000010 21 54 00 3d 61 09 87 bd 8a 7c dd bc 36 ca 91 3d
       0.03133023 -0.06593586 -0.027036924 0.07118647
000020 41 40 73 bc 5e 08 19 bd 5d 70 92 bd 6d 77 93 3d
       -0.014846862 -0.037361495 -0.07150338 0.07200513
000030 b3 1d 4f bd ce 1d 49 3d 1a b1 cb bd 18 05 48 bd
       -0.050565433 0.04910069 -0.09945889 -0.048832983
000040 f4 d9 c9 3c 8d cd 89 3d 62 eb 66 3d 82 ff dd 3c
       0.024640061 0.06728659 0.056376822 0.027099375
000050 f8 cb 45 bd 4c e0 94 bb f9 16 36 3c 02 34 8b bd
       -0.048290223 -0.00454334 0.011113876 -0.06797029
000060 fc 05 87 3a 05 ac 91 3d 74 87 c9 bc 4a 2a 5a 3d
       0.0010301466 0.07112888 -0.024600722 0.053262986
000070 8e a7 5b 3d 46 73 c2 3c 94 94 ba 3c fc c2 6f 3d
       0.05362659 0.023736607 0.022775926 0.05853556
000080 4f 25 c8 3d 6a 2f b6 bb 76 c8 ad 3c f1 71 7a bd
       0.09772741 -0.0055598514 0.021213751 -0.06114382
000090 36 1c 29 bd 01 02 92 ba b6 32 13 bc 32 bc ca 3d
       -0.04128667 -0.0011139513 -0.008984258 0.09899177
0000a0 9e bf c2 bd c0 e9 56 bd 49 dc 95 3d 1d b1 b3 3c
       -0.09509204 -0.052469015 0.07317407 0.02193504
0000b0 fc 64 e0 3d d8 f9 e2 bd 03 fb fc 3d 79 80 48 bc
       0.10956761 -0.1108281 0.12352564 -0.0122376615
0000c0 d4 55 08 3b 54 a9 8b bd 83 af 06 bc 8f 18 00 3e
       0.002080311 -0.06819406 -0.008220556 0.12509368
0000d0 7b df 92 3d 2e 11 1d be 40 22 b1 3d 0c 14 20 bd
       0.07171532 -0.15338585 0.08649111 -0.03908162
0000e0 7f f7 14 3c f3 e4 56 bd 91 7d 5f bc 6f e0 1a bc
       0.009092211 -0.052464437 -0.013640777 -0.009452923
0000f0 c2 13 5a 3d b9 ad a2 bd 91 8f df 3d 8b ee c1 3c
       0.0532415 -0.07943291 0.10916055 0.023673316
000100 4b e0 99 bb cf 78 73 bd 99 49 a9 3c fb e4 3f 3c
       -0.0046959273 -0.059441384 0.020664977 0.011712308
000110 e8 21 b5 bb d1 3d 8b bd d0 b2 3c 3d 2a 72 a2 bd
       -0.0055277236 -0.067989 0.046068966 -0.07931931
000120 a5 1a 86 bc 3f cf 10 3d 39 95 02 bd 4a 80 10 bd
       -0.016370127 0.035353895 -0.03188059 -0.035278596
000130 ac 5e 45 3d 66 0b 3b 3d 27 fa d9 bc a5 c1 80 3b
       0.04818599 0.045665167 -0.02660854 0.003929334
000140 da a3 8c 3b 67 b9 82 bc 96 81 27 bd 04 be b2 3d
       0.0042919936 -0.015957547 -0.040895067 0.08727649
000150 9c 52 dc 3d 29 0d 0b bd ce 0d 2e bd ae 78 77 3d
       0.10757944 -0.033948097 -0.042493634 0.060417823
000160 5e 71 f1 3b b9 bb a3 bd e8 96 61 3d 56 4b 2f 3c
       0.0073682508 -0.0799479 0.055075556 0.010699114
000170 14 74 85 3b c1 df 03 bd 60 be d1 bd 03 86 0f bc
       0.0040726755 -0.03219581 -0.10241389 -0.008759978
000180 d2 c6 80 bd 9f 56 9a 3d 99 37 45 bd 12 12 f6 3c
       -0.06287922 0.07536053 -0.048148725 0.030037913
000190 db c6 ff bc 5a 68 7b 3d 55 c1 d2 bb 4d 79 7f 3d
       -0.031222751 0.061378814 -0.0064317384 0.06237154
0001a0 94 73 90 3d 56 d5 d9 3d 17 1e 5d bc 02 b0 1a bd
       0.07053295 0.10636394 -0.0134959435 -0.03776551
0001b0 2a 2b 93 3d 4f ad aa 3d 78 c2 a8 3c be 15 c1 3d
       0.07185967 0.08333837 0.020600542 0.09427975
0001c0 32 a6 27 3d e6 0e 66 bd 82 76 7a 3d 67 87 b3 3d
       0.04092998 -0.056166552 0.061148174 0.0876606
0001d0 5a a4 77 bd 6a e0 57 bd dd a8 c4 bd 4e d1 af bd
       -0.060459472 -0.052704252 -0.096025206 -0.085848436
0001e0 fa 56 d6 bc af 17 0d 3d a1 b5 a4 3c 7f 44 8f 3d
       -0.02616452 0.034446415 0.020106139 0.069954865
0001f0 df 5c 04 bd a0 bf a6 3d 2d 14 02 3e c2 23 d6 bd
       -0.03231513 0.08142018 0.12703009 -0.10456039

fc.6.weight f4 [128, 128]
000000 c6 a1 3a bd e2 75 a1 bd 15 7c 90 bc a9 33 9c 3d
       -0.045564435 -0.078838125 -0.017637292 0.07627041
000010 74 68 ab bd 3a 43 36 bc 6c d1 ab 3d ee ee 95 3d
       -0.08369532 -0.0111244265 0.083895534 0.07320963
000020 10 e1 89 bc 9f 71 1d 3e dc ef 57 3e 09 d2 ae bd
       -0.016830951 0.15375374 0.21087593 -0.08536155
000030 f8 c6 80 3d 3d 72 98 bd bb 32 95 3d 10 eb 8a 3c
       0.0628795 -0.07443664 0.07285067 0.01695779
000040 84 eb 08 3e 38 aa c4 3d 30 7a 30 bd 5e 23 e4 bd
       0.13371092 0.09602779 -0.043085277 -0.11139558
000050 e8 3a a7 bd 8c 3a da 3c 14 cf 37 3d 35 15 09 3d
       -0.08165532 0.026639245 0.04487522 0.03346749
000060 92 af 26 3d 21 e3 19 3e 6b cd 6f bd f9 92 b7 3d
       0.04069478 0.15028049 -0.05854551 0.0896358
000070 2d 26 39 3d 0d 7f 9e 3d 1c d6 87 3c 9d be a6 3d
       0.045202423 0.07739077 0.016581587 0.08141825
000080 8a d6 90 ba eb f4 43 3c c2 0e 4d bd ae e7 ec 3c
       -0.0011050266 0.011960248 -0.050062902 0.028919067
000090 b9 82 df 3d 82 8a c0 bd 68 96 97 3c 3d f5 1b bd
       0.10913605 -0.09401418 0.018504336 -0.038075674
0000a0 1a b5 22 3d 12 a9 cd bc 34 07 06 bd d6 74 80 bd
       0.039723493 -0.025105033 -0.032721713 -0.06272285
0000b0 ce a2 ed bd 72 06 96 3d 66 62 50 3d 41 32 9b bd
       -0.11603318 0.07325448 0.05087509 -0.075779445
0000c0 e0 dd c1 3d 0b ea 25 3d 5d c3 98 3c bd 80 c5 3d
       0.094661474 0.040506404 0.018647844 0.096436955
0000d0 2a de 7b 3d 46 87 db bc b1 67 68 3d 88 21 2f 3d
       0.06149117 -0.026797902 0.056739513 0.042756587
0000e0 58 88 1f b9 b3 c6 de 3d e4 23 a7 bd bc 86 62 bd
       -0.00015214214 0.108777426 -0.081611425 -0.055304274
0000f0 5d 89 dc 3d 7e c2 70 bc c6 06 32 3b 09 0a d0 3d
       0.107683875 -0.014694808 0.0027164682 0.10158164
000100 a7 7d b7 3c 1a 26 d6 3d 9d bd 98 bd 61 d6 66 ba
       0.022398783 0.10456486 -0.07458041 -0.00088057487
000110 fa 1e 29 bd c0 f9 b6 3d 04 8d dc bd b2 3d 46 bd
       -0.041289307 0.08934355 -0.10769084 -0.04839868
000120 47 78 0d 3e a2 1f ca 3d e6 3e c0 3d 87 08 cd 3b
       0.13815413 0.09869315 0.09386997 0.00625712
000130 90 2e fe 3c b6 54 1a bc 85 56 03 be 9a 1d 01 3c
       0.031028062 -0.009419611 -0.12825973 0.007880593
000140 81 1c 11 be 9f bc 48 ba 29 f2 9c 3d 01 bf e1 3c
       -0.1417103 -0.0007657501 0.07663376 0.027556898
000150 71 52 09 3d 97 cd 6e 3d d4 05 3d 3c ec c8 d2 bb
       0.033525888 0.058301535 0.011537034 -0.006432643
000160 fb f7 3e bb 37 be 09 3d 58 74 76 bc a4 3a 46 bc
       -0.0029139507 0.03362867 -0.015042387 -0.012098942
000170 26 d6 6c bd a6 eb c1 bd 1e 3a 8f 3d 9c 79 a2 bd
       -0.057821415 -0.094687745 0.06993507 -0.079333514
000180 9e 7a 23 bd 89 c9 08 3e 55 5f 8b 3d 44 34 63 bc
       -0.03991186 0.1335813 0.068052925 -0.013867442
000190 55 bf bb bc 0f 8b 95 bd 16 aa cf bd 03 dc 12 3e
       -0.022918383 -0.07301914 -0.10139863 0.1434174
0001a0 22 b7 bd bd 60 7c c6 bc 3e 96 9a 3d 19 5b 73 bd
       -0.092634454 -0.024229228 0.07548188 -0.05941305
0001b0 58 36 70 bd e1 23 60 bd 41 1b 15 bd e8 7d 27 3d
       -0.058645576 -0.054721717 -0.036402944 0.040891558
0001c0 be c4 2b 3e fb ec ba bd de 86 14 3e b5 b5 03 bd
       0.1677427 -0.09127232 0.14504573 -0.03215571
0001d0 6c 0e 15 be f3 8c 8f bb 32 09 bd bc d1 bd a9 bd
       -0.14556283 -0.004380816 -0.023075674 -0.08288158
0001e0 3f a4 39 3d ea e6 a4 3d 43 80 81 bd 42 c4 24 3e
       0.045322653 0.08051856 -0.06323292 0.16090491
0001f0 bb bd 8e 3d f5 d3 08 3e a0 a2 46 bb ed 78 97 bd
       0.06969782 0.13362105 -0.0030309334 -0.07396112
000200 2b 76 d8 bc a2 44 0e bc a8 b2 6f bd 8b 7e cf 3c
       -0.026423534 -0.0086833555 -0.05851999 0.025328895
000210 7b 00 bc bd b2 90 7f 3d e3 a4 a1 bd ce 33 48 bd
       -0.09179779 0.06239385 -0.07892778 -0.04887753
000220 a5 dd 59 bc 90 e8 7b 3d 22 4c 5f 3d 66 a1 9d bd
       -0.013297473 0.061501086 0.054515965 -0.076968
000230 b3 ee 70 bd 5d 58 f3 bc 41 3a 0d be 49 f3 bc bc
       -0.05882139 -0.02970522 -0.13791753 -0.023065226
000240 e0 a6 17 3e ec cd c1 3d d6 81 dd 3c e1 16 5b 3d
       0.14809752 0.094631046 0.02703945 0.053488616
000250 13 ec 8e bd e6 62 6b bd 46 80 ce 3c 9a 54 97 bd
       -0.06978621 -0.057467364 0.02520765 -0.07389183
000260 a2 87 4b bd 1c 27 81 3d fa b3 0b bd a4 49 bb 3d
       -0.049689896 0.06306288 -0.034107186 0.09144905
000270 29 10 94 bd b2 af 5d bd 17 b7 5f bc 24 08 a0 3d
       -0.07229645 -0.054122634 -0.013654492 0.07814053
000280 23 ab 14 3c 81 c6 78 3d 7a b0 5b bd 0b dd 02 3e
       0.009074005 0.060736183 -0.053635098 0.12779634
000290 67 bb 66 bd d3 d6 ed bd 52 db 02 3e 8c 11 33 bc
       -0.056331065 -0.1161324 0.12778977 -0.0109294765
0002a0 0e d2 e6 3b 0b 99 1f bc 46 4d d7 bc a2 06 ee 3c
       0.0070440834 -0.009741078 -0.026281964 0.029055897
0002b0 ab 63 3c 3e 28 e3 e6 bd 5c 70 37 bd f1 41 3a bd
       0.18397395 -0.11273795 -0.04478489 -0.045473043
0002c0 80 d8 9f 3d 7d 3b 8d bc 83 2e 94 3c cf 18 fd 3b
       0.07804966 -0.01724028 0.018088585 0.0077239047
0002d0 2f b3 d2 3d 9e eb 84 bd 5e c8 88 3d 49 cb ff 3c
       0.10288083 -0.06490253 0.06678842 0.031224864
0002e0 f8 fb 76 bb ea 78 13 be 35 13 29 bc 4b 08 b0 3d
       -0.0037686806 -0.14401594 -0.010319521 0.08595332
0002f0 fc 66 4e 3e 0f 5f 3b bd be da 70 bd 61 98 11 bd
       0.20156473 -0.04574495 -0.05880236 -0.03554571
000300 00 23 da 3d ce c6 e7 3d 54 ed 9c bd c6 ba 1a 3c
       0.10651207 0.11317216 -0.07662454 0.009443944
000310 d9 fa b7 3d cd ec 1d 3e cc 46 bb bd 86 93 0b be
       0.08983392 0.15422364 -0.09144363 -0.13630494
000320 16 86 ab bd 76 0c 8e 3d 76 a8 2d 3e 7e ae 8b bd
       -0.08375184 0.069359705 0.16958794 -0.06820391
000330 ca c1 80 bc 54 db 1b bd 49 6b e6 bc d4 ec ad bd
       -0.015717406 -0.038050964 -0.02812733 -0.08492437
000340 ff e5 20 3d 57 11 c8 3c 29 c6 8e bc b7 8d 65 bd
       0.03928184 0.02442233 -0.017428475 -0.056043353
000350 ea ce e2 3d 72 4e 54 bc 33 d0 cc 3d 73 5c bd bc
       0.11074622 -0.012958156 0.10000648 -0.023115372
000360 b8 9b 4b 3d 25 f3 8d 3d 05 9a 33 3e 49 d8 e0 bd
       0.04970905 0.06931142 0.17539223 -0.10978753
000370 9c 32 00 be 68 29 a9 bd d3 c4 7f 3d 54 56 e9 bd
       -0.12519306 -0.08259851 0.062443566 -0.11393419
000380 a0 0b 70 bd cb 90 01 3e a4 a2 1e bc 41 ff b0 bd
       -0.058604836 0.1265289 -0.009682331 -0.08642436
000390 26 0a 36 bd d1 8c db bd 0e 2c 5b be 44 9b 7e 3d
       -0.044443272 -0.10720218 -0.21403524 0.06215979
0003a0 0b 9b 43 3d b4 42 1b be 19 7f 86 3d b8 26 9d 3d
       0.047755282 -0.15162164 0.06567211 0.07673401
0003b0 08 07 58 3c 00 d2 7a bd ef 5c b6 3d 2e c3 95 3d
       0.01318527 -0.061235428 0.089044444 0.07312618
0003c0 64 e7 02 bd ef 55 32 bc 57 94 5b bd c2 ea 78 bd
       -0.031958953 -0.010884746 -0.053608265 -0.060770757
0003d0 f8 db 2e 3c 72 34 f1 bd 37 36 9c bd 31 41 63 bd
       0.010672562 -0.11777581 -0.07627528 -0.055482093
0003e0 20 3e 8d bd 08 cf b9 3c 79 3c 0a be 93 ef 89 3d
       -0.06896615 0.022681728 -0.13499631 0.06735148
0003f0 4e c2 e5 bd 0d 07 94 3d 9e 11 78 bd ed 66 07 3e
       -0.11218701 0.07227907 -0.060563676 0.13222857

fc.6.bias f4 [128]
000000 e9 dc 3f 3b 08 58 33 3d 64 7f cf bd ad 24 ef bd
       0.002927596 0.043785125 -0.1013172 -0.11676917
000010 a6 a6 35 bd 76 f0 f0 3d a9 7c aa bd cc a6 04 3d
       -0.04434838 0.11764614 -0.08324558 0.032385632
000020 f4 fa 94 3b 41 0a 19 3d 7c 43 45 3c a1 4a 25 3d
       0.0045465175 0.037363295 0.012040015 0.040354375
000030 9c 3e 9b bd 6a 85 41 bd 1d a6 63 bd f6 fc 92 3d
       -0.07580301 -0.047246374 -0.05557834 0.07177155
000040 2b 36 3b 3d 5c 07 9e bd 4e ec f0 bc 2f 5a 9a 3d
       0.045705955 -0.077162474 -0.029409554 0.075367324
000050 42 3f 2b 3d 29 d9 cf bb 21 a7 70 3d de 08 bd 3c
       0.041808374 -0.006343026 0.058753137 0.023075517
000060 9d 3b 5d 3d 26 6c 0d 3d 4e 23 ba bd 66 02 8f 3d
       0.05401193 0.034526967 -0.09088765 0.06982879
000070 6c 25 54 3d d5 77 e3 3d 48 10 1e 3d 3d d4 ce 3a
       0.0517935 0.111068405 0.038589746 0.0015779805
000080 32 f0 98 3d 39 66 ae 3d 78 85 a4 3c c8 11 0c 3d
       0.074676886 0.08515591 0.020083174 0.034196645
000090 fc 3a 0e 3d 0a ff 91 bd 26 c1 1e bc 63 a2 55 bc
       0.03472422 -0.07128723 -0.009689605 -0.013039204
0000a0 01 37 4c 3d 56 f1 ef 3d d0 bf d3 bd 99 40 bd 3c
       0.049857143 0.11715953 -0.1033932 0.023102092
0000b0 8d 57 04 be aa fb b1 bd 0b 7a da 3d 77 d5 ab 3d
       -0.12924023 -0.08690579 0.10667809 0.083903246
0000c0 63 d8 7f bc e4 1c b2 bc ed 28 e1 3c 36 64 ec 3d
       -0.015615555 -0.021742292 0.027485335 0.11542551
0000d0 ef 70 84 bd f0 0c 48 bd 19 b8 3a bc 20 25 86 3d
       -0.06466853 -0.048840463 -0.011396431 0.0655005
0000e0 b7 0c 37 3d 17 15 7d 3c 5d 92 c3 bd b2 fc 28 bd
       0.04468986 0.015446923 -0.09549401 -0.041256614
0000f0 4b d4 5a bc 11 9b 19 3c 29 22 cf 3b 3c 9f 6a 3d
       -0.013356279 0.00937535 0.006321211 0.057280764
000100 36 68 80 3d 21 18 9b bc 84 5b 7d bd 7b cc 0b 3d
       0.06269877 -0.018932404 -0.061854854 0.034130555
000110 4e 7c 45 3e 33 99 8f 3d b4 aa e1 3c 04 64 28 bd
       0.192857 0.07011642 0.027547218 -0.041111007
000120 f8 51 97 bd c6 2a de bc 0a bf 71 3d 84 65 9d bb
       -0.07388681 -0.027120005 0.05902008 -0.0048033614
000130 8d 6c 02 be 32 8c 8a bc 30 71 80 bd 72 df ed 3d
       -0.12736721 -0.016912553 -0.06271589 0.116148844
000140 88 b6 60 3d d4 63 7d 3b 63 87 e4 bc 4f 42 f9 3d
       0.054861575 0.0038664239 -0.027896589 0.121708505
000150 69 32 7d 3c 3f 20 45 bc 19 41 65 bd 68 b5 ab 3d
       0.015453913 -0.012031614 -0.055970285 0.0838421
000160 bd a5 07 be 10 d8 b6 bc 34 b7 4a 3d 9a 00 fd bc
       -0.13246818 -0.022319824 0.049491122 -0.030884076
000170 27 c6 8d bd 5d 02 eb bc 8f 78 02 3d 88 b5 91 3d
       -0.0692256 -0.02868765 0.031853255 0.071147025
000180 8b 8e 85 bd 9b 45 58 3d 95 e3 cf bd 7b 01 a7 3c
       -0.065213285 0.052800756 -0.1015083 0.020386448
000190 97 6a 78 bd 57 98 ca bc 17 f1 00 3d a5 e6 13 3e
       -0.060648527 -0.024730844 0.03147992 0.14443453
0001a0 a1 6c ff 3d 4b 35 97 3c f1 e3 a7 bd 70 9d 02 3e
       0.12471891 0.01845803 -0.08197773 0.1275537
0001b0 4c c2 62 3c d9 ae 9f bd 4e a9 e5 3c 54 33 5e 3d
       0.013840269 -0.077970214 0.028034832 0.05424817
0001c0 c2 c0 2d 3c e2 cf ac 3d 86 a8 be bd 8b 09 d3 3d
       0.010605039 0.08438088 -0.09309487 0.103045546
0001d0 91 d3 53 bc 46 8e 23 bd 62 f4 e8 3d cc de 06 3e
       -0.012928859 -0.039930604 0.11374737 0.13170928
0001e0 1d 2c 74 3d 94 32 9e bc 23 c9 01 3d 77 89 31 3d
       0.059612382 -0.019311227 0.03168596 0.043343987
0001f0 f8 39 fe 3b ac 88 a9 3d 51 a6 39 bd 92 0d 82 bd
       0.0077583753 0.08278021 -0.045324627 -0.063502446

fc.8.weight f4 [4, 128]
000000 bd 07 14 3e d3 5e b1 bd 0f 5a 48 bd 9f 3e 78 3d
       0.14456077 -0.086606644 -0.04891401 0.060606595
000010 c1 ab 3c be aa e6 36 be 28 34 2c be 10 40 a6 3c
       -0.18424894 -0.17861429 -0.16816771 0.02029422
000020 c6 f6 51 bb 2b 06 90 be ec 6d 53 3c be 60 89 bb
       -0.0032037958 -0.28129706 0.012904625 -0.004192441
000030 47 f9 bc bc 0b d8 ce bd 5b fa 79 be ce 99 8e bd
       -0.023068083 -0.10099801 -0.2441191 -0.0696293
000040 8e af c0 3d 5a 3f 43 bd 49 d7 6d be f8 ad 8e bd
       0.094084844 -0.04766784 -0.23226656 -0.06966776
000050 af f4 d9 3d a2 87 4c 3e 20 be 9e 3d 08 f0 0f 3c
       0.10642373 0.19973615 0.07751107 0.008785255
000060 44 17 c2 3d 3f 6f 1b 3e d4 a4 71 be ee 23 ab 3d
       0.09477094 0.15179156 -0.23598033 0.083564624
000070 e4 5e d5 3d 45 ff 02 be 4e b8 2a be 13 ff e2 bc
       0.104184896 -0.1279269 -0.16671869 -0.02770952
000080 ba c2 a2 bd d0 e3 80 3a 5f 76 ad be 5a c2 0b 3e
       -0.079472974 0.0009833518 -0.33879372 0.13648358
000090 cb 58 73 3d 96 e0 92 bc ea 5f 2e bd 71 78 c3 3d
       0.05941085 -0.017929357 -0.04257194 0.09544457
0000a0 12 e9 d0 bd 42 ed 18 3d 0f 48 64 bd 23 b8 f6 bd
       -0.10200705 0.03733564 -0.055732783 -0.1204684
0000b0 69 0d 50 bd 17 ae 78 bd 3b c9 82 3c 55 ff 3a 3d
       -0.05079404 -0.0607129 0.015965095 0.04565366
0000c0 2c 3d 72 3d 75 bf 9d 3d ee 2c fb 3d 32 ed b9 be
       0.05914037 0.07702533 0.12264429 -0.36313778
0000d0 6b f4 62 3d bc fd a1 bb d8 2a 0e bc f5 56 1d be
       0.055408876 -0.0049435776 -0.008677207 -0.15365203
0000e0 0f 1a f6 3d e7 36 ae 3b 41 f8 c6 bd 8f 23 af 3d
       0.12016689 0.0053166035 -0.097153194 0.08551704
0000f0 52 8a 48 3d cf aa 12 be ed 65 d1 3d 62 46 e5 bd
       0.048960038 -0.14322971 0.10224519 -0.11195065
000100 c7 0f 82 3c 95 e8 ac bc 8b fd 4c 3d ca ac 16 3d
       0.015876664 -0.021106998 0.050046485 0.03678588
000110 54 1d 11 be 22 82 9f bd e1 6f 9b 3d c4 19 37 be
       -0.14171344 -0.07788493 0.075896986 -0.17880923
000120 90 11 92 3d 8a c4 09 bd c8 13 f9 3b 01 49 bf 3c
       0.07132256 -0.0336347 0.007601235 0.02335024
000130 51 d2 e8 bd 41 ac 2e 3d 4f c3 3a bd 85 1c 33 3d
       -0.1136824 0.042644743 -0.045596417 0.04372837
000140 59 65 a0 3d 2f 96 a8 3d cd e8 04 3c 57 bf 31 be
       0.078318305 0.0823177 0.008112145 -0.17358147
000150 77 e0 60 3d 17 af 9a 3d c5 f1 11 be ed 58 13 3d
       0.054901566 0.07552927 -0.14252384 0.035973478
000160 22 e9 d6 bd d5 0a 24 3d 0e 62 3d be 4e 63 97 3d
       -0.10493685 0.040049393 -0.18494436 0.07391988
000170 90 6d 97 bd a7 f3 84 3d 01 42 ba 3d f7 71 30 3e
       -0.07393944 0.064917855 0.090946205 0.17230974
000180 66 b7 69 3c 35 22 13 be 39 31 dd 3c 8d a8 5e be
       0.014264917 -0.14368518 0.02700101 -0.21743985
000190 43 50 85 3d 11 39 87 bd 4e 59 3b be 54 49 2e 3c
       0.06509449 -0.066026814 -0.18295786 0.0106376
0001a0 ae cb b7 3d da d9 49 3c 5e d0 08 3e 12 49 4b be
       0.08974396 0.012320006 0.13360736 -0.19852093
0001b0 bc a9 91 3b 5e 17 32 be 0a 80 f7 3d b7 71 b7 bc
       0.0044452827 -0.17391726 0.120849684 -0.02239309
0001c0 b4 8d 37 3d c4 c0 df bd 1e 73 97 3d 2c 24 96 bd
       0.044812873 -0.10925439 0.07395004 -0.07331118
0001d0 ad 1e 4b 3a 55 50 99 3c 1d 4a 29 3d 6a 8c 94 3d
       0.00077484065 0.018715063 0.041330446 0.07253344
0001e0 92 8c 03 3e 6b 37 d4 bd c4 e0 87 be 08 e1 3b be
       0.12846592 -0.10362133 -0.2653867 -0.18347561
0001f0 e7 25 79 be 60 f1 8a bd 09 6d f3 3d 4e 42 8f 3d
       -0.24330865 -0.0678432 0.11886031 0.069950685
000200 8d 8e 80 3c 9b 61 7a 3d da ff ee bc 09 fb 46 3d
       0.015692974 0.06112824 -0.029174734 0.04857925
000210 63 ec 93 3d 1c 75 35 3c 53 28 ad 3d fa 78 1a 3e
       0.072228216 0.011075284 0.08454957 0.15085211
000220 b5 64 16 bd 44 29 9d 3d aa 41 40 bd e8 95 c1 3c
       -0.036717135 0.076738864 -0.046937622 0.023631051
000230 6a c4 ec 3d 04 3f 4e 3d 2b 80 a6 3d dd 41 08 3e
       0.115609005 0.050353065 0.08129915 0.13306375
000240 b1 cf f3 bd ee 11 06 3e 8e 09 40 3d 89 61 f7 3c
       -0.11904848 0.13092777 0.046884112 0.030197876
000250 79 2c 12 3d de 08 58 bc f8 a1 2a bd c4 79 b3 3b
       0.035686944 -0.013185708 -0.04165837 0.005477162
000260 89 52 c4 bd 08 65 db bd 06 1a 6a 3d 46 2a 5d bd
       -0.09586055 -0.107126296 0.057153724 -0.053995393
000270 3b a8 f0 bc b4 11 3b bd 18 7e 0c bc 89 2b e7 bd
       -0.029377094 -0.04567118 -0.008574985 -0.112876005
000280 aa b5 ba bd 2b 0d 2e be 60 7e be 3d 99 f6 0c be
       -0.09116681 -0.1699721 0.09301448 -0.13765945
000290 0f c0 18 be 49 45 c5 bd 18 a7 89 bc cf 21 43 be
       -0.14917015 -0.09632356 -0.01680331 -0.19055866
0002a0 bb f6 8e 3b 9a 40 67 bd 81 16 53 bc 54 b9 61 3d
       0.0043629087 -0.056458093 -0.012883783 0.055108383
0002b0 45 b8 3f bb 62 a2 15 3d 19 63 14 be 8d 96 09 3e
       -0.002925412 0.036531813 -0.14490928 0.13436337
0002c0 79 6b 00 be 46 f2 5f bd cd 14 9a bd 67 61 24 bd
       -0.12540998 -0.05467441 -0.07523499 -0.040131953
0002d0 91 77 17 be 7b 34 ab bd c5 9c 33 3d d7 85 b3 bd
       -0.14791705 -0.08359619 0.04385068 -0.08765762
0002e0 83 d2 b8 bd 4c df fd bd a6 0c 35 bc b1 f7 30 be
       -0.09024527 -0.12396106 -0.011050379 -0.17281987
0002f0 29 0e 90 3d c5 02 2c 3c 5b e6 6b bd ee b9 a7 bd
       0.07033951 0.010498707 -0.05759273 -0.0818976
000300 64 eb 08 be c4 de aa 3c 0c 58 0b 3d 83 28 48 bd
       -0.13371044 0.020858176 0.034019515 -0.04886676
000310 a3 44 61 3d 0b 62 7b bc 42 39 1e be b1 fd 12 3d
       0.054997098 -0.0153431995 -0.1545153 0.03588647
000320 3f 5b ae 3d 16 d1 bf 3d b7 87 95 3d 38 1b 4a bd
       0.085134976 0.09366052 0.07301276 -0.049342364
000330 00 16 fb 3d 62 69 2c bd 6d 26 a2 bc 95 75 8e be
       0.122600555 -0.04209269 -0.019793713 -0.27824083
000340 60 34 74 3d 29 5c d6 bb 15 c2 e5 3d 96 29 45 3d
       0.05962026 -0.006541748 0.11218659 0.048135363
000350 79 60 ba 3d 87 a1 93 3d e2 1c 85 3d 0e 37 9f 3c
       0.09100432 0.07208543 0.064996496 0.019435432
000360 46 e1 d3 3d b4 31 19 be af d9 64 3e 3e 20 1b be
       0.10345702 -0.14960366 0.22348665 -0.15149018
000370 02 b5 fc 3d e9 6c 0e bd 9a 4e b3 bc 3d b7 3b be
       0.12339212 -0.034771834 -0.021888066 -0.18331619
000380 0f 8f 75 bd c2 a8 ab 3d 82 11 82 bd 8f 43 b4 3d
       -0.059950884 0.083817974 -0.063509956 0.08801948
000390 8a 81 18 3e 0d 92 de bd 32 d9 0d 3e 51 4f 28 be
       0.14893165 -0.10867701 0.13852385 -0.16436507
0003a0 5f fb f3 3d 74 9f d3 bd 56 5e d2 bd 02 98 de 3b
       0.119131796 -0.10333148 -0.102718994 0.006793023
0003b0 e0 eb b0 bc 51 77 1f 3e f9 df 04 3e 6e 68 28 3e
       -0.021596849 0.1557286 0.12976064 0.16446087
0003c0 22 02 43 be bc 3a 3e 3d ac 0b 00 be 6d 12 bd 3d
       -0.19043782 0.046442732 -0.12504452 0.0923203
0003d0 f4 3c 6e be 0b 53 33 3d f4 4e 52 3d ba a2 30 be
       -0.2326544 0.043780368 0.051344827 -0.17249575
0003e0 65 b9 af bd 26 b9 02 be a8 14 2b be da 42 88 3d
       -0.08580283 -0.12765941 -0.16707098 0.06653376
0003f0 d2 63 8d bd 5f fe 83 3c 22 76 06 3d 73 c0 00 be
       -0.06903805 0.016112505 0.032827504 -0.12573414

fc.8.bias f4 [4]
000000 44 00 a0 bc 8d 96 ea bc a5 48 66 3c b9 0b 11 3d
       -0.019531377 -0.028636241 0.014055406 0.03541157
