model/lv1_bc_model_6.0.pth (torch, 46572 bytes, 8 tensors)

fc.0.weight f4 [64, 34]
0	0xbe21b718	-0.15792501
1	0xbd282d43	-0.04105879
2	0xbe0e9851	-0.13925292
3	0x3dafbc60	0.085808516
4	0xbdbcd1ed	-0.09219728
5	0x3dbac3db	0.09119388
6	0x3d2479bb	0.040155154
7	0xbdbe1ab3	-0.09282436
8	0xbd1ca197	-0.03824004
9	0x3dc23b79	0.09484
10	0xbddbe789	-0.10737521
11	0xbe0484e3	-0.12941317
12	0xbd3af4a5	-0.045643467
13	0xbd55173c	-0.05202411
14	0x3dd8b843	0.1058202
15	0xbd5a576b	-0.053306025
16	0x3def1bd2	0.11675228
17	0xbcae0a0c	-0.021245025
18	0xbd5e4119	-0.0542613
19	0x3dad98aa	0.08476384
20	0xbe15d53a	-0.1463212
21	0x3dec99f4	0.11552802
22	0xbd1b9070	-0.037979543
23	0x3d078d0b	0.033093493
24	0xbdf11a12	-0.11772551
25	0xbda4ee91	-0.080533154
26	0xbd802871	-0.062577136
27	0xbd49ab97	-0.049235906
28	0x3c8af957	0.016964598
29	0x3c283acf	0.010267927
30	0x3ded87f1	0.115981944
31	0xbd72da98	-0.0592905
32	0xbe009b45	-0.1255923
33	0xbce59953	-0.028027212
34	0x3d355445	0.04426982
35	0xbc88b81e	-0.016689356
36	0xbe737b5d	-0.23777528
37	0xbe8ec845	-0.2788717
38	0x3e82c812	0.25543267
39	0x3cf50f4f	0.029914526
40	0x3df9e480	0.12201786
41	0xbbeae526	-0.00716843
42	0xbc939c69	-0.018018918
43	0x3dac4713	0.08411994
44	0xbe0d6504	-0.13808066
45	0x3e90b3ae	0.28262085
46	0x3e328b55	0.17435963
47	0xbd94aca7	-0.07259493
48	0x3e312d7c	0.17302507
49	0xbd8bad27	-0.068201356
50	0x3e8cfb96	0.27535695
51	0xbed30bb5	-0.4121987
52	0xbeba69d4	-0.36408865
53	0x3c369a75	0.011145224
54	0xbb3c2852	-0.0028710556
55	0x3e03544b	0.12825124
56	0x3e2dfdab	0.16991298
57	0x3de03d6f	0.109492175
58	0xbe78ceb8	-0.24297607
59	0xbdc5cb06	-0.09657864
60	0x3c810c4f	0.01575294
61	0xbe223459	-0.15840282
62	0x3d15a409	0.03653339
63	0x3e6f0773	0.23342685
64	0xbcf562d8	-0.029954359
65	0x3ed8f0eb	0.42371306
66	0x3e0a6968	0.13516772
67	0x3e94dc31	0.29074243
68	0xbd9c94ee	-0.076455936
69	0xbc4d12f4	-0.012516726
70	0x3de24bf2	0.11049642
71	0x3db07168	0.086153805
72	0xbe2d1b3a	-0.16904917
73	0xbd68951f	-0.056782838
74	0x3d990c5f	0.07473063
75	0xbcd3266c	-0.025775157
76	0xbe1a0cee	-0.15043995
77	0xbe01d4a8	-0.12678778
78	0x3de594c2	0.11210014
79	0xbd3b46e2	-0.045721896
80	0x3da5fd36	0.08104937
81	0xbd55f91f	-0.052239534
82	0xbdfe54b0	-0.124184966
83	0x3d516c26	0.05112853
84	0xbd3572ee	-0.04429906
85	0xbd091032	-0.03346271
86	0xbdef4ccc	-0.1168457
87	0x3e170971	0.14749695
88	0xbe2cd727	-0.16878949
89	0xbd257c14	-0.040401533
90	0xbceb9675	-0.028758267
91	0x3d8ebda8	0.06969768
92	0x3ddba527	0.1072486
93	0xbd28cace	-0.041209035
94	0xbdc38753	-0.095472954
95	0x3da10b0c	0.07863435
96	0x3cfbfc05	0.03075982
97	0x3cd9156e	0.026499476
98	0x3d8df1c3	0.06930878
99	0xbd8cdfd1	-0.06878627
100	0xbe02b5c8	-0.12764657
101	0xbc8ee094	-0.017441072
102	0x3dae03d2	0.084968224
103	0x3df0c37c	0.11756036
104	0x3d1859e1	0.03719509
105	0x3e6806b9	0.22658814
106	0x3d575ba3	0.052577626
107	0xbd3ae929	-0.045632515
108	0x3da48eb8	0.08035034
109	0xbda54607	-0.08069997
110	0x3d8bf39f	0.068335764
111	0xbe358427	-0.17726193
112	0xbe2a4d2c	-0.16631001
113	0xbcfed08a	-0.031105299
114	0xbe221d2a	-0.15831438
115	0xbe247836	-0.16061482
116	0xbda0ab30	-0.078451514
117	0xbe20aaa3	-0.15690093
118	0x3e165a7b	0.14682953
119	0xbe120a2e	-0.14261696
120	0xbefe310c	-0.49646795
121	0xbebace89	-0.364857
122	0x3e0cb374	0.13740331
123	0xbe4fe5e4	-0.2030254
124	0xbe230662	-0.15920404
125	0xbde5f73a	-0.11228795
126	0x3dab8923	0.08375766
127	0x3dac7ddd	0.08422444
128	0x3eac09f0	0.33601332
129	0x3de59641	0.11210299
130	0x3d2d793f	0.042351957
131	0x3d109773	0.035300683
132	0x3e462192	0.19348744
133	0xbea1e226	-0.3161785
134	0xbe056aa8	-0.13028967
135	0xbe273d5e	-0.16332003
136	0x3e24e850	0.16104245
137	0xbe5c91d7	-0.21540008
138	0xbe324239	-0.17408074
139	0xbe202b20	-0.15641451
140	0x3c16df51	0.009208516
141	0xbe5c3b32	-0.21506956
142	0xbdf4c2f7	-0.11951249
143	0x3db55808	0.08854681
144	0xbdc6c0d8	-0.09704751
145	0xbe6f695e	-0.23380038
146	0x3d6a3321	0.057177667
147	0x3daf56b8	0.08561462
148	0x3eaabee1	0.33348754
149	0xbdc2f582	-0.09519483
150	0x3e897c1b	0.26852497
151	0xbdc8e833	-0.098099135
152	0x3e672ef6	0.22576508
153	0x3d5a4e9e	0.05329763
154	0x3e0bc73a	0.13650218
155	0xbe46dc79	-0.19420041
156	0xbe0cd492	-0.13752964
157	0xbdd83960	-0.105578184
158	0xbb48b37a	-0.0030624554
159	0xbdb1b338	-0.086767614
160	0xbed33e82	-0.41258627
161	0x3d804590	0.06263268
162	0x3d270a26	0.040781163
163	0x3db7e9fa	0.08980174
164	0xbd2c4fac	-0.04206817
165	0xbd7a80a4	-0.061157838
166	0x3e17ace8	0.14812052
167	0x3d63ae8b	0.05558638
168	0x3e9754ab	0.29556784
169	0xbe245f82	-0.16052058
170	0x3c6a3348	0.014294453
171	0xbe2b7c0f	-0.16746543
172	0x3e5030e1	0.20331146
173	0x3d8ce0fa	0.068788484
174	0x3e63f097	0.22259746
175	0xbdf7ff1f	-0.12109207
176	0xbe65f730	-0.22457576
177	0x3e1a2c94	0.15056068
178	0xbd2ba51a	-0.0419055
179	0x3dac8ffa	0.08425899
180	0xbea48c35	-0.3213822
181	0xbe210a4b	-0.15726583
182	0xbd4d2b15	-0.050089914
183	0x3de38cbb	0.111108266
184	0x3d9e4136	0.07727282
185	0x3d849d16	0.06475274
186	0x3ea151d1	0.31507733
187	0xbe6ccba3	-0.23124556
188	0xbdbf584b	-0.093430124
189	0xbe2233ef	-0.15840124
190	0xbb90514c	-0.0044042226
191	0x3dd7d19e	0.10538028
192	0xbeb6e344	-0.35720265
193	0x3de37fec	0.111083835
194	0xbd82e179	-0.06390662
195	0xbe850718	-0.25981975
196	0x3d6e9467	0.058246996
197	0xbae0720d	-0.0017123834
198	0xbe176478	-0.1478442
199	0x3e29cc2a	0.16581789
200	0x3d0c52d2	0.03425867
201	0x3da3d7b8	0.080001295
202	0x3e7ea590	0.24867845
203	0xbafdfc46	-0.0019377552
204	0xbe02b321	-0.12763645
205	0xbd392243	-0.04519869
206	0x3d351590	0.044210017
207	0x3e355e3c	0.17711729
208	0xbf0842ff	-0.5322723
209	0xbd334def	-0.043775495
210	0x3db399f9	0.08769602
211	0x3de50f78	0.11184591
212	0xbc9c4951	-0.019077929
213	0xbe7a66cb	-0.24453275
214	0xbe80d719	-0.25164106
215	0xbda8196e	-0.08207975
216	0x3e1fcd79	0.15605725
217	0xbd94896f	-0.07252776
218	0x3ef4b3a4	0.47793305
219	0x3e64c665	0.22341307
220	0xbd0c2224	-0.034212247
221	0xbbd1a9e1	-0.006398425
222	0xbf0a2c89	-0.53974205
223	0xbf1902b2	-0.5976974
224	0xbef81206	-0.4845125
225	0x3c365696	0.011129042
226	0xbe007b81	-0.12547113
227	0x3ec33f63	0.38134298
228	0xbe87ad94	-0.26499617
229	0xbec63078	-0.38708854
230	0xbe06de9d	-0.13170858
231	0xbe893954	-0.2680155
232	0x3f04da1f	0.51895326
233	0xbe64c989	-0.22342505
234	0xbedf49d3	-0.4361101
235	0x3d75a57c	0.05997227
236	0x3db75689	0.08952052
237	0x3e905d75	0.28196302
238	0xbdb2ddb6	-0.08733694
239	0x3d3fbd76	0.046811543
240	0xbca0616f	-0.01957771
241	0xbd90d412	-0.07071699
242	0xbe0929dd	-0.13394876
243	0x3da17ab3	0.07884731
244	0x3d3f615e	0.046723716
245	0x3cc2ccf6	0.023779374
246	0xbd2cff37	-0.04223558
247	0x3ce1feb8	0.02758728
248	0xbdee5663	-0.11637571
249	0x3ca8da11	0.020611795
250	0xbdbd3962	-0.092394605
251	0x3c2ee8f8	0.010675661
252	0xbe9263cd	-0.28591767
253	0xbea8ee70	-0.32994413
254	0xbf0df15d	-0.55446416
255	0x3e036f45	0.12835415

fc.0.bias f4 [64]
0	0x3d15ebe7	0.036601927
1	0xbe3277b8	-0.17428482
2	0x3de34a2e	0.11098133
3	0x3d6312ea	0.05543796
4	0x3cba9c08	0.02277948
5	0xbd1481fd	-0.03625678
6	0xbcd5090a	-0.026005287
7	0x3e1e6861	0.15469505
8	0xbd3c5d12	-0.045987196
9	0x3ddac574	0.106821924
10	0x3da223fe	0.07917021
11	0x3e64e48d	0.2235281
12	0xbe1991d0	-0.1499703
13	0xbe1489d1	-0.14505698
14	0xbe1bed96	-0.1522735
15	0x3e110845	0.14163311
16	0x3cb5c221	0.022187294
17	0x3e2c4e33	0.16826706
18	0xbde47c67	-0.1115654
19	0xbcaab7c4	-0.02083958
20	0x3ddee3ba	0.10883279
21	0xbd235083	-0.039871704
22	0x3d9e83f8	0.07740015
23	0x3e22c313	0.15894727
24	0xbe2b419a	-0.16724244
25	0xbe2be559	-0.16786708
26	0xbe0d942e	-0.13826057
27	0xbe079436	-0.13240132
28	0xbe366044	-0.1781016
29	0x3cfb712b	0.030693611
30	0x3d9d95f4	0.07694617
31	0x3de6ff7c	0.112791985
32	0xbe393ea3	-0.180903
33	0x3dbe61ae	0.09295975
34	0xbcdb901e	-0.026802119
35	0x3d776b3e	0.06040501
36	0xbc5ae618	-0.013360523
37	0xbceefdaa	-0.02917369
38	0xbe43438e	-0.19068739
39	0x3d96e73c	0.07368323
40	0x3e2c4acf	0.16825412
41	0x3c8b39e8	0.016995385
42	0xbdb91264	-0.09036711
43	0x3e08ceee	0.13360187
44	0x3e096a4d	0.13419457
45	0x3cec8db5	0.028876165
46	0x3e18fa75	0.14939292
47	0x3d55d45b	0.05220447
48	0xbe3886cd	-0.18020172
49	0xbdad6910	-0.08467305
50	0xbd99edc5	-0.07516054
51	0x3d3e4274	0.046450093
52	0x3de3c4c8	0.111215174
53	0xbc9ff2dc	-0.019524984
54	0xbd6b8d58	-0.057507843
55	0xbe22524c	-0.15851706
56	0x3c3dafdc	0.011577573
57	0x3d9fadd0	0.07796824
58	0x3d05e478	0.032688588
59	0xbd88e4e8	-0.066842854
60	0xbdde2505	-0.10846905
61	0x3def7f43	0.11694195
62	0x3d553c01	0.052059177
63	0x3df231ab	0.1182588

fc.2.weight f4 [64, 64]
0	0x3d63aa08	0.055582076
1	0x3e37c0a1	0.17944576
2	0x3debfb80	0.11522579
3	0xbe24d17f	-0.16095541
4	0xbec5072f	-0.38482043
5	0xbe8fdd1d	-0.28098384
6	0x3c0f50b6	0.00874727
7	0x3ee1ae0c	0.440781
8	0xbe8c75b0	-0.27433538
9	0x3d0a40f9	0.03375337
10	0xbc3e832c	-0.0116279535
11	0x3de8d0bd	0.11367939
12	0xbed61174	-0.4181019
13	0x3da24510	0.07923329
14	0x3ebac6b9	0.36479738
15	0x3d14b300	0.03630352
16	0x3d0df522	0.034657605
17	0x3da3b52a	0.07993539
18	0x3c914866	0.017734718
19	0x3dc8c9fa	0.09804149
20	0xbdf19604	-0.11796191
21	0x3e41b4f7	0.18916689
22	0x3c81669e	0.015796002
23	0xbe2b61f2	-0.16736582
24	0xbabc7a5d	-0.0014379729
25	0xbdd823e7	-0.10553723
26	0x3e3e83e6	0.18605003
27	0x3e911d37	0.28342602
28	0x3ddae6a7	0.10688525
29	0x3befd8d5	0.0073195496
30	0xbdfe3cb9	-0.12413926
31	0x3dde216a	0.10846217
32	0xbe7b41b3	-0.24536781
33	0x3db2deb2	0.08733882
34	0xbe781302	-0.24226001
35	0xbc8cc14f	-0.01718202
36	0x3e3b3acb	0.18284146
37	0x3e02b647	0.12764846
38	0x3ea7c4a3	0.3276721
39	0x3d2bfbe3	0.041988265
40	0xbd9fd278	-0.078038156
41	0xbd523876	-0.051323377
42	0xbb304314	-0.002689545
43	0x3d4e8f8b	0.050429862
44	0x3e12520f	0.14289115
45	0x3e066b44	0.13126856
46	0xbe2b18a0	-0.16708612
47	0xbc1b69c3	-0.009485665
48	0x3e3f752d	0.18697043
49	0x3d9ee521	0.077585466
50	0xbd707bfa	-0.058711983
51	0xbcc52f64	-0.02407045
52	0x3e859096	0.26086873
53	0x3cb7201e	0.022354182
54	0xbdcf198e	-0.10112296
55	0x3ceb7665	0.028742978
56	0xbd5e6924	-0.05429949
57	0x3dfd8993	0.12379756
58	0xbddedb00	-0.10881615
59	0x3d4ef0e9	0.05052272
60	0xbe7a636b	-0.24451987
61	0xbd4e9997	-0.050439443
62	0xbda1f0f1	-0.07907284
63	0x3ddfc461	0.10926128
64	0xbd1ece58	-0.038771003
65	0xbe8183a1	-0.25295737
66	0xbccf7b70	-0.025327414
67	0x3d74e385	0.059787292
68	0xbe724bb1	-0.23661686
69	0x3e4fa3bc	0.20277303
70	0xbd6c6bbd	-0.057719935
71	0xbe99fdfa	-0.3007658
72	0xbdbec593	-0.09315028
73	0xbd0e06f7	-0.03467461
74	0x3da2b73e	0.07945107
75	0xbdc2730b	-0.09494599
76	0xbde7e56e	-0.11323057
77	0x3c78105a	0.015140617
78	0x3e56824e	0.20948145
79	0xbe19e8ba	-0.15030184
80	0xbc931967	-0.017956449
81	0x3e344510	0.1760447
82	0xbe91314c	-0.28357923
83	0x3d7aa3b5	0.06119128
84	0xbde743b8	-0.11292213
85	0xbe8dda0b	-0.27705416
86	0x3d21f0b8	0.039536208
87	0xbe72231d	-0.23646207
88	0xbdf0e9f6	-0.117633745
89	0xbd2ad1e5	-0.041704077
90	0xbf2e85b6	-0.68172777
91	0xbe72f05b	-0.23724501
92	0xbdbbefb8	-0.09176582
93	0x3e8a1aa5	0.26973453
94	0xbed5fb4a	-0.4179328
95	0xbc3d7f9a	-0.011566067
96	0x3ca6a723	0.020343369
97	0x3df3fd94	0.119136006
98	0xbdf70b44	-0.120626956
99	0xbd6d3f6d	-0.057921816
100	0xbe56db16	-0.20982012
101	0x3e00cfe4	0.12579304
102	0xbe164b5f	-0.1467719
103	0x3d89a89b	0.06721612
104	0x3d9c3b94	0.07628551
105	0xbe511636	-0.20418629
106	0x3ea77c2c	0.32711923
107	0x3d2c6cec	0.042096063
108	0xbdbf6b23	-0.093466066
109	0xbe9a0fe3	-0.30090246
110	0x3e63a81b	0.22232096
111	0xbc422a86	-0.011850959
112	0xbe9834a8	-0.29727674
113	0x3e7812df	0.24225949
114	0xbcc484bc	-0.023989074
115	0xbeda78cc	-0.42670286
116	0xbf5892df	-0.8459911
117	0xbe8a9a7b	-0.27070984
118	0xbd00d1d8	-0.031450123
119	0xbd52df87	-0.051482704
120	0xbe167fc6	-0.14697179
121	0x3b70b6f4	0.0036730142
122	0xbf1926eb	-0.5982501
123	0x3ec109fe	0.37702936
124	0xbe69df60	-0.22839117
125	0x3e2c933d	0.16853042
126	0x3e40b065	0.18817289
127	0x3e09eca4	0.13469177
128	0x3d206c48	0.039165765
129	0xbcb63e46	-0.022246491
130	0xbd5097a7	-0.050925877
131	0xbe351679	-0.17684354
132	0xbeccafe3	-0.3997794
133	0x3e616d31	0.2201431
134	0x3c6df972	0.014524804
135	0x3eb64af6	0.35604066
136	0xbd8f7c6d	-0.07006154
137	0x3e5a4665	0.21315916
138	0xbe12da13	-0.14341001
139	0x3e1fedad	0.1561801
140	0xbecf27ae	-0.4045996
141	0x3d1cfc4b	0.038326543
142	0x3e8a011e	0.26953977
143	0x3e1c2a7c	0.15250582
144	0x3d846451	0.06464446
145	0x3e77a90d	0.24185582
146	0xbe4ad290	-0.19806886
147	0x3e86e5a1	0.26347068
148	0x3e2a1c04	0.1661225
149	0xbd0d6eea	-0.034529604
150	0x3e0bf284	0.13666731
151	0x3cf9af1c	0.030479006
152	0xbcdb2b39	-0.026754009
153	0x3ce27d9c	0.027647786
154	0x3e93f8b8	0.28900695
155	0x3dc7c3b2	0.09754123
156	0x3dbde50c	0.09272203
157	0xbe146c19	-0.14494361
158	0xbdec89a7	-0.115496926
159	0x3e2c7711	0.16842295
160	0xbe21334a	-0.15742221
161	0x3d2c2f7c	0.042037472
162	0xbdc498fa	-0.095994905
163	0x3d293b67	0.041316416
164	0x3cc3644e	0.02385154
165	0xbd7d0fec	-0.061782762
166	0x3eacd7bf	0.3375835
167	0xbe0c24af	-0.13685869
168	0x3d85ba38	0.06529659
169	0x3c63139a	0.013859654
170	0xbf17df1a	-0.593248
171	0xbcf54191	-0.029938491
172	0x3cded9d0	0.02720347
173	0x3d5043f2	0.050846048
174	0xbe5a76f8	-0.21334445
175	0x3da28cfe	0.079370484
176	0x3dbf6135	0.09344713
177	0x3e88c2dd	0.2671117
178	0xbe6f586b	-0.23373573
179	0x3dfa796d	0.122301914
180	0xbe7a2eaa	-0.24431863
181	0xbbbf1e19	-0.0058324453
182	0xbdfca3b6	-0.12335913
183	0xbd467e70	-0.048460424
184	0xbd9c197c	-0.07622048
185	0xbc4cbd9c	-0.012496378
186	0xbe4a3e8d	-0.19750424
187	0xbd2d0e72	-0.042250104
188	0xbe8872ef	-0.26650187
189	0x3d9fb072	0.07797326
190	0x3cb25f63	0.021774
191	0x3daac261	0.08337856
192	0xbdfcb54e	-0.123392686
193	0xbd33d536	-0.043904506
194	0x3db11d1e	0.08648132
195	0x3dfc5adb	0.12322017
196	0x3f1cb18d	0.6120842
197	0xbdfc5a66	-0.1232193
198	0x3e8fbffb	0.28076157
199	0x3e31a64a	0.1734859
200	0x3d709790	0.05873829
201	0xbccb677f	-0.024829624
202	0x3cabbcf1	0.020964118
203	0x3f6a31d4	0.9148228
204	0xbba9020d	-0.005157715
205	0x3ddaa04c	0.106751055
206	0x3e6abb86	0.22923097
207	0xbcd0124f	-0.025399355
208	0x3dbdf841	0.09275866
209	0x3d8f13ed	0.069862224
210	0x3d908cc4	0.07058099
211	0x3d08b70d	0.033377696
212	0xbe88b13f	-0.26697728
213	0x3db1d8ab	0.08683904
214	0xbe322155	-0.17395528
215	0xbc580bf8	-0.013186447
216	0xbd8010a7	-0.06253176
217	0xbc82b1d0	-0.015953928
218	0x3f882beb	1.0638403
219	0x3e5d9c6e	0.21641704
220	0xbd55f950	-0.052239716
221	0x3e983aec	0.29732454
222	0xbc9303e1	-0.017946186
223	0x3ddd3d6e	0.108027324
224	0x3d4bf90e	0.049798064
225	0x3d317e10	0.043333113
226	0xbd8f1cbc	-0.069879025
227	0x3de9319d	0.11386416
228	0xbce1e7aa	-0.027576286
229	0xbe0bba8e	-0.13645384
230	0x3e5247a5	0.20535143
231	0xbc50bc09	-0.012740144
232	0x3da25de8	0.079280674
233	0x3e1823f0	0.14857459
234	0x3d939b7e	0.07207392
235	0x3dbc086d	0.091812946
236	0xbdf0f74d	-0.11765919
237	0xbd356870	-0.044289052
238	0xbe715362	-0.23566964
239	0xbcdcbbd3	-0.02694503
240	0x3dbf18b4	0.093308836
241	0xbe7ff703	-0.24996571
242	0x3ea5e457	0.32400772
243	0xbd999412	-0.07498945
244	0x3d88f471	0.066872485
245	0x3dfe8ad7	0.12428825
246	0xbdca657a	-0.09882636
247	0xbdb27fee	-0.08715807
248	0x3def2bf2	0.11678304
249	0xbdcb4f29	-0.09927208
250	0x3df5d7ea	0.12004073
251	0xbd96d9b3	-0.073657416
252	0xbe2fd328	-0.17170393
253	0xbe1dc395	-0.1540664
254	0x3ca70c50	0.020391613
255	0xbde5ae35	-0.11214868

fc.2.bias f4 [64]
0	0x3d18f60d	0.037344027
1	0x3cc426b5	0.023944238
2	0x3e330699	0.17482986
3	0xbd39580d	-0.045249987
4	0x3d691847	0.05690792
5	0x3e0b6fce	0.13616869
6	0xbd4a3cbd	-0.04937433
7	0xbdeecf12	-0.11660589
8	0x3da0b17d	0.07846353
9	0xbe073eff	-0.13207625
10	0xbd690115	-0.056885798
11	0x3d54f150	0.051987946
12	0x3db519e1	0.08842827
13	0xbdd28bf1	-0.10280598
14	0x3ce924cf	0.028459935
15	0x3d15d186	0.03657677
16	0x3c2fdd7a	0.0107339565
17	0x3c6a18aa	0.014288107
18	0xbd101513	-0.035176348
19	0xbd828f28	-0.06374961
20	0x3c59af49	0.01328642
21	0xbc2f6f73	-0.010707724
22	0x3dab1a52	0.083546296
23	0x3d904f55	0.070463814
24	0x3d72fce2	0.0593232
25	0xbd31e8a0	-0.04343474
26	0x3c53f991	0.012937919
27	0x3db3ee01	0.0878563
28	0xbd8f500f	-0.06997692
29	0x3d24c350	0.040225327
30	0xbde7ab66	-0.113119885
31	0xbe0977a4	-0.13424546
32	0xbdfc6c7b	-0.123253785
33	0x3ddba4ab	0.10724767
34	0xbbfac851	-0.007653274
35	0x3c466a1e	0.012110261
36	0xbd20d225	-0.03926291
37	0xbd54a4ef	-0.051915105
38	0xbdd33431	-0.10312689
39	0xbe13fa00	-0.14450836
40	0xbc0c663b	-0.0085692955
41	0xbbd6c1bb	-0.006553856
42	0x3d975e7b	0.073910676
43	0x3dce9879	0.100876756
44	0x3e138ce4	0.14409214
45	0x3d3755df	0.044759627
46	0xbc5f79e0	-0.013639897
47	0xbdcf92b9	-0.10135407
48	0x3db1c710	0.08680546
49	0x3d5e1f57	0.054229107
50	0x3d8eaec5	0.069669284
51	0x3d862f29	0.06551964
52	0xbd8c1cc3	-0.06841423
53	0xbcff5ad5	-0.031171242
54	0x3d8a4f29	0.0675338
55	0xbc527525	-0.012845312
56	0x3e0cc7d0	0.13748097
57	0x3e03f5cc	0.12886733
58	0xbda45e9e	-0.08025859
59	0xbddda13c	-0.10821769
60	0x3cef745a	0.029230285
61	0x3e06b3dc	0.13154548
62	0x3dba0606	0.0908318
63	0x3dc79dec	0.09746918

fc.4.weight f4 [64, 64]
0	0x3d071f48	0.032988816
1	0xbf1a250e	-0.6021279
2	0x3d3e0909	0.046395335
3	0x3b9cca81	0.0047848825
4	0x3da197a7	0.078902535
5	0x3ed25a63	0.41084585
6	0x3d8f986d	0.07011495
7	0x3e11b03e	0.14227387
8	0xbd8d1036	-0.068878576
9	0xbd294966	-0.041329764
10	0x3d5a9af5	0.053370435
11	0xbd9e8260	-0.07739711
12	0x3d1cd6f9	0.03829095
13	0x3e361b36	0.17783818
14	0x3c711749	0.014715024
15	0xbd433806	-0.04766085
16	0xbe842256	-0.25807446
17	0x3e836373	0.2566181
18	0x3da1b258	0.078953445
19	0x3dd00ea5	0.10159043
20	0x3c0976a2	0.008390101
21	0x3ddc4df7	0.10757058
22	0x3cce42e7	0.025178386
23	0x3db40a97	0.08791082
24	0x3d8814b7	0.06644576
25	0x3de67e1e	0.11254524
26	0x3d49bb76	0.049251042
27	0xbeba9951	-0.36445096
28	0xbdb8a111	-0.09015096
29	0x3e100c8d	0.14067288
30	0x3e03eaf8	0.12882602
31	0xbc2d18a9	-0.0105649615
32	0xbdf46af1	-0.1193446
33	0x3ddd9a14	0.10820404
34	0x3ca83302	0.020532135
35	0x3c27b639	0.010236316
36	0xbe6d532c	-0.23176259
37	0x3bf4f441	0.0074754064
38	0x3ca06e52	0.019583855
39	0xbfaa54ba	-1.3307106
40	0xbe9adf0a	-0.3024829
41	0x3dd0f539	0.102030225
42	0x3e41b46a	0.18916479
43	0xbc4d3da0	-0.0125269
44	0x3d963679	0.073346086
45	0xbf03c35b	-0.51469964
46	0x3da413a5	0.080115594
47	0x3b213009	0.0024595282
48	0x3ca1f8bf	0.019771932
49	0xbe229ffd	-0.15881343
50	0xbea1588c	-0.31512868
51	0xbc0a6bef	-0.008448585
52	0x3dd8dfbe	0.105895504
53	0x3dbac361	0.09119297
54	0x3edd7e80	0.43260574
55	0xbdbcc464	-0.09217146
56	0xbe0ce139	-0.1375779
57	0x3de893e6	0.113563344
58	0x3f056bf5	0.52117854
59	0x3f3ddc68	0.7416444
60	0x3e234ca2	0.15947202
61	0x3d676855	0.056495983
62	0xbd91b1c9	-0.07113988
63	0x3e1f6a24	0.15567833
64	0xbd8d11cb	-0.06888159
65	0x3e01c8f9	0.12674321
66	0xbd623cd8	-0.055233806
67	0x3d422e75	0.047407586
68	0xbd5e593d	-0.054284323
69	0xbd89cbb2	-0.06728305
70	0x3c810a54	0.015751995
71	0x3e18b3fd	0.1491241
72	0x3e0244cd	0.12721558
73	0xbdc75634	-0.09733239
74	0xbdfe6257	-0.124211006
75	0xbb7e56d2	-0.0038809073
76	0xbde9d208	-0.114170134
77	0x3dd3e267	0.10345917
78	0xbe00ae03	-0.1256638
79	0xbcdd9ce2	-0.027052347
80	0x3d89a8cb	0.06721648
81	0xbe0f2974	-0.13980657
82	0xbe7339ad	-0.2375247
83	0x3dc30f70	0.09524429
84	0x3c6340a0	0.013870388
85	0xbe0cfa75	-0.13767417
86	0xbe1e6482	-0.15468028
87	0xba254f90	-0.0006306106
88	0x3d6c698b	0.05771784
89	0xbef4663e	-0.47734255
90	0xbdce5959	-0.100756355
91	0xbd90ab7a	-0.070639566
92	0x3da6764c	0.08128032
93	0xbe2fd7fe	-0.17172238
94	0xbdd44373	-0.103644274
95	0xbe0c342f	-0.13691781
96	0x3dd09cca	0.10186155
97	0xbeab03bb	-0.33401284
98	0xbd2df715	-0.042471964
99	0xbd289679	-0.041159127
100	0xbd8d0761	-0.06886173
101	0x3b670f53	0.0035256937
102	0xbca0cc88	-0.019628778
103	0x3fcdc8ad	1.6076866
104	0xbc8bd6fb	-0.017070284
105	0xbdf3d1b4	-0.11905232
106	0xbe2cf774	-0.16891271
107	0xbc7fb939	-0.015608125
108	0xbd692acc	-0.05692558
109	0x3eb61895	0.3556563
110	0x3d9348b7	0.07191604
111	0x3dd368d5	0.103227295
112	0xbce94eb8	-0.028479919
113	0xbddc95ec	-0.10770783
114	0xbd30aa2e	-0.043131046
115	0x3c392312	0.011299865
116	0xbbab0ba8	-0.0052198954
117	0x3d938bcd	0.07204399
118	0x3bb54cf0	0.0055328533
119	0x3da64214	0.08118072
120	0x3dcd0e64	0.100125104
121	0xbcada4ec	-0.021196805
122	0xbd80e764	-0.06294134
123	0xbb9ae942	-0.0047275135
124	0xbd352243	-0.044222128
125	0xbd199438	-0.037494868
126	0xbeffa97c	-0.49933994
127	0x3f190c9d	0.5978487
128	0x3d883f9d	0.06652758
129	0x3f1f69e9	0.6227098
130	0x3c9484ea	0.018129785
131	0x3d7f9d97	0.06240615
132	0x3e001095	0.12506326
133	0xbee7345d	-0.45157138
134	0x3dc36267	0.09540253
135	0x3e83c26f	0.2573428
136	0x3da2d47e	0.07950686
137	0x3e1a0d95	0.15044244
138	0x3d1a464c	0.037664697
139	0x3e006ce4	0.12541538
140	0xbc4ec3e1	-0.012619943
141	0x3cda0540	0.026613832
142	0x3d117bea	0.035518564
143	0x3dc431aa	0.09579785
144	0x3e6053b2	0.21906927
145	0xbdac9fba	-0.08428903
146	0xbdb557e3	-0.08854654
147	0x3deeb007	0.11654668
148	0x3d3d2dbb	0.04618619
149	0x3d0f2a1b	0.034952264
150	0x3e0b6478	0.13612545
151	0x3db1bb6d	0.08678327
152	0xbe28a5bc	-0.16469473
153	0xbe7001da	-0.23438206
154	0xbe8185a4	-0.25297272
155	0x3e4a733a	0.19770518
156	0xbd530511	-0.051518504
157	0xbdf59fa3	-0.11993339
158	0xbe2fe3c0	-0.17176723
159	0x3eb1ce56	0.34727734
160	0x3d848466	0.064705655
161	0xbcf189eb	-0.02948471
162	0xbda38262	-0.07983853
163	0x3dd52aa8	0.10408527
164	0x3dcc9e94	0.09991184
165	0x3c7f254f	0.01557286
166	0xbd8a71a9	-0.0675996
167	0x3f94f53b	1.1637338
168	0x3f04d572	0.5188819
169	0x3dd6393d	0.10460136
170	0xbdb2b019	-0.08724994
171	0xbd1293f1	-0.03578562
172	0x3e4edade	0.20200679
173	0x3f029737	0.51011986
174	0x3e239214	0.15973693
175	0x3e3089ff	0.17240141
176	0xbe5f29aa	-0.21793237
177	0x3e564733	0.20925598
178	0x3ee10b80	0.43954086
179	0x3e88ea1f	0.2674112
180	0x3bcb571d	0.006205453
181	0x3a983dfb	0.0011615151
182	0xbdde496c	-0.10853848
183	0x3e2c8806	0.16848764
184	0x3e85ab26	0.26107138
185	0x3bbd6400	0.005779743
186	0xbeb62dce	-0.3558182
187	0xbf0c3db5	-0.5478166
188	0xbe42bdd8	-0.19017732
189	0xbd861d19	-0.06548519
190	0x3c45ee1d	0.012080696
191	0x3e6f53ca	0.23371807
192	0xbe328d03	-0.17436604
193	0x3ef07684	0.4696542
194	0x3c141690	0.009038582
195	0xbd9a838c	-0.07544622
196	0xbe1010f3	-0.14068966
197	0x3db96cf8	0.09053987
198	0xbc7510b6	-0.0149575975
199	0xbcac466e	-0.021029677
200	0xbe95bf81	-0.29247668
201	0x3dd3ad32	0.10335769
202	0x3d9edfe3	0.07757547
203	0x3d31f69a	0.04344807
204	0xbc505e30	-0.012717769
205	0xbdc05442	-0.09391071
206	0xbde87f6b	-0.11352428
207	0x3cd8cbc9	0.02646436
208	0x3e5e4c89	0.21708883
209	0x3db2d9a7	0.0873292
210	0xbd835915	-0.064134754
211	0xbee3f918	-0.4452598
212	0x3dafb3b4	0.085791975
213	0x3cc79d3f	0.024366973
214	0x3d43f103	0.04783727
215	0xbd9d9983	-0.07695296
216	0x3dae9566	0.08524589
217	0xbe94377f	-0.2894859
218	0xbdc8e14d	-0.09808598
219	0x3e8cae25	0.27476612
220	0x3cdc9a30	0.026928991
221	0xbd91e4ac	-0.07123694
222	0x3e6f792d	0.23386069
223	0xbdd80b4d	-0.105490305
224	0xbccdad3a	-0.025107015
225	0x3c550892	0.013002532
226	0xbd271494	-0.04079111
227	0xbd507d94	-0.05090101
228	0xbe602f6f	-0.21893094
229	0xbd021cc0	-0.0317657
230	0x3ca43d90	0.020048887
231	0x3f475664	0.77866197
232	0xbc4d8645	-0.012544219
233	0xbd87a585	-0.06623367
234	0x3eab9aef	0.33516642
235	0xbd2448fa	-0.04010866
236	0xbe52d449	-0.20588793
237	0xbf42495d	-0.75893193
238	0x3bc4df00	0.006008029
239	0xbe9e05da	-0.3086384
240	0x3d1eb97e	0.038751118
241	0x3c85ef8c	0.016349576
242	0x3e0eb450	0.13935971
243	0xbe3608c3	-0.1777678
244	0xbbdbff3a	-0.006713775
245	0xbe05dbf9	-0.13072194
246	0xbdb6bb1c	-0.08922407
247	0xbd7a7cd1	-0.06115419
248	0xbea3af2a	-0.31969577
249	0x3e93741c	0.28799522
250	0x3f45154f	0.7698564
251	0xbcfb8814	-0.030704536
252	0x3d446612	0.047948904
253	0xbde99131	-0.11404646
254	0xbd2733fd	-0.040821064
255	0x3f45d35f	0.7727565

fc.4.bias f4 [64]
0	0x3ad09c62	0.0015915746
1	0xbe21b17d	-0.15790363
2	0xbd812b30	-0.063070655
3	0xbdd97388	-0.10617739
4	0x3e3f1513	0.18660383
5	0x3d212126	0.039338253
6	0xbdeb0f19	-0.11477489
7	0xbb723ab5	-0.0036961262
8	0xbd864175	-0.06555454
9	0x3e2a09d5	0.16605313
10	0xbd64ff0a	-0.055907287
11	0xbd6a0136	-0.05713006
12	0xbdb020e7	-0.086000256
13	0x3d4f6b4f	0.050639447
14	0x3c8729cb	0.01649942
15	0x3df4e855	0.11958376
16	0xbdb64475	-0.08899776
17	0xbe054b37	-0.13016973
18	0x3d96df23	0.07366779
19	0xbcc2ce9c	-0.02378016
20	0x3defd098	0.11709708
21	0x3e32b168	0.17450488
22	0xbce6312c	-0.028099619
23	0x3e2c8dd6	0.16850981
24	0x3ddace17	0.1068384
25	0x3dd0c6fa	0.10194202
26	0x3de158a5	0.11003236
27	0x3d76e75b	0.06027923
28	0x3e1864e6	0.1488224
29	0x3e3b4deb	0.18291442
30	0xb99c8858	-0.00029856223
31	0xbd209989	-0.039208923
32	0x3c8c6f3d	0.017142886
33	0xbdc3af09	-0.0955487
34	0x3c8e4152	0.017365132
35	0xbcf53634	-0.029933073
36	0xbced15b1	-0.028941007
37	0x3d2c17e7	0.042014983
38	0xbbcf8ec2	-0.0063341567
39	0xbd5697a8	-0.052390724
40	0xbc084005	-0.008316045
41	0xbcd0f174	-0.025505759
42	0xbc9da03a	-0.019241441
43	0x3c541cab	0.012946288
44	0x3d9e19c8	0.07719761
45	0x3d1fcc85	0.039013404
46	0x3e0156d9	0.12630786
47	0xbd1a8a8d	-0.03772979
48	0x3b2a999b	0.0026031497
49	0x3d81a945	0.06331114
50	0x3d9a459d	0.07532809
51	0xbd309e21	-0.043119553
52	0xbdf1ac8c	-0.11800489
53	0x3db8bd02	0.090204254
54	0x3cc9bbb9	0.024625646
55	0x3d94a6ef	0.072584026
56	0x3d156df7	0.036481824
57	0xbd8885e9	-0.06666166
58	0x3b655238	0.0034991633
59	0xbccd621e	-0.0250712
60	0x3bc3ffcc	0.005981421
61	0x3cc10110	0.023560077
62	0x3dffcc98	0.12490195
63	0xbdd6b5a8	-0.10483867

fc.6.weight f4 [4, 64]
0	0x3dbdd688	0.09269434
1	0x3e079bee	0.13243076
2	0x3e4cad3a	0.19987956
3	0xbca5e8bc	-0.020252578
4	0x3e27775b	0.16354124
5	0xbe9b6981	-0.3035393
6	0xbf2e77dd	-0.68151647
7	0xbe32d83d	-0.17465301
8	0x3d02c4cf	0.031925973
9	0x3e674fcc	0.22589034
10	0xbe441aed	-0.19150896
11	0x3ed9a39b	0.42507634
12	0xbc878ef7	-0.016547663
13	0xbe8e4296	-0.27785176
14	0x3deb6f41	0.114958294
15	0x3e84b4ae	0.25919098
16	0xbebfb0b7	-0.3743951
17	0x3ca6e695	0.020373622
18	0xbedc3c40	-0.43014717
19	0x3d208051	0.039184872
20	0xbe878534	-0.26468813
21	0x3f10d79c	0.56578994
22	0x3f29f70d	0.66392595
23	0x3db6a93f	0.08919
24	0xbeb46f5d	-0.35241213
25	0xbe83fedc	-0.2578038
26	0xbe8be1af	-0.2732062
27	0x3db37344	0.087622195
28	0x3eb24729	0.34819916
29	0x3d56d4ab	0.05244891
30	0x3e44cf5d	0.19219728
31	0xbe6a3f09	-0.22875609
32	0x3e4935eb	0.19649474
33	0xbe4be510	-0.19911599
34	0xbdeed4db	-0.11661693
35	0x3e6f8da2	0.23393872
36	0x3d577e93	0.052610945
37	0x3de2fd3c	0.11083457
38	0x3e0a1af5	0.13486846
39	0xbca3b54e	-0.019983914
40	0xbf192eaf	-0.5983686
41	0x3df9e294	0.122014195
42	0xbea98760	-0.33111095
43	0x3d7fe281	0.06247187
44	0xbe7e55c4	-0.24837404
45	0x3d85ee59	0.06539602
46	0xbe7c09cb	-0.2461311
47	0x3e31cb8d	0.17362805
48	0xbe8c3b13	-0.2738882
49	0xbe2b8aac	-0.16752118
50	0xbca2d4d7	-0.01987688
51	0x3d80267f	0.062573425
52	0xbc559237	-0.013035349
53	0x3e47ceb6	0.19512448
54	0x3cc29da8	0.023756817
55	0x3d4e2884	0.050331607
56	0x3e43c57d	0.19118305
57	0xbf8d9526	-1.1061141
58	0x3dbd34c0	0.09238577
59	0x3c6e5a70	0.014547929
60	0xbd17715e	-0.03697335
61	0x3e9f136d	0.31069508
62	0x3d7ddbf0	0.061977327
63	0x3e2fc91c	0.17166561
64	0x3e45c6ec	0.19314164
65	0x3bdec583	0.0067984476
66	0xbd62e481	-0.0553937
67	0x3e81f380	0.25381088
68	0x3e3d3304	0.18476492
69	0x3e28097e	0.16409871
70	0xbf3a3986	-0.72744024
71	0x3b8694fe	0.0041071167
72	0xbd014fb4	-0.03157015
73	0x3df9e716	0.12202279
74	0x3e8c6457	0.27420303
75	0xbecc7c9f	-0.39938828
76	0xbf3a7605	-0.72836334
77	0x3dff8147	0.124758296
78	0x3dee3f9b	0.116332255
79	0xbf3d5647	-0.73959774
80	0xbea9c32a	-0.3315671
81	0xbf8ab6aa	-1.0836995
82	0x3e4527fa	0.19253531
83	0x3e4de525	0.20106943
84	0xbe17e1ad	-0.14832182
85	0xbed6ba69	-0.41939095
86	0xbfb76214	-1.4326806
87	0x3e53f491	0.20698763
88	0x3e1549a5	0.14578874
89	0x3e7ab7d3	0.24484186
90	0xbeb28c0b	-0.3487247
91	0x3d9a8e5c	0.07546684
92	0xbf3b0087	-0.7304768
93	0x3e3fdd2f	0.18736719
94	0x3e0a673e	0.13515946
95	0xbcff0313	-0.031129396
96	0xbe6e5525	-0.23274668
97	0xbf017190	-0.5056391
98	0x3e492c7a	0.19645873
99	0xbd455a2a	-0.04818169
100	0x3e74eb32	0.23917845
101	0x3db2716d	0.087130405
102	0x3d0a3df1	0.03375048
103	0xbc902645	-0.017596373
104	0xbe8fc93e	-0.28083223
105	0x3deb2c2b	0.11483034
106	0x3f4c07fd	0.7969969
107	0xbe95d0ae	-0.29260772
108	0x3e3d51bb	0.18488209
109	0x3e52f682	0.20601848
110	0xbd014234	-0.031557277
111	0xbc1a43e9	-0.009415605
112	0x3d841779	0.064497896
113	0xbd7c2e4b	-0.061567586
114	0x3deab1fe	0.114597306
115	0x3e680e18	0.22661626
116	0xbe092183	-0.1339169
117	0xbee6f4ef	-0.45108745
118	0xbe96ea09	-0.2947543
119	0xbe8257f4	-0.25457728
120	0xbea71005	-0.3262941
121	0xbea5edc3	-0.3240796
122	0xbb88f717	-0.004179846
123	0x3bb12e03	0.0054070964
124	0x3d7c32b5	0.061571795
125	0xbf184b3c	-0.594898
126	0xbe36e00b	-0.17858903
127	0x3941cb5e	0.00018481674
128	0xbe4cf0c9	-0.20013727
129	0xbd1aa02b	-0.037750404
130	0x3e818099	0.25293425
131	0xc01598e2	-2.3374562
132	0xbe8714a0	-0.26382923
133	0x3de9961b	0.114055835
134	0xbe420c0c	-0.18949908
135	0xbd66a736	-0.05631181
136	0x3d3054df	0.04304969
137	0xbe923b2e	-0.28560776
138	0xbe0ce58b	-0.13759439
139	0xbe9ebb48	-0.3100226
140	0x3f0cddda	0.5502602
141	0x3e1ff53d	0.15620895
142	0x3e45ffbc	0.19335836
143	0x3bbfc32f	0.005852125
144	0x3dee6e58	0.1164214
145	0x3e3725bb	0.17885487
146	0x3d11cbae	0.035594635
147	0x3e6740ef	0.22583364
148	0xbe0150ed	-0.12628527
149	0x3cb2ec8f	0.021841316
150	0x3c9532dc	0.018212728
151	0x3d989a5b	0.07451316
152	0x3df561da	0.11981554
153	0x3e15eaec	0.14640397
154	0x3ecb5dea	0.39720088
155	0xbee00962	-0.4375716
156	0x3df72f4b	0.12069567
157	0xbe9459af	-0.28974673
158	0x3d22ec89	0.03977636
159	0x3e393329	0.18085922
160	0x3e0f7fc9	0.1401359
161	0x3f083469	0.5320497
162	0xbe78c5de	-0.2429423
163	0xbf3bdd83	-0.73384875
164	0xbe9db500	-0.30802155
165	0xbf703a10	-0.93838596
166	0x3dca99c6	0.09892611
167	0xbd1318e4	-0.03591241
168	0x3e2b83eb	0.16749541
169	0x3d93a2a8	0.072087586
170	0xbf3a7ad4	-0.7284367
171	0x3cc8adde	0.024496969
172	0x3e02c445	0.12770183
173	0xbea45ad3	-0.32100543
174	0x3e6e26ed	0.23257037
175	0xbefdb05a	-0.49548608
176	0x3d848ed2	0.06472553
177	0xbea30222	-0.31837565
178	0xbe3f308d	-0.18670864
179	0xbe8614ec	-0.26187837
180	0x3da32c3e	0.07967423
181	0xbce6c4ef	-0.028170077
182	0x3d1ffbb8	0.039058417
183	0x3ddea9ab	0.10872205
184	0x3d8ea354	0.06964746
185	0x3f0acced	0.5421894
186	0xbddc2cd1	-0.107507356
187	0x3e5de48e	0.21669218
188	0xbe9d8cdf	-0.3077154
189	0x3edef145	0.4354345
190	0xbea9d5da	-0.33170968
191	0xbde56196	-0.11200254
192	0x3e0a7730	0.13522029
193	0xbeea0fc4	-0.45715153
194	0xbf0bb083	-0.5456621
195	0x3e078600	0.1323471
196	0xbe4e9031	-0.20172192
197	0x3d308fcb	0.04310588
198	0x3f3c4e21	0.73556715
199	0xbc51d0a1	-0.012806089
200	0xbd4e7986	-0.050408863
201	0xbdabe00c	-0.08392343
202	0x3e59c03b	0.21264736
203	0x3ce3091a	0.0277143
204	0xbe381c08	-0.17979443
205	0x3de7eed4	0.1132485
206	0xbf10e272	-0.5659553
207	0x3e500967	0.20316087
208	0x3e3ee133	0.18640594
209	0x3ec6887b	0.38776
210	0x3e0a48f1	0.13504387
211	0xbee563f7	-0.4480283
212	0x3e8bd185	0.27308288
213	0xbf354403	-0.708069
214	0xbeb1ef88	-0.3475306
215	0xbe99959b	-0.29996952
216	0xbcc65d65	-0.024214456
217	0xbe7cf055	-0.24701054
218	0xbd905fb0	-0.07049501
219	0x3c8a921b	0.016915372
220	0xbe749795	-0.23885949
221	0x3cf073e9	0.029352145
222	0xbe973804	-0.29534924
223	0x3cbf3559	0.023340868
224	0x3e277200	0.16352081
225	0xbe2539eb	-0.16135375
226	0x3a25b2ef	0.00063209137
227	0x3e734ada	0.23759022
228	0xb9b73f2c	-0.00034951547
229	0x3e9b17e6	0.3029167
230	0xbee104c7	-0.43948957
231	0xbe27f294	-0.1640113
232	0x3e996b9d	0.29964915
233	0xbe4d1b3e	-0.20029923
234	0xbaf91564	-0.0019003567
235	0x3e1d3f51	0.15356185
236	0xbdcc9bac	-0.099906296
237	0x3e1a912a	0.15094438
238	0xbe4d678e	-0.20059034
239	0x3dcc869e	0.09986614
240	0x3d9bb582	0.07602979
241	0x3ed572aa	0.41689044
242	0x3d7d7a5c	0.06188427
243	0xbdca2b5e	-0.09871553
244	0x3df8330e	0.12119113
245	0x3ced9247	0.029000415
246	0x3e209cd4	0.15684825
247	0x3e3f85eb	0.1870343
248	0x3dbe9a32	0.09306754
249	0x3d77a71a	0.060462095
250	0x3db417f4	0.08793631
251	0xbea2e3e5	-0.31814495
252	0x3e9aa79a	0.30205995
253	0xbef6992d	-0.4816374
254	0x3ecc0911	0.39850667
255	0xbe07c959	-0.13260402

fc.6.bias f4 [4]
0	0xbda2a871	-0.07942284
1	0x3b3b322c	0.002856384
2	0xbcf269dd	-0.029591495
3	0xbda9b381	-0.08286191
