model/lv1_bc_model_2.2.pth (torch, 723180 bytes, 8 tensors)

fc.0.weight f4 [256, 184]
000000 8b 84 95 3d 70 d3 00 3d 4f 0f 27 bd e2 9d 82 3d
       0.07300671 0.031451643 -0.040786084 0.0637777
000010 9c fd 65 3d ca b7 64 bd ec ec 33 bd af 75 36 3d
       0.056150064 -0.055839337 -0.04392712 0.044545826
000020 16 ac 9b 3c 10 1a 20 3b 6b 89 b3 3b ed 95 e8 3b
       0.019002955 0.0024429597 0.005479028 0.0070979507
000030 e1 f2 00 3d ce 3a 80 3d 32 44 88 3d 11 f1 10 bd
       0.031481627 0.06261216 0.06653632 -0.03538615
000040 d6 77 75 3d 20 bc ea bc 3f cc 16 bd 71 37 91 3c
       0.059928738 -0.028654158 -0.036815878 0.017726632
000050 e2 f9 32 ba 85 e1 6a 3c 0c 13 52 3c b1 28 76 bb
       -0.00068273966 0.014335995 0.012821924 -0.0037560875
000060 e3 46 a4 bc 42 fe ab bc 4f 28 84 3d ef 37 93 3b
       -0.020053333 -0.020995263 0.06453001 0.004492752
000070 09 a5 4a bd 3b f1 71 bd e7 5c 0a bd f2 6e 8e 3d
       -0.049473796 -0.059067946 -0.033780005 0.06954755
000080 73 a4 3b bd 96 42 68 bd 95 14 0f 3d 54 e7 2c 3d
       -0.045811128 -0.056704126 0.034931738 0.0422128
000090 c9 36 9e bc b6 c5 75 3d 8f b4 52 bd df 2e 18 3d
       -0.019313233 0.060003005 -0.051441725 0.037154075
0000a0 0e 51 c2 3c 21 bd 02 bd b3 3a 67 3c bc ad 06 bd
       0.02372029 -0.03191865 0.014113116 -0.03288053
0000b0 f4 e5 e7 3b 91 c3 66 bb 2e 13 90 bd 4e 70 96 3d
       0.007076973 -0.0035211782 -0.07034908 0.07345639
0000c0 4d 93 d7 3c f4 3e c7 3c 81 09 77 bd 53 61 72 3b
       0.026315356 0.02432201 -0.060311798 0.003698428
0000d0 c8 8f 8d 3d ca 81 ae bc 70 ca 44 bd ac cc 96 3d
       0.0691219 -0.021302123 -0.048044622 0.07363257
0000e0 a5 c4 6d bc 93 ac 51 bc 1f 33 6b bd 4f ab 4b 3b
       -0.014512216 -0.012797493 -0.0574218 0.003107745
0000f0 fc 8b 90 bd cb 46 c1 bc 9b 7e 0b 3d 9d d1 8d bd
       -0.0705795 -0.023593327 0.034056287 -0.06924746
000100 fb 5e 35 bd da a6 fe 3c 68 f1 86 bd 61 27 2b 3d
       -0.044280034 0.03108542 -0.06589013 0.0417856
000110 20 85 81 3d fe 80 28 bd f1 75 11 3a 26 82 22 bd
       0.0632422 -0.04113864 0.00055488857 -0.0396749
000120 11 6a 52 3d 08 fe 85 3d 75 51 64 bc 17 e8 6f bd
       0.051370684 0.06542593 -0.0139354365 -0.058570947
000130 56 05 bf 3b 3c 9a 06 bd fc a1 c1 3c 9b 77 7e 3d
       0.0058294935 -0.032861933 0.02363681 0.062125783
000140 a5 99 56 bd de 15 65 bd bf 30 87 3d 8d 57 a8 bc
       -0.05239262 -0.055929057 0.066010945 -0.02054956
000150 25 70 6f 3d 00 06 b1 3c ee 1a a4 bc 9e 50 45 3c
       0.05845656 0.021609306 -0.020032372 0.012043146
000160 02 8e a0 bc ec dc 81 3d 4e e0 38 bd 6b f8 d0 bc
       -0.019598965 0.06340966 -0.04513579 -0.02550908
000170 d4 c6 92 3c d3 a5 91 bd 59 90 9b bc c5 89 74 bd
       0.017917074 -0.071117066 -0.018989729 -0.0597017
000180 7e 8f 8b bd e7 c5 67 3d 36 63 2e bd 55 5f 8b bb
       -0.06814478 0.05658522 -0.042575084 -0.004253308
000190 ca 63 02 3c e2 fb 68 bd 7e 0e 4c 3d 9d f6 00 3c
       0.007958362 -0.05688084 0.04981851 0.007871297
0001a0 a3 5f 8f bd ec 8f 12 3d 19 79 81 3c 3c 33 76 bc
       -0.07000663 0.035781786 0.015804814 -0.015026864
0001b0 46 48 2c 3d e7 fe 74 3d 67 fa 4d bc 36 60 c0 3c
       0.042061113 0.059813406 -0.012571908 0.023483377
0001c0 26 6f 8c bd 4f 11 f0 3c 5a eb 5a bc 88 02 d3 3c
       -0.068571374 0.029305128 -0.013361776 0.025758043
0001d0 8a ae 55 3d 14 02 80 bd 3b 48 41 bc 2c d9 6e bc
       0.052168407 -0.06250396 -0.011797006 -0.014578145
0001e0 27 62 d6 bc 81 99 87 bd 14 19 26 bc d7 68 95 bc
       -0.02616985 -0.066210754 -0.010137815 -0.018238468
0001f0 5d 52 82 bd 97 46 a9 3b b5 90 04 3d 59 7c 2c 3d
       -0.06363366 0.0051658857 0.032364566 0.042110775
000200 64 48 21 3c 0d d4 f7 3c 30 cb 32 bd bb 03 c9 bc
       0.009843919 0.03025248 -0.043650806 -0.024537912
000210 f9 27 95 bd 63 4e 4c bd ee 2f 14 bb c0 25 79 3d
       -0.07283015 -0.049879443 -0.0022611576 0.060827017
000220 e7 0d 53 bd 1f d3 66 bd 8e 83 d9 3c b9 71 6a 3d
       -0.05152693 -0.056353685 0.026551988 0.05723736
000230 09 e5 8c bd 28 2e 9f 3b 79 4a 26 3c a0 db db bc
       -0.068796225 0.004857797 0.010149592 -0.026838124
000240 89 92 3e bd 44 af 4c bd 5a a0 4d bc 8e 31 55 bb
       -0.046526466 -0.049971834 -0.012550438 -0.0032530758
000250 b3 bc d6 bb 36 bd 21 bd 37 85 22 3d b9 3b 09 3d
       -0.0065532564 -0.039487086 0.039677825 0.03350422
000260 a6 e1 c9 bb 21 41 be bc f2 ec 15 bd 0e 36 23 bd
       -0.0061609326 -0.023224415 -0.03660292 -0.039846472
000270 ed 5d a8 3c e6 95 9a 3c a7 cd 60 bd 58 de 54 3d
       0.0205526 0.018870305 -0.054883625 0.051969856
000280 6d 7d cd bc 97 de 3d 3d d7 e3 0a 3d 12 9b 55 3d
       -0.025084222 0.046354856 0.03390869 0.05214984
000290 3f c4 33 3c 1d d2 8c 3d df 6d 44 bd 84 24 ad bb
       0.010972082 0.068760134 -0.047956344 -0.005283894
0002a0 3c 4d 24 bd 09 5f b6 bc a7 89 42 bc 3b c1 73 bc
       -0.04011272 -0.022262113 -0.011873639 -0.014877613
0002b0 14 ae 5c bd 63 ed 74 3c 45 fa 34 3d 01 fb 41 bc
       -0.05387695 0.0149491755 0.044183988 -0.011839629
0002c0 6e 5a 1b bd 38 60 45 3d c9 6d 80 ba 32 c5 06 bc
       -0.037928037 0.048187464 -0.0009798344 -0.008225726
0002d0 17 20 9b 3c e9 b1 8d 3c 67 b7 8e 3d 73 67 0b bd
       0.0189362 0.017296748 0.06968575 -0.034034204
0002e0 1b d5 fe be f9 41 80 be 15 7a 29 3c 0e 62 9c bd
       -0.49771962 -0.25050333 0.010344048 -0.0763589
0002f0 00 8c 7d 3d b4 d6 46 be 3a 53 5c 3e ec dc 70 bd
       0.061901093 -0.1941784 0.21516123 -0.058804438
000300 eb a2 80 bd 94 5e 5d 3c 84 fa 91 bd c1 df 88 3b
       -0.06281074 0.013511319 -0.0712786 0.004177064
000310 ee 0d dd bd f2 f3 a6 bd 2e b5 1f 3c 60 40 df bd
       -0.107936725 -0.081519976 0.009747786 -0.109009504
000320 3c 6f cd bd 5a f6 a8 bd 3c 83 83 bb 66 ed 8f bc
       -0.10030982 -0.08250113 -0.004013447 -0.017569255
000330 08 00 a2 bd ac c1 a0 bd a4 b8 48 bc 1c 0e 86 3c
       -0.07910162 -0.0784944 -0.012251053 0.01636415
000340 1d a3 57 3d 1b d6 e7 3b 2b cc 73 3d a5 61 1b 3d
       0.05264579 0.007075084 0.05952088 0.037934918
000350 b8 45 95 bd 6a ca 56 bb 55 5c 40 3d 44 03 4f bd
       -0.072886884 -0.0032774457 0.046963055 -0.050540224
000360 3e 5c 94 3d e5 92 95 3c 0e cc 88 bd 13 d9 68 bd
       0.07244156 0.018258521 -0.06679545 -0.056847643
000370 70 6c 0d bd d1 a2 9f bc 1d 73 90 bd 06 e1 a9 3c
       -0.034527242 -0.019486817 -0.07053206 0.020737182
000380 a7 57 2d 3d 33 84 2f bb 6a bc 1b 3c 12 6e b4 bd
       0.04231992 -0.0026781678 0.009505371 -0.08810057
000390 d7 92 96 3c 1d 57 66 3d 11 c5 c3 3c 45 43 87 bc
       0.018380566 0.05623542 0.02389768 -0.016511569
0003a0 d6 17 93 bd 8a 6e 3e bc fd 5e 91 3d b0 01 f2 bb
       -0.07182281 -0.011623034 0.07098196 -0.007385455
0003b0 d1 59 89 bd fe a7 69 bd 29 8f 0f 3c 62 07 8d 3d
       -0.06706584 -0.057044975 0.008762159 0.06886174
0003c0 a0 b3 b9 bd ed 4b 19 3d 7e c1 df 3c 81 a2 b7 bc
       -0.09067464 0.037425924 0.027313944 -0.022416355
0003d0 7f db 0e 3d 82 7c b2 3c 6c e9 14 3d 63 12 8a bd
       0.034877297 0.021787886 0.03635542 -0.06741788
0003e0 4c 64 4f 3c 7f 12 91 bb 87 11 4b bd 0b 54 85 bd
       0.01265819 -0.0044272537 -0.049577262 -0.065101705
0003f0 cf 87 68 bd 71 c6 0d 3d dc 55 4f bc 2b c8 76 bd
       -0.056770142 0.034613077 -0.012654748 -0.06024949

fc.0.bias f4 [256]
000000 29 40 7b bd da e4 88 bd 10 80 10 3d 37 f8 ac bd
       -0.061340485 -0.06684275 0.03527838 -0.08445781
000010 00 8d 97 bc c5 e9 67 ba 2e 4e f0 b9 b2 63 c3 3d
       -0.018499851 -0.0008846785 -0.00045834616 0.095405
000020 8b ab c3 bd 7e e8 1d bd bf 3a 36 bd f5 d4 cf bd
       -0.095542036 -0.0385518 -0.04448962 -0.1014804
000030 01 0f 0f bd 47 bc 46 bb 84 b5 59 bc 97 67 79 bd
       -0.03492642 -0.0030324624 -0.013287906 -0.060889807
000040 67 5f 78 3c fe fc 27 bd 66 69 0f 3d e9 6c 42 3d
       0.015159464 -0.041012757 0.035012625 0.047467146
000050 0a ba 80 bd 59 c3 8b bd c6 27 83 3d 93 66 81 bd
       -0.06285484 -0.06824369 0.064040706 -0.063183926
000060 a9 d0 59 3d 01 87 ca bd e8 70 c8 bd 48 02 ab bc
       0.05317751 -0.09889031 -0.0978716 -0.020875111
000070 b9 75 56 3c b6 2b 41 3d c6 25 ad bd 33 77 a3 3c
       0.013089591 0.047160827 -0.0845447 0.0199543
000080 a4 c3 18 3d 7d 17 13 bd 4b c7 75 bd ff 57 7b 3c
       0.037295952 -0.035911072 -0.060004514 0.015340804
000090 2d df e0 bd c9 fc 39 bd 6f fa 9a 3b 64 23 72 3d
       -0.109800674 -0.04540709 0.004729561 0.059115782
0000a0 ac 84 06 bd 40 3b a6 bd 48 b5 5e bc f2 0b 8b 3d
       -0.03284137 -0.0811677 -0.0135930255 0.06789388
0000b0 ba da 20 bc b9 18 61 bd a4 a3 5d bc ed 7a 0d bc
       -0.0098177735 -0.054955218 -0.0135277845 -0.008635265
0000c0 22 49 c4 3c 39 cc 0a 3d 88 70 33 bd 08 c4 b9 bb
       0.023960654 0.03388617 -0.04380849 -0.0056691207
0000d0 51 9d a3 bc 6d 67 9f bc 9c b9 42 bd 6b 70 7d bd
       -0.019972475 -0.019458497 -0.047540292 -0.06187479
0000e0 17 1b f8 bc 91 7e f0 3c 52 6b b7 bc a0 34 ea 3c
       -0.030286355 0.029357227 -0.022390042 0.028589547
0000f0 15 10 67 bd 11 a3 aa bd a9 0c 83 bd e5 69 9a 3c
       -0.05641182 -0.08331884 -0.06398899 0.018849323
000100 1d 4e ad 3c df 99 0a bc f8 5a f1 bd 54 bb 55 3d
       0.021155411 -0.008459537 -0.11784929 0.052180603
000110 f8 c3 e0 bc 21 2a 0f 3c 28 10 7f bd 47 8f bb bd
       -0.027437195 0.008738072 -0.062271267 -0.09158187
000120 e4 60 c4 bb ea 0b 3c 3d 0d 39 a1 bd 4a d1 90 3c
       -0.0059929956 0.0459098 -0.0787221 0.017677922
000130 44 7d f1 ba b7 19 6d bb 50 08 66 bd fd 23 79 bd
       -0.0018424173 -0.0036178657 -0.05616027 -0.060825337
000140 6c 21 61 bc 46 cb 53 3d 74 71 8b bd 2b d6 0b bd
       -0.013740879 0.05170753 -0.06808749 -0.034139793
000150 03 03 f6 bc d2 f7 27 bc 42 af 90 bb 25 11 8b bb
       -0.030030733 -0.010251956 -0.0044154236 -0.004243987
000160 60 99 b4 3b 5d 33 57 bd 1a c0 f0 3c 72 c3 bf bd
       0.005511448 -0.05253922 0.029388476 -0.0936345
000170 5a 77 49 bd ca 1e bb 3c 1c 8f 85 bb 7c 09 ad 3a
       -0.04918609 0.02284183 -0.004075898 0.0013201679
000180 f1 4c 50 bc d4 60 15 bd ec 6d 38 3d 2a c4 65 3d
       -0.012713657 -0.036469296 0.045026705 0.05609528
000190 5f 97 cd 3c e8 4d 1f 3d e0 09 2d 3d d5 aa c8 bd
       0.025096593 0.038892657 0.042245746 -0.097982086
0001a0 67 60 b3 3c 09 5c 74 bd f7 39 89 3c c6 d2 50 bb
       0.021896554 -0.059658084 0.016751273 -0.0031863912
0001b0 d0 35 f4 3c d0 f4 5a 3d 3e 8a 84 3b 61 42 57 bd
       0.029810816 0.053456128 0.0040448 -0.05255354
0001c0 40 d7 d7 bc e4 d7 14 3d a5 20 9b bc 04 79 78 bd
       -0.026347756 0.0363387 -0.018936465 -0.060662284
0001d0 c1 87 74 3d 6f 46 d4 bc 1b b3 21 3d 51 dd 1f bb
       0.059699778 -0.025912492 0.03947745 -0.002439339
0001e0 6c fe cd 3c bc d9 37 3c 19 95 7e bd f9 84 26 3d
       0.025145732 0.0112213455 -0.06215391 0.040654156
0001f0 38 5b f2 3c b5 1e 79 3c 53 7f 41 bd 66 b1 5d 3d
       0.029584512 0.015205075 -0.047240566 0.05412426
000200 9d 01 9d bc 0f 11 4b bd ba e8 7e 3c bc 6d 1e bd
       -0.019165808 -0.049576815 0.015558416 -0.03867887
000210 aa 97 1a bd f5 86 9f bb 6b 34 69 bb 4e 58 99 bb
       -0.037742294 -0.004868383 -0.0035584222 -0.004679716
000220 bf 7a 58 bd e5 6d 04 3d 08 6b 57 3d 69 a4 95 bd
       -0.052851435 0.032331366 0.052592307 -0.073067494
000230 59 e7 7e bd d0 c1 04 3c 50 ec 90 bd 85 5a d2 bc
       -0.06223235 0.008102849 -0.07076323 -0.025677929
000240 07 c5 97 bd 8f cc 40 3d d6 56 80 3c 71 28 89 bd
       -0.07410627 0.047070082 0.015666407 -0.06697167
000250 7d 75 75 bd 2e bc 2d 3c 84 b0 75 bd 39 65 b3 bc
       -0.0599265 0.010603948 -0.05998279 -0.021898853
000260 fb 21 66 bd ac 18 b5 bc ff 53 ea bd 50 0c b1 3c
       -0.05618475 -0.022106491 -0.11441802 0.021612316
000270 7b b7 a5 bd fc c3 ae bc b9 b1 3f bc 51 cc c2 3c
       -0.08091637 -0.021333687 -0.011700087 0.023779066
000280 4b 4b 76 bd ca 1a 15 bd 04 a6 2f bd c2 9e a3 3d
       -0.0601304 -0.0364025 -0.042882934 0.07989265
000290 da b5 06 bb a4 b6 5b bd 3a 92 4d 3c b2 25 0f bc
       -0.002055517 -0.053640977 0.01254707 -0.008737015
0002a0 eb a6 23 3d 0a 04 52 3b d1 c3 1c bd 5e 46 94 bd
       0.039954107 0.0032045865 -0.038272683 -0.07239984
0002b0 4f 08 7e bb fb 93 c9 3c 07 b8 e9 bb 40 df 60 bd
       -0.0038762277 0.024606695 -0.0071325335 -0.054900408
0002c0 d7 09 aa bb 1b 30 20 3c 88 0a d0 bc f8 e5 60 bd
       -0.0051891613 0.009777094 -0.025395647 -0.054906815
0002d0 7f aa cc 3b aa 46 65 bd a7 74 d7 3c 22 68 77 3c
       0.0062459107 -0.055975594 0.026300741 0.015100511
0002e0 fb 38 01 bd 36 79 88 3c 2d 04 b8 bd 03 d8 7b bc
       -0.03154848 0.01665936 -0.089851715 -0.015371325
0002f0 a3 36 03 bd 0d 2b 5c 3d 43 e2 57 bd c2 1c 8c bd
       -0.032034528 0.053751994 -0.052706014 -0.068414226
000300 f8 8e 90 bd 92 52 1f bd e3 aa 23 bd 23 f5 22 bd
       -0.07058519 -0.038897105 -0.039957892 -0.03978456
000310 f6 8c 4b 3c be fa a4 3b 81 36 fb bb 5b b5 c6 3b
       0.012423744 0.0050347736 -0.0076664095 0.0060640997
000320 c7 0f 9f bc 38 40 3a 3d 1a 0e bd 3c 90 6e b4 3b
       -0.019416703 0.0454714 0.023078013 0.005506344
000330 2e 68 6e bd cf 1f 49 3c 2b 26 89 bd 1c 23 cb bc
       -0.058204822 0.01227565 -0.06696733 -0.024797015
000340 66 80 1d 3d c4 73 47 3c 5a f7 10 3d a9 07 4f 3c
       0.03845253 0.012173597 0.035392143 0.012636104
000350 20 e6 33 3c 96 06 ec 3c bf ea 59 3d e8 e0 50 3c
       0.010980159 0.028811734 0.053202387 0.012748934
000360 db b8 52 3d a9 e2 dc 3c b8 7e d0 bc 13 1f 66 3b
       0.051445823 0.026963549 -0.02545105 0.0035113737
000370 a3 ce bc bc 1e 24 c6 bc b5 16 25 3c 77 37 1b bd
       -0.02304775 -0.024187144 0.010076215 -0.037894692
000380 ed 62 3a bd 18 f9 9e bd 61 25 b0 bd 45 f6 16 bc
       -0.0455045 -0.077623546 -0.086008795 -0.009213989
000390 e1 29 3e bd 02 f3 98 bc e0 73 6b 3b 22 88 76 bc
       -0.046426658 -0.018670563 0.0035927221 -0.015047105
0003a0 53 78 0d bd 66 3a 5a bb f5 18 dd bb 79 f4 92 bc
       -0.03453858 -0.0033298968 -0.00674736 -0.01793884
0003b0 c0 77 23 bd f8 8c 3b bd 5a 26 d6 bd 7a 79 49 3d
       -0.039909124 -0.045788735 -0.10456534 0.049188115
0003c0 e6 33 b3 bd 97 6a 2d 3d c8 fc c4 bd 76 07 e5 3c
       -0.08750133 0.04233798 -0.09618527 0.02795766
0003d0 e1 0c 97 3c c1 da 90 3c fb 83 de 3c c5 c0 cc bd
       0.018438758 0.017682435 0.027162543 -0.09997705
0003e0 3a 85 20 3d 49 a0 98 3c 84 b7 48 bd 89 5b 30 3d
       0.039189555 0.018631117 -0.04900314 0.043056045
0003f0 ee 0b 2e bd 85 9a 0f bd dc 41 40 bd 68 9a 0e bd
       -0.042491846 -0.03505947 -0.04693781 -0.034815222

fc.2.weight f4 [256, 256]
000000 00 63 4b bc da fd 1d bd af df e6 3c bf c1 c0 bc
       -0.01241374 -0.03857217 0.028182833 -0.023529885
000010 0b 6f b5 bc 10 75 a6 bc e8 ee e9 bc ed b1 47 bd
       -0.022147676 -0.020319492 -0.028556302 -0.048753668
000020 38 34 e6 bc 58 af 1d bc 4c cd c6 bc 95 86 7c bd
       -0.028101072 -0.009624325 -0.024267815 -0.061651785
000030 a2 fe 06 bd c9 cd 28 bd bb 18 00 3d 62 62 0f bc
       -0.03295768 -0.041211877 0.031273585 -0.008751484
000040 59 28 6c bc 72 21 73 bc 5f 9c b0 3c 48 6b d3 bc
       -0.0144139165 -0.014839517 0.021558939 -0.025807992
000050 85 cb 23 bd 0f 01 49 3d 27 6c 0b bd 3c dd 26 bd
       -0.039989013 0.049073275 -0.03403869 -0.04073833
000060 e3 2d 22 bc 2f a9 e5 39 14 52 29 3c 2c 4a 84 bc
       -0.009898636 0.00043804335 0.01033451 -0.01614865
000070 ac 5a 1b bc e5 08 ec bc f2 30 6f bd 6f 81 3d 3d
       -0.009482067 -0.028812835 -0.058396287 0.046266016
000080 5d ff 54 3d 01 2a 85 bc 11 66 87 bd a8 e9 7d 3c
       0.052001346 -0.01625538 -0.066112645 0.0154976025
000090 4a 5f 5b 3c 78 e7 40 3c e0 22 49 3d a8 e6 24 bd
       0.013389418 0.011773936 0.049105525 -0.040259033
0000a0 cc 98 11 3d f2 d3 2f 3d 50 d2 0b bd 15 2e 10 3d
       0.03554611 0.042926736 -0.034136117 0.035200197
0000b0 20 02 37 3d 89 4d 4e bd 79 65 25 bd 94 e1 a0 bc
       0.04467976 -0.050366912 -0.040379975 -0.019638814
0000c0 ec 23 40 bd 7b 7f 5d bd f9 fd a2 3c f2 63 43 3d
       -0.046909258 -0.054076653 0.019896494 0.047702737
0000d0 ef d7 d0 ba 32 3f 2a 3d 88 66 a2 3b 26 22 4e 3d
       -0.0015933494 0.041564174 0.0049560703 0.050325535
0000e0 5f d0 c5 ba b8 d9 93 3c 53 77 42 3c cd 76 2a bd
       -0.0015092007 0.018048152 0.011869269 -0.041617204
0000f0 df 09 a7 3c 59 a8 2e 3d 18 c6 8e bc c7 7f 2c bc
       0.02039045 0.042641018 -0.017428443 -0.010528511
000100 80 9c 91 ba f4 b1 05 3d a0 ac b9 3c 4c e2 90 bd
       -0.0011109263 0.032640412 0.022665322 -0.07074413
000110 83 6f 82 bb 96 bb f6 bc 74 af 20 bd 09 4e fa bc
       -0.0039805784 -0.030118745 -0.039229825 -0.030554788
000120 ac 41 65 bd dd 9a 57 bd 4c 6b 66 bd cc 53 3a 3c
       -0.055970833 -0.052637924 -0.05625467 0.011372518
000130 72 c2 df 3c 34 9c 84 bd 45 91 e2 3c ac a2 38 bd
       0.027314398 -0.06475106 0.02765716 -0.04507701
000140 c2 dc 2a bc cc 86 2e bd 2c 5e 8b bc 52 a5 7c bd
       -0.010428609 -0.04260902 -0.017012678 -0.0616811
000150 9b 6b c9 3c 5c 47 45 3b c8 e1 a8 3b 9c 90 d3 3c
       0.024587443 0.0030102348 0.0051538683 0.025825791
000160 a3 0b fe bc d3 27 63 3d b1 20 7b 3b fc e1 7d bd
       -0.031011408 0.0554579 0.0038319046 -0.061983094
000170 2e 31 6d bd 8f 7f f0 bb a4 f1 7a 3a 63 ef 28 bd
       -0.05790823 -0.007339425 0.00095727504 -0.041243922
000180 a1 a7 b3 3c 8a 69 1d 3d c4 0a 1d bd 7f cb b2 bd
       0.021930518 0.038430728 -0.038340345 -0.0873022
000190 57 58 47 3d fa ef cd bc d0 2a 8c bb 04 44 a2 3c
       0.04866823 -0.025138844 -0.0042775646 0.019807823
0001a0 dd 4c 20 bd a0 16 44 3d 93 5f 26 bc 40 52 9c bd
       -0.039135803 0.04787314 -0.010154623 -0.076328754
0001b0 59 77 4a bd 40 74 a2 ba 16 b7 13 bd 8e 2e b9 3c
       -0.049430225 -0.0012394264 -0.036063276 0.022605207
0001c0 d7 03 7f 3c c1 0e 38 bd 5e 85 cc bc ac d4 f9 bc
       0.01556488 -0.044935945 -0.024965938 -0.030496918
0001d0 5a d4 15 3c ec 5d 68 bd 18 a7 55 3d 2c 23 a2 bb
       0.009144867 -0.056730196 0.052161306 -0.0049480405
0001e0 08 58 5f bc e4 52 83 3b b0 c9 54 bd 7e 7b ec 3c
       -0.013631828 0.004007684 -0.051950157 0.02886748
0001f0 65 fa c0 3c c1 b2 8b bd bc cc 6f bd 17 87 4f bb
       0.023556897 -0.06821204 -0.05854486 -0.0031666213
000200 f5 2f 99 bc e0 f6 09 3c 48 c4 82 3c 13 07 42 bd
       -0.018699626 0.008420676 0.015962735 -0.047370028
000210 a0 21 17 3b 6c fd 3d 3d d3 dd cd bc 0b f1 0f 3d
       0.0023060814 0.04638426 -0.025130188 0.035141986
000220 fc ab 9d bc 23 67 b7 3b 7d 80 17 3d 32 fd e7 3c
       -0.019247048 0.0055970117 0.03698777 0.028318975
000230 06 d8 b8 3c 46 f3 14 bd 7a 83 e9 3b 21 4d e6 bb
       0.022563946 -0.036364816 0.007126269 -0.0070282375
000240 dd 52 1c 3d 88 a3 3a bc a4 8b ba 3c 6a dc 5f bd
       0.038164962 -0.011391528 0.022771664 -0.054653563
000250 36 32 a0 3c b9 02 05 bd c2 ec 3a b9 5c 91 50 3c
       0.019555192 -0.0324733 -0.00017826541 0.012729969
000260 58 f7 82 bd 98 ee 5b bc e7 ec 76 3c 60 bb cf bc
       -0.06394833 -0.013423584 0.01507113 -0.025357902
000270 f8 72 dc 3c 9c b3 18 3d e0 62 83 bd ac 17 38 3d
       0.02691029 0.037280664 -0.06415343 0.04494445
000280 a7 01 48 bd 57 3a 04 bd 51 43 a1 3c 94 d9 87 b9
       -0.0488297 -0.0322822 0.01968542 -0.00025911315
000290 9c ca 0a 3d 12 39 a0 bc 88 54 00 3d 7e 67 30 bd
       0.03388463 -0.019558463 0.031330615 -0.043067448
0002a0 dc 82 c5 3c 49 47 20 bd e1 f9 00 3d d5 5b d9 3b
       0.02411025 -0.039130483 0.031488303 0.0066332617
0002b0 56 cf 15 bd e4 84 1a 3c ca 72 59 bd 09 a5 50 bc
       -0.036574684 0.009431098 -0.053087987 -0.01273466
0002c0 3b 00 34 3d 70 96 8c bd 0b 33 4c bd 1c 34 5d bd
       0.043945532 -0.06864631 -0.049853366 -0.054004773
0002d0 05 1d 61 3d d4 f7 e6 bb af ca 77 bc f8 e3 e0 3c
       0.054959316 -0.0070485864 -0.015124007 0.027452454
0002e0 1d eb 62 3d 4f 32 d8 bc d8 e0 56 3d c3 c9 a4 bc
       0.055400003 -0.026391177 0.05246052 -0.020115739
0002f0 0a 18 d0 39 45 8d 49 bb 80 5e f1 3b f7 da c4 bb
       0.00039690762 -0.003075437 0.0073660016 -0.006007548
000300 29 9c 81 bd 05 d6 08 3d 53 75 09 bd 92 49 03 bc
       -0.06328613 0.03340723 -0.033559155 -0.008013146
000310 86 0d 18 3d 6d 8a 8a 3c e5 9c 3e bd 90 cd 80 bd
       0.037122272 0.01691171 -0.046536345 -0.06289208
000320 ec 3c cf 3c fc e3 64 bc 67 d6 73 bd 93 cf 29 bb
       0.025297605 -0.013970371 -0.059530642 -0.0025911077
000330 d5 63 75 3d 11 84 6e bd 6f 57 0c 3d 08 79 7c bd
       0.05990966 -0.058231417 0.03426307 -0.061638862
000340 60 e9 4f 3b 24 d7 56 bc bf fd 9c bb 23 28 0f bc
       0.0031724796 -0.013112817 -0.004790991 -0.008737597
000350 fa ad be bc d9 37 31 3c 97 40 e4 bc 48 53 6f bc
       -0.023276318 0.010816538 -0.02786283 -0.014607258
000360 e2 9b fe bc 20 3e 3d bc 0b e5 3d 3c 75 c1 30 3d
       -0.03108019 -0.011550456 0.011590253 0.043153245
000370 2e d6 99 3c bf b9 d9 bc 1c 91 01 bd 86 d2 7e bd
       0.018778887 -0.026577828 -0.031632528 -0.06221249
000380 38 18 a5 bc 68 bd ee bc 80 cb 81 3c 23 d5 40 3c
       -0.02015315 -0.02914305 0.015844107 0.011769566
000390 2b 38 2e 3d 97 4f 39 bd c5 68 94 bb f4 63 8b bd
       0.042534035 -0.04524192 -0.004529091 -0.06806174
0003a0 ac 81 5b 3c 7f 36 54 3c 2a c0 94 3c 04 9c 38 bd
       0.013397615 0.012952446 0.018158037 -0.045070663
0003b0 70 08 47 3c 74 06 1c 3d fe 61 a7 bc e5 9a 7b 3b
       0.012148008 0.03809209 -0.020432469 0.0038391885
0003c0 0f 58 3b 3d 2d 60 6f bd 42 27 57 3c 87 5c f5 3c
       0.045738276 -0.05844133 0.013131918 0.029951347
0003d0 09 62 b4 bc 2e 2a 56 bd 80 cd 4f bb cc ae 80 bd
       -0.022019403 -0.05228632 -0.003170818 -0.0628334
0003e0 fc a5 06 bd d0 f7 00 bc ac d0 c4 3b 9c a3 54 3d
       -0.03287314 -0.007871583 0.006006321 0.051913843
0003f0 c1 9b d8 3c 89 3e 07 b7 3b ea 90 bd 64 11 fe bc
       0.026441457 -8.061187e-06 -0.07075926 -0.031014152

fc.2.bias f4 [256]
000000 e5 96 75 bd 41 c0 d0 bd f0 de 0e be d8 3c 71 3d
       -0.059958357 -0.101929195 -0.13952231 0.058895916
000010 b3 7d 65 bd 2b db 71 bd a3 4f 44 3d 7b f7 58 bd
       -0.05602808 -0.059046905 0.04792751 -0.05297039
000020 77 10 1f bd 10 db a8 bd 7b c9 cc ba a0 e1 d1 bd
       -0.03883406 -0.08244908 -0.0015624011 -0.10248113
000030 df 79 51 bd af 10 df 3c f1 56 66 bd 9e bb 49 bd
       -0.051141616 0.027229635 -0.056235258 -0.04925119
000040 09 1a 36 3d e9 ec 48 bd e1 8f cb ba 47 23 2e bd
       0.044458423 -0.04905406 -0.001553055 -0.04251411
000050 26 6a 53 bb b3 3a d6 3b b9 3a 29 3c 7a 71 25 be
       -0.0032259314 0.006537759 0.010328942 -0.16156569
000060 9e 6d f0 3a 23 23 3a bd 3c 33 12 3d 55 ae 58 bc
       0.0018343215 -0.045443665 0.035693392 -0.013225158
000070 63 46 50 bd f0 75 9e bd 4e 55 e9 bd 4f b2 0d 3d
       -0.050848376 -0.077373385 -0.11393224 0.034593876
000080 ce c4 0b bd 67 53 5a 3c 50 72 82 bc 66 38 c3 bd
       -0.034123234 0.013325549 -0.01592365 -0.095322415
000090 25 e0 b1 bd 0e 47 1e bd 48 18 93 bd aa 75 74 39
       -0.0868533 -0.03864198 -0.07182366 0.00023313487
0000a0 ce 75 98 3c 82 cc 69 bb df f4 97 bd 4f 00 91 bd
       0.018610861 -0.0035674875 -0.07419752 -0.07080137
0000b0 6e d4 a2 3c 31 96 74 bd 18 9f 07 bc 25 46 fb bc
       0.019876685 -0.059713546 -0.008277677 -0.030673096
0000c0 e2 da a9 3d 5c ff 7a bd c9 2d bd 3b 45 c1 e1 3c
       0.08293702 -0.061278686 0.0057732803 0.027557978
0000d0 c5 26 9b 3c 0e 24 20 bd d8 f4 95 bd 91 40 b4 bd
       0.018939385 -0.039096884 -0.07322091 -0.088013776
0000e0 56 d3 d8 3c a8 5d e5 bd 00 79 38 bd 54 e2 83 3c
       0.02646796 -0.11199504 -0.04503727 0.016099133
0000f0 2c 65 7f bd be a2 a6 bb 29 d1 ce bc df 8f e9 bc
       -0.062352344 -0.0050853183 -0.02524622 -0.028510986
000100 53 3f ef bb 4d d9 5a bd 60 1a cb 3c 94 9d b4 bc
       -0.00730125 -0.05342989 0.02479285 -0.022047795
000110 29 62 a2 bd 42 f0 41 3d 74 a3 09 bd 2c 3e df bd
       -0.07928879 0.04734827 -0.033603147 -0.1090053
000120 93 c8 0e 3d 2e 99 f3 3c 08 29 78 bc f9 e2 46 bc
       0.03485925 0.029736128 -0.015146501 -0.012139075
000130 ed a6 99 bd 0b 61 9f bd 28 99 d3 bb 45 28 3b 3d
       -0.07502542 -0.07782181 -0.0064574666 0.0456927
000140 09 dd aa bd d8 c2 76 bd 69 86 02 bd 97 46 3e 3b
       -0.0834294 -0.06024441 -0.031866465 0.0029033774
000150 1d 40 19 3d f4 d0 51 3d e3 ef 03 be b5 80 b6 bd
       0.03741466 0.051224664 -0.12884478 -0.08911268
000160 34 bc 07 bd 7c b6 bb bc c4 d8 58 bd 02 69 77 bd
       -0.03313847 -0.022914164 -0.0529411 -0.060402878
000170 b6 86 cc bd 36 be 10 3c 1d 68 8b 3c fc ba 55 3b
       -0.099866316 0.008834412 0.017017419 0.0032612672
000180 20 06 84 bb 8c db 5e bd 60 b8 fe bc d7 2a 38 bd
       -0.0040290505 -0.054408595 -0.031093776 -0.04496273
000190 5a 38 c9 bc 1b 29 0a 3c 25 22 01 3d b0 1e 8f bc
       -0.024563003 0.008432652 0.031526703 -0.017470688
0001a0 a4 e2 90 bd 22 91 f7 3b 6e 7c cc bd f4 37 a9 bd
       -0.07074478 0.007555143 -0.099846706 -0.08262625
0001b0 c4 9c b6 bd 0e d3 35 bd 0d 71 36 3c 8a c2 5d bd
       -0.089166194 -0.04439073 0.011135352 -0.054140605
0001c0 61 41 88 bd 59 4e 10 bc a8 1b 03 3a d1 42 78 bd
       -0.06653095 -0.008807742 0.00050013745 -0.060610596
0001d0 d9 77 e9 bd 26 78 60 bc dd 51 b7 bd fb de ee bd
       -0.11399812 -0.013700521 -0.08951161 -0.11663624
0001e0 1e f1 2c bd 09 3d 2d 3d 17 14 28 bd 39 c9 c0 bd
       -0.042222135 0.042294536 -0.041034784 -0.0941338
0001f0 a6 11 87 bd af 9d 09 be e6 83 ca bb 1f 0e 60 bd
       -0.06595163 -0.13439058 -0.0061802743 -0.054700967
000200 73 83 0a 3d 4d b8 cc bc 4d 37 27 bd 3c fb aa bd
       0.033816766 -0.024990225 -0.040824223 -0.083487004
000210 c8 15 38 bd d2 04 b6 3b cf 2d c1 3d 0e f6 aa bd
       -0.044942647 0.005554774 0.094325654 -0.083477125
000220 21 74 77 3d 00 68 87 3d 52 be 22 3d 7e 6a 8d bd
       0.060413484 0.06611633 0.039732285 -0.069050774
000230 78 9c 72 bc 08 db 4c bd c5 11 81 bc 2c 00 33 3d
       -0.014807813 -0.050013572 -0.015755543 0.043701336
000240 ed ea a5 3a fa 9b 3a 3d 71 89 38 bd 7d a7 bd b9
       0.0012658514 0.045558907 -0.04505295 -0.00036173678
000250 75 07 54 bc d2 c1 92 bd ed d2 58 bd 31 53 1b bd
       -0.012941231 -0.071658745 -0.05293553 -0.037921134
000260 c2 73 8f 3c 0b 35 5f bb e6 38 b9 3d 65 58 a9 bd
       0.017511252 -0.0034058716 0.09044056 -0.08268813
000270 40 8b 49 bc d7 6e 90 bd ed cb 1c bd 6e b0 3a 3d
       -0.012301266 -0.07052391 -0.038280416 0.045578413
000280 8b 48 0f 3c e6 c0 cd bd 3c aa 0a 3d a0 33 0d bd
       0.008745323 -0.10046558 0.033853754 -0.03447306
000290 df e4 8e 3d 89 6f 62 bd d1 8a 04 3c 81 eb ff bc
       0.069772474 -0.05528215 0.008089737 -0.031240227
0002a0 a5 45 b2 bd 6f 05 2e 3d 24 cb 22 bd 10 48 a7 bb
       -0.0870469 0.04248565 -0.03974451 -0.005105026
0002b0 6b 45 bf bd 76 d6 02 3d 90 e1 99 bb 3c e3 00 be
       -0.09339412 0.031942807 -0.0046960786 -0.12586683
0002c0 97 a9 a1 bc 74 4a 2c bd ba 46 8b bd fd 93 94 3d
       -0.019734187 -0.04206319 -0.068005994 0.07254789
0002d0 df 97 a3 39 77 5a 00 3b 41 7b 40 bc ff 6f 91 bd
       0.00031202935 0.0019585171 -0.011748136 -0.0710144
0002e0 7e 8d f6 bc 06 30 d1 bb 8a d3 6b 3d 48 c0 cc 3c
       -0.030096766 -0.0063838987 0.057574786 0.02499403
0002f0 ff 3e 0e 3c f4 dc 0d be 21 4c d0 bd aa 52 b0 bd
       0.008682012 -0.13853818 -0.101707704 -0.08609517
000300 df 22 bd bd 19 52 a8 bd 26 18 73 3d c5 bd c1 3d
       -0.09235167 -0.08218784 0.0593492 0.09460024
000310 aa 4e 96 bd be eb 4a bd 9e 1d 74 3c f1 5a aa bc
       -0.07339223 -0.049541228 0.014899639 -0.020795317
000320 10 ff 8b bd a7 60 d7 bb b6 77 35 3d dd c5 b0 bd
       -0.06835759 -0.006572801 0.04430362 -0.086314894
000330 0b 06 e6 39 38 4d 57 3d 64 ac a7 3c 81 43 67 bd
       0.0004387352 0.052563876 0.020467944 -0.05646086
000340 5f 49 ca bb 66 71 92 bd b1 d1 a1 3c b6 d5 b7 bc
       -0.0061732973 -0.07150535 0.019753309 -0.022440773
000350 5a 22 68 bd a6 dd e7 bc f9 da c1 bd 13 4a 4d 3d
       -0.056673385 -0.028303932 -0.09465594 0.05011947
000360 c0 2d 30 bd 0b 4b 97 bd 90 a4 93 3b fa 8e c1 3d
       -0.04301238 -0.0738736 0.0045057014 0.09451099
000370 5a 46 27 be d2 cf 3f 3d e7 b2 b3 bd a8 bc 7f bd
       -0.1633543 0.046829052 -0.08774357 -0.062435776
000380 4a 92 04 bd c7 21 51 3d a5 20 f8 bc 5c a6 06 3c
       -0.032366075 0.051057603 -0.030289004 0.008218374
000390 b5 b5 b4 bc 10 bd 2d 3c 69 e1 3d bd 22 d9 17 bd
       -0.0220593 0.010604158 -0.046357546 -0.03707231
0003a0 47 83 a6 bd 0f ed cc bc 2d 59 a5 bd 08 16 e2 bd
       -0.08130508 -0.025015382 -0.080736496 -0.110393584
0003b0 d1 14 f9 3b c4 be 1a 3e b1 dd 77 bc e7 2a b0 b9
       0.0076013585 0.15111834 -0.015128539 -0.000336013
0003c0 49 0b 45 3c fd 4d 5e bd bd 23 4e 3d cd 94 78 bb
       0.012026616 -0.054273594 0.05032705 -0.003793049
0003d0 f4 7d 9d bc 2d aa 1a bd c5 4d 48 bc 1c 89 3c 3b
       -0.019225098 -0.03775995 -0.012225573 0.0028768247
0003e0 bc 60 49 3c 27 56 8a bc e9 a7 92 bc 52 66 4c bd
       0.01229113 -0.016886784 -0.017902331 -0.049902268
0003f0 2b a8 e9 bc 85 7e ad bd bd 88 04 be e3 f8 69 bd
       -0.028522572 -0.08471397 -0.12942787 -0.057122122

fc.4.weight f4 [256, 256]
000000 86 0e 43 bd cb 2e 62 be f0 8f d1 3d 89 3e aa bd
       -0.047621273 -0.22088163 0.10232532 -0.08312709
000010 51 9c 80 bd 93 34 c0 3b c6 29 79 bd 75 18 1b bd
       -0.06279815 0.0058656423 -0.060830854 -0.03786512
000020 94 22 cc 3a ae 2e ef 3b 27 ee 43 bd cb d3 28 bd
       0.001557427 0.007299266 -0.04783454 -0.041217607
000030 5f 58 9f 3d b0 bd 43 3d 07 c5 10 be 64 6a 7a 3d
       0.07780527 0.047788322 -0.1413766 0.06113662
000040 1c d7 2f 3c b2 ad 83 bc 95 4e 34 3d f5 25 4f 3d
       0.010732438 -0.016074035 0.044020254 0.050573308
000050 09 e7 8f 3c 3a e0 a2 3b 5c 27 7b bd 87 50 95 bd
       0.01756622 0.0049705775 -0.061316833 -0.0729075
000060 ae 83 d1 ba 6b 8d 13 3c 31 ef 1f be e2 98 a7 be
       -0.0015984678 0.009005885 -0.15618588 -0.32733828
000070 c2 e0 aa 3c b9 bd 9d bc 3c 24 39 3d 0b 8a 07 be
       0.020859126 -0.019255506 0.04520057 -0.13236253
000080 84 d9 90 3a c5 c1 f0 bb 6e 5f e8 3c fc f3 f9 3c
       0.0011051153 -0.007347318 0.028365817 0.030511849
000090 cc 3b 0b bc a3 f0 73 bd c0 1f fd bb c1 5a 4a bd
       -0.008498143 -0.05955566 -0.007724732 -0.049402956
0000a0 19 24 87 3d d1 bd b4 bd 78 05 4d 3d 20 c5 60 bd
       0.06598682 -0.08825267 0.050054044 -0.054875493
0000b0 6c e6 0e be 3a c4 25 bd b1 df 55 3d 56 e9 b4 bd
       -0.13955086 -0.04047034 0.052215282 -0.08833568
0000c0 9f d9 41 3c 93 ba 10 ba 5d 86 96 bd 40 f1 e3 3c
       0.01183167 -0.0005520966 -0.073498465 0.027824998
0000d0 7d 79 60 3b fc 71 eb bc 3e 15 d0 3c f6 de 79 bd
       0.00342521 -0.028740875 0.025400754 -0.061003648
0000e0 ff c7 57 bc 02 ee 23 3e 21 7a 8a bc c3 8c 0a 3d
       -0.013170241 0.16008762 -0.016903939 0.033825647
0000f0 ce df db bc cd 60 48 3d 0a db 0a be b2 23 bb bb
       -0.026840117 0.04892044 -0.1356012 -0.0057110423
000100 0e 75 6c bd f8 00 47 bd c0 ed 63 3b b8 62 de 3a
       -0.05772882 -0.04858491 0.0034779161 0.0016966676
000110 46 d6 51 3d 60 55 16 bd e7 13 6e bb 69 81 96 3d
       0.051229738 -0.036702514 -0.003632778 0.07348902
000120 34 56 18 bd 1c 6b 62 3e e0 1e 5d 3c 76 56 ba 3e
       -0.037191585 0.22111171 0.013496131 0.3639409
000130 d3 14 c7 bc 34 88 55 3c f2 7d 02 3d f5 9a 84 bd
       -0.024301922 0.013032962 0.031858392 -0.06474868
000140 ad 70 98 3d 0d a2 61 bc af 18 68 3d e6 2d bf 3c
       0.07443366 -0.013771546 0.056664165 0.023337316
000150 ca 47 a8 bc fa c9 6b be bc 61 9c 3d d9 64 a8 3d
       -0.020542044 -0.23026267 0.07635829 0.0822236
000160 a1 9f 73 3d 8f 7d 35 3e df ef 4a be 2b 6d a4 3c
       0.059478406 0.17723678 -0.19818066 0.020071587
000170 89 bc 55 3d 16 1e 67 bd 86 3e d6 3d 93 ad 31 3d
       0.052181754 -0.056425177 0.10461144 0.043378424
000180 ea 10 1d bd 85 c7 23 3d 88 16 01 3d 88 e4 5f 3c
       -0.03834621 0.0399852 0.031515628 0.013665326
000190 87 ee cf 3c c4 1b 48 bd a2 c7 be bc 82 d0 6e 3c
       0.025382293 -0.048854604 -0.023288552 0.014576079
0001a0 c2 72 00 3d fb f1 90 bd 46 32 5a 3d a2 5a a5 3c
       0.03135944 -0.07077404 0.0532706 0.020184819
0001b0 06 08 e3 ba 58 40 52 bc 63 c5 80 3d af 2e 5b bd
       -0.0017321117 -0.012832724 0.062876485 -0.053511318
0001c0 d7 1c 79 bd c7 9c 96 bd 61 94 46 3c f9 2b 9e bd
       -0.06081852 -0.07354122 0.012120337 -0.07723231
0001d0 02 79 97 3e c3 9a e2 3d 64 67 0b 3c ff de 00 bd
       0.2958451 0.11064675 0.008508537 -0.031462666
0001e0 16 74 34 3d a8 af c5 3c 38 53 18 ba ce b8 6c 3d
       0.04405602 0.024131611 -0.00058107404 0.05779343
0001f0 44 6d 83 bd db d4 b2 bd 56 3d f4 3c e3 03 43 bd
       -0.06417325 -0.08732005 0.029814404 -0.04761113
000200 12 00 8e ba 40 45 06 3b e0 5c 55 3b 3b fa 4b bc
       -0.0010833761 0.0020488054 0.0032556579 -0.012449796
000210 d4 08 bc bc e5 ce 00 bd b5 00 37 be 03 4e 1a bd
       -0.022953428 -0.03144731 -0.17871363 -0.037672054
000220 73 1a aa bd 2f 50 6f 3d af 8d f8 3d 72 1c 6c bc
       -0.08305826 0.05842608 0.12136399 -0.014411079
000230 0d 64 d5 bc 80 e3 6a bd 90 10 48 3d 3a 4b 29 be
       -0.026048684 -0.057345867 0.04884392 -0.16532603
000240 55 b2 b8 bc 62 d7 24 3c fe dd 2e bd 71 3b d5 bd
       -0.022545973 0.010061117 -0.042692177 -0.10411728
000250 0e 4b 53 3c 30 8c c5 3c 5e f5 6b bd e7 7b c8 bc
       0.012896312 0.024114698 -0.057607047 -0.024473144
000260 97 9c ea 3c 07 f3 f1 bb 74 d7 bf bd 8b e4 e0 bc
       0.028639121 -0.0073837074 -0.09367266 -0.027452728
000270 80 05 b8 3c ec fe d7 3b 40 2c 60 3d 75 21 1b 3d
       0.02246356 0.0065916684 0.0547297 0.037873704
000280 9f 5c a7 3d eb e7 1c 3e e9 da f4 bc da f6 5c 3d
       0.08171963 0.15322845 -0.02988954 0.053946353
000290 e2 e9 97 3d c1 ce 22 3d 3b 48 a0 3c 0f 95 05 3c
       0.074176565 0.039747957 0.019565692 0.008153214
0002a0 42 23 27 bd da d4 79 bc 6a 79 4c be 66 08 2a 3d
       -0.04080511 -0.015248502 -0.19968191 0.041511916
0002b0 c2 47 97 bd f1 4c 1c 3b f4 13 59 bc bd 6b 52 3d
       -0.073867336 0.0023849572 -0.013249386 0.05137228
0002c0 46 4c 6f bd 8d e0 92 bc 85 6e 95 3c 24 a2 d4 bd
       -0.05842235 -0.01792934 0.018241176 -0.10382488
0002d0 da 8a 89 bb 00 05 3d 3d ae e7 c3 3b 51 be 2f bd
       -0.0041974606 0.046147346 0.005978546 -0.04290611
0002e0 02 2c a2 bd 64 41 31 bc 7d 43 20 be 0f 80 13 be
       -0.0791855 -0.010818813 -0.15650745 -0.14404319
0002f0 ab 31 aa bd f3 0f 8a 3d 2c a6 b8 3d 3b 6a 87 3d
       -0.08310255 0.06741323 0.0901607 0.06612059
000300 84 71 30 3e 1a 7a 47 3d c7 31 d6 bc 63 77 17 bd
       0.17230803 0.04870043 -0.026146783 -0.03697909
000310 6a b2 ba bd 12 6e 82 bd 8c 71 4a 3d 65 e4 71 bd
       -0.09116061 -0.063686505 0.049424693 -0.059055705
000320 1c 31 7f bd f1 dc 0a 3d 64 0a aa be 8c d2 f6 bc
       -0.062302694 0.033902112 -0.33211052 -0.030129693
000330 6c 2e 99 3d 22 8c 18 be 13 ce 5b 3d 44 72 5a bd
       0.074795574 -0.14897206 0.053663325 -0.05333163
000340 68 63 42 3d 6a 6c 5f 3d b5 8c 57 3d 41 33 aa bc
       0.047458082 0.05454675 0.052624423 -0.020776393
000350 43 3e 44 3d 92 f3 22 be c8 09 29 bd a1 0a 64 bc
       0.04791094 -0.15913227 -0.041269094 -0.01391855
000360 97 d5 17 3e 88 65 bc bb 6a af cd 3c 0b ad 2e be
       0.14827572 -0.005749408 0.025108058 -0.17058198
000370 0f 6b 6e bd 41 d8 58 be 6a 84 47 bd 20 06 b7 3d
       -0.058207568 -0.21176244 -0.048710264 0.08936715
000380 1a 23 70 bd ed 5a 92 3b 64 a9 a6 bb 2b 3d 01 be
       -0.058627225 0.0044664056 -0.005086111 -0.1262099
000390 25 b9 f5 bc f1 c3 84 bc 65 da 91 3c 3c 36 c0 bc
       -0.02999551 -0.016206713 0.017804334 -0.023463361
0003a0 d4 af 03 bd 5f 20 3d 3d 62 b8 f8 bc e7 46 9a ba
       -0.032150105 0.04617345 -0.030361358 -0.0011770398
0003b0 3c c4 55 3c bd 5d 17 bf c0 61 63 bd 24 65 f7 3a
       0.013047274 -0.5912741 -0.055513144 0.0018874747
0003c0 f8 8d 57 3c a2 57 16 bd 5b 42 8e bd ed d8 14 bc
       0.013156407 -0.036704667 -0.0694625 -0.009084922
0003d0 d7 cf 55 be aa 34 b7 3b 06 72 49 3c 6f 35 ed 3c
       -0.20880066 0.005590995 0.012295252 0.028956143
0003e0 c2 ec 29 3d f0 88 60 3d 24 cc 27 3e bd 45 47 3d
       0.041485555 0.054818094 0.16386467 0.048650492
0003f0 3b 22 5f 3d fe 7d 27 bc aa 33 ab 3d e1 e6 9b bb
       0.054476004 -0.01022291 0.083594635 -0.0047577475

fc.4.bias f4 [256]
000000 0c bd 65 be 9b 49 0e 3e 1f 46 8a 3d 56 53 ae bc
       -0.22435397 0.13895266 0.06751656 -0.021279972
000010 2a d1 8b bc b2 a1 e4 bd 2d 36 25 be 8b dd a8 bd
       -0.01706751 -0.111636534 -0.16133948 -0.08245381
000020 47 e2 6c 3d b6 36 bf 3c bc 72 a5 3c ce 8a d2 b9
       0.057832982 0.023341518 0.020196311 -0.0004015774
000030 20 6e 95 bd 8f 96 b4 bc cd 33 06 3d d4 d1 dd bc
       -0.07296395 -0.022044448 0.032764245 -0.027077593
000040 0b d6 b2 bd 63 19 b0 bc 93 1e 5a bd 55 c6 b9 3c
       -0.08732232 -0.02149648 -0.053251814 0.02267758
000050 d0 d1 ad 3b 08 96 3d be 1d e4 52 bd 99 98 ca 3d
       0.0053045526 -0.18514264 -0.051487077 0.09892387
000060 fc 72 b1 bb 1d 41 07 bb 3d 25 c6 bd 06 8c 4f 3d
       -0.0054153185 -0.0020638176 -0.096750714 0.050670646
000070 da 12 c9 bd 7a dd 57 bd e2 c8 3c bd e8 1a 87 bd
       -0.09818049 -0.05270145 -0.046090014 -0.06596929
000080 20 67 96 3d be 06 b5 3d f2 2f 96 bd 1b 06 95 bd
       0.07343888 0.088391766 -0.073333636 -0.07276555
000090 0f 2e 83 bc e8 3d bc 3d 4c 4e f2 bc fa ae fe 3d
       -0.016013173 0.09191495 -0.02957835 0.12435718
0000a0 2b 3b a6 bb 8e b6 52 bd 95 59 3b bc cd 54 4f 3d
       -0.0050729713 -0.05144363 -0.011434932 0.05061798
0000b0 d6 ce ce 3d 7d 7e b5 3d 29 2c b3 3d 9d d7 25 bc
       0.100980446 0.08862016 0.08748657 -0.010122207
0000c0 64 67 ac bd 21 6b f0 3d df dd 03 be 09 aa 8b bd
       -0.08418158 0.11739183 -0.12877606 -0.06819541
0000d0 d4 50 ac 3e 05 8c 5c 3d e4 f8 b1 bd 46 1d 96 bd
       0.33655417 0.05384447 -0.0869005 -0.07329802
0000e0 fd 1b 26 be a3 b2 d0 3c 30 30 0e be e0 cf 34 3c
       -0.16221614 0.025475806 -0.1388557 0.011035889
0000f0 96 04 4a bc bf 05 8e 3d cb f3 03 be ba a6 d0 bd
       -0.012330195 0.0693469 -0.12885968 -0.101880506
000100 d1 78 10 ba 98 ba e4 bc 65 56 66 3d 38 2b 35 3d
       -0.0005511167 -0.027921006 0.056234736 0.04423067
000110 3f a2 9c bd ba 31 cb 3d ab 73 63 bd 15 c8 d3 3d
       -0.076481335 0.09921594 -0.05553023 0.10340897
000120 7f e2 88 3d 51 2f 90 3d c3 2c cf bd aa 9c 1c 3b
       0.06683826 0.07040275 -0.101159595 0.002389709
000130 76 3c ff bd 39 73 eb 3d 52 31 a0 bd 29 8f 8a 3d
       -0.12462704 0.11496586 -0.07821907 0.06765587
000140 af 60 ff bd a1 b2 8b bd 99 1c 5e 3d bb 20 09 3d
       -0.12469613 -0.0682118 0.05422649 0.03347848
000150 3c a8 43 3d 34 96 39 bd 0c 17 70 3d 00 f2 d5 bd
       0.047767863 -0.04530926 0.05861573 -0.104465485
000160 6a e3 2d 3e 23 c5 2c bd d3 0e f0 bd 63 9e df 3d
       0.16981283 -0.04218019 -0.117215775 0.10918882
000170 34 cf ef bd 38 6e cb bd 9f c3 69 3c c6 7c 67 bd
       -0.11709443 -0.09933132 0.014267831 -0.056515478
000180 3a 47 3f be eb 91 fa 3d a9 81 28 bc b8 95 a6 3d
       -0.18679515 0.12234863 -0.01028482 0.08134025
000190 21 7b 3f 3e 95 24 92 bd b4 42 df 3d ff 79 21 be
       0.18699314 -0.07135884 0.109013945 -0.15769194
0001a0 c7 7b 7d bd 87 18 8a 3b 15 f8 bf bd 08 e7 b8 bc
       -0.06188562 0.0042143497 -0.0937349 -0.022571102
0001b0 54 d9 2b bc e5 1d df 3d 46 17 85 bd 5a 0f 79 bd
       -0.010488827 0.10894374 -0.0649858 -0.060805656
0001c0 ad 0d 32 bd 7d c5 b0 bc fa e7 b7 bc c7 92 54 3e
       -0.043470073 -0.021578545 -0.022449482 0.20759116
0001d0 21 27 9d bd 53 32 9f bc 3e 96 1f 3d 89 3f 1b bd
       -0.07673479 -0.019433176 0.03896164 -0.03790239
0001e0 19 75 af bd 59 57 26 3e 74 3c 0b 3e e5 af 1a 3d
       -0.085672565 0.16244258 0.1359728 0.037765402
0001f0 21 d2 35 be 76 88 2e be 28 4a 80 bd 80 89 9e 3d
       -0.17755939 -0.17044243 -0.06264144 0.0774107
000200 13 ab 8f 3b 6e d2 48 bc c4 c8 96 bc 71 77 ad bd
       0.0043844073 -0.012257202 -0.01840628 -0.08470047
000210 80 55 41 bc df 75 50 bd 87 c0 15 3e 85 54 c7 3b
       -0.01180017 -0.05089366 0.14624225 0.0060830736
000220 93 6a e1 3c e0 b4 e6 3c d3 e8 2c 3e e9 b1 e6 3d
       0.027516639 0.02816242 0.1688569 0.112644024
000230 c7 56 c3 bc aa f2 02 be af 1a 82 bd 29 75 1e 3d
       -0.02384509 -0.12787881 -0.06352746 0.03868595
000240 c4 04 f0 3c 4e 36 fa bd 7e a8 89 3d c9 d9 83 bd
       0.029299147 -0.12217389 0.067215905 -0.064380236
000250 ac d5 f1 3d 56 4c 16 be 38 6b 4e 3e a1 7b 31 3e
       0.11808333 -0.14677557 0.20158088 0.17332317
000260 b1 48 45 3d 50 f3 9e bd 35 3e e2 3c cb 9c b0 bd
       0.048165027 -0.07761252 0.027617553 -0.08623656
000270 79 5c 1f 3e bc 47 2b bd eb be c6 3d 94 3c 91 bd
       0.1556262 -0.041816458 0.097043835 -0.070916325
000280 a7 05 45 3d ba 1f dd bd b7 60 98 bd b1 8d a4 ba
       0.048101094 -0.10797067 -0.07440322 -0.0012554434
000290 4b ff 84 bd e6 0f 9a bc c4 fa b2 bd 80 cd 80 3d
       -0.06494006 -0.01880641 -0.08739236 0.06289196
0002a0 f4 e5 13 3b cd 74 e6 3c 47 8b da 3d d2 28 09 3d
       0.0022567483 0.028131867 0.10671096 0.033486195
0002b0 9a cd b1 bb 6c 49 96 bd 45 12 3c bd 86 db 16 bd
       -0.005426121 -0.07338223 -0.04591586 -0.036830448
0002c0 d5 0c ff 3c 0e 6f 66 bd 21 19 dc bd 43 19 2a bd
       0.031134048 -0.056258254 -0.107469805 -0.041527998
0002d0 be cc 24 3d d3 6f 25 bb 38 dd 19 3e 8d ff 91 3d
       0.04023432 -0.0025243654 0.15025795 0.071288206
0002e0 cd 8e 20 3e 05 64 81 bd 5e 05 94 bd 20 74 19 bd
       0.15679474 -0.06317905 -0.07227586 -0.03746426
0002f0 cc 3f 93 bd d7 ad 82 bd cd a8 c2 bd 27 3c d1 3d
       -0.07189903 -0.063808136 -0.095048524 0.10216551
000300 ec 77 f6 39 7d 56 7c bd 27 03 00 3e c7 53 87 bd
       0.00047010125 -0.06160592 0.12501203 -0.06607776
000310 ba 2d 82 bd 96 a7 6e bd 46 45 ad 3c cc 3a 58 bd
       -0.06356378 -0.05826529 0.021151196 -0.052790448
000320 3c 49 e9 bc f9 18 97 bd 95 aa 20 3d 8f 2c 12 bd
       -0.028477304 -0.0737781 0.03922518 -0.035687026
000330 f4 55 14 bc 45 ed f6 bc cf 83 71 bd fc 82 8b bd
       -0.009053696 -0.030142436 -0.058963593 -0.06812093
000340 fa b6 41 3b 6b 7d 10 bd 43 ed 0b be 33 4c 48 bd
       0.0029558525 -0.035275858 -0.13664727 -0.048900794
000350 35 8d da 3c cd f6 3d bd 8c 4a bb bc b5 46 5a bd
       0.02667866 -0.046377946 -0.022862695 -0.053290088
000360 d5 59 e1 bb d9 69 01 be 23 02 8c 3b a4 d3 e0 bc
       -0.006877164 -0.12638034 0.0042727157 -0.027444668
000370 16 25 89 3d 03 d6 2d 3d 1a c7 09 be 71 33 1a 3d
       0.06696527 0.042440426 -0.13454857 0.037646715
000380 bc 3c ae bd d4 74 de bc 0f 68 e3 bd 95 e2 c6 bd
       -0.08507678 -0.027155317 -0.11103832 -0.09711186
000390 2d 5e 6d 3b db d8 33 bd ed 48 58 3d 5a 17 fc 3d
       0.0036219463 -0.04390798 0.052803922 0.123091415
0003a0 8d a1 8e bb 3a 0c d4 bc ce 63 b9 bd bf 01 56 3d
       -0.0043527544 -0.025884736 -0.09052239 0.05224776
0003b0 aa a1 70 3d e2 0a 2b bd 48 12 81 bd fb 83 bd bd
       0.058747925 -0.041758426 -0.06302315 -0.09253689
0003c0 25 dc db bd 96 62 c4 bd e1 97 97 bd 10 2a d8 3c
       -0.107353486 -0.09589116 -0.074020155 0.026387244
0003d0 9b 2a 16 3e 75 34 a9 bd f6 43 4d bd 59 f6 d3 bd
       0.1466469 -0.082619585 -0.05011364 -0.103497215
0003e0 05 c2 b0 bd 5b e8 e7 3c 2b c5 14 be 35 ec 02 3d
       -0.08630756 0.028309038 -0.14528339 0.031963546
0003f0 5e 0d 46 3e 6a 50 21 be 3f e5 1a bd e2 6e 94 bd
       0.19341037 -0.15753332 -0.037816282 -0.07247712

fc.6.weight f4 [4, 256]
000000 1d 37 03 bd 9f 10 b9 3d 4f c9 9c 3e 6d 7c 6c 3d
       -0.032034982 0.09036373 0.30622336 0.05773585
000010 65 df 61 bd 7a 5e f7 3c 9b bc bb 3d 39 1b 9a 3c
       -0.055144686 0.030196417 0.09166833 0.018811809
000020 f1 77 71 3e f6 67 b7 3c 8d 35 59 bf b7 68 98 3d
       0.2358091 0.02238844 -0.84847337 0.07441848
000030 22 70 39 3e 2a 13 00 3d 88 c0 ca 3c b0 ab 96 bc
       0.18109182 0.031268276 0.02475001 -0.018392414
000040 68 1f c8 bc 10 d0 97 3d 0a 3b 9e 3d 9a 2b 99 be
       -0.024429038 0.07412732 0.077261046 -0.29916078
000050 db c8 89 3d 81 b0 d1 bd 69 53 5b bd ae a8 38 3d
       0.06727763 -0.102387436 -0.053546343 0.04508274
000060 b3 a6 39 3d d6 6f fd 3d 74 fe e0 3d a9 f8 13 3e
       0.045324992 0.12374847 0.10986033 0.14450325
000070 2e 5d 83 3e 6e e8 ed 3c 7a 24 dd 3b 9b 3f ce be
       0.25657028 0.029041495 0.006748733 -0.40282902
000080 a0 fd 85 be 01 3b 55 3d e9 50 8c 3c ed 1c 48 bd
       -0.26170063 0.052058224 0.017128425 -0.04885571
000090 3d 00 6a 3d fe 3a 14 bd 83 c4 da 3c ba 04 3f 3d
       0.057129133 -0.03618907 0.026705032 0.046635367
0000a0 33 80 a7 3c ea 51 92 3d 7b 5e e1 be 32 3c 15 3d
       0.020446872 0.0714453 -0.44017395 0.03643436
0000b0 8c 25 8f 3e 9e 48 9f be e9 21 ab 3d ec fa 9b be
       0.27958333 -0.3111009 0.08356077 -0.30464876
0000c0 6d 2e 6a be ef b4 84 3d 7c 83 f4 3d a2 17 0e 3d
       -0.22869273 0.06479823 0.11939141 0.034690507
0000d0 1b fb 11 3d a7 ea 5a 3e 9f 01 0a 3e 46 e2 51 bc
       0.035639863 0.21378575 0.13477181 -0.012810295
0000e0 82 14 46 3c b6 22 ce 3e 93 ad 8d 3d 50 21 91 be
       0.01208985 0.40260857 0.06917872 -0.28345728
0000f0 bf d6 01 3e b7 5e 91 3d ff b2 61 3d 89 13 44 bd
       0.12679575 0.070981435 0.055102345 -0.047870193
000100 6d 76 16 be e6 30 77 3d 99 88 9c bd 87 4a 72 be
       -0.14693613 0.060349368 -0.076432414 -0.23661242
000110 b0 88 2b 3c cb aa b9 bc 45 7e ad 3d bb ba 10 be
       0.010469601 -0.022664448 0.084713496 -0.14133732
000120 6c 52 54 3d 0e f7 c5 be f1 66 2a 3d 10 70 31 3d
       0.051836416 -0.3866505 0.04160208 0.04331976
000130 1c ac 49 be 6f a5 64 be b0 28 1e be a4 2f 19 3a
       -0.19694561 -0.22328733 -0.15445209 0.0005843586
000140 57 81 06 3c 5d 90 c5 3d 11 f7 c0 bd 54 90 3a 3e
       0.008209548 0.09646676 -0.09422124 0.1821912
000150 54 1c 0d 3e 9d 80 84 3c 09 52 0d bf 1b a3 93 bc
       0.13780338 0.016174609 -0.552033 -0.01802211
000160 eb cc 39 3d b3 1b 36 3d 7e 7b 5d 3e 71 64 03 be
       0.04536144 0.04446001 0.2162914 -0.12831284
000170 e3 05 80 be 8e 56 66 be 8e 8c cd 3d e7 bc 25 bb
       -0.2500449 -0.22493955 0.10036574 -0.0025289597
000180 a2 ae 03 bf 6c 73 eb bb 24 4f 92 be c2 c7 1d be
       -0.51438344 -0.00718539 -0.28576005 -0.15408233
000190 fd eb be 3d 03 ca c3 bc df ac c8 be 8f 9c 2e bf
       0.09322355 -0.023900038 -0.3919439 -0.6820764
0001a0 f8 26 06 bf f6 95 bc 3e fb 88 1a 3c e1 ec c7 bd
       -0.5240321 0.3683316 0.009432073 -0.09761978
0001b0 05 db d7 be eb a0 5a 3d fb a5 13 3e 82 4d 97 3d
       -0.42159286 0.05337612 0.14418785 0.0738783
0001c0 2c b8 42 bb 31 3a 41 bd e9 56 04 3d b6 1c 5f be
       -0.0029711826 -0.047174636 0.032309446 -0.21788296
0001d0 a9 92 36 3e b3 44 aa 3d 68 28 bb bd a0 98 6c 3c
       0.17829384 0.083138846 -0.09138566 0.0144406855
0001e0 a6 32 2d be 14 24 92 3e 71 e1 39 bd ef 44 c1 3d
       -0.16913852 0.2854315 -0.045381013 0.09436976
0001f0 2f 57 d4 bd 43 9c 00 3e cd 2e 2f 3d b0 dd fa be
       -0.103681915 0.12559609 0.042769242 -0.4899726
000200 21 7e 16 bc 37 c2 fe be 6c 90 d8 bd 0c 57 03 3e
       -0.009185345 -0.4975755 -0.10574421 0.12826174
000210 c6 12 98 be a5 83 49 be a2 d3 28 be fa 9c e9 3d
       -0.29701823 -0.19679125 -0.16486982 0.11406894
000220 c6 95 b9 3d fe 2b a3 bd 01 c7 9e be 47 e7 89 be
       0.0906177 -0.07967375 -0.31011203 -0.26934263
000230 58 02 4d 3e 76 e2 92 3d b6 ff 57 3c 39 5e 3b 3e
       0.20020425 0.071721 0.013183525 0.18297662
000240 d8 86 0a bf 8f 71 f2 bd be cb b3 3c c5 14 37 be
       -0.54112005 -0.11838066 0.021947738 -0.17879017
000250 ec a5 09 bd 47 2f 63 3d da a7 82 be 4c 43 d3 bd
       -0.0336055 0.05546501 -0.25518686 -0.1031557
000260 50 fb f6 3d e1 f5 9c 3e 7a 28 ac 3d 4a f0 a9 bc
       0.12059653 0.3065634 0.08406158 -0.020744462
000270 68 96 4c be c3 a5 d2 3c 45 f8 8c 3c d6 a2 b8 3d
       -0.1997925 0.025713807 0.017208228 0.090154335
000280 ba 78 85 3d 89 cd c9 bb de c8 47 3e 3c e2 2a 3e
       0.065171674 -0.006158535 0.19510219 0.16687864
000290 08 d8 1c bf b6 33 91 be dd e2 28 3d 50 c6 45 3e
       -0.6126714 -0.28359765 0.04123198 0.19313931
0002a0 3b 27 15 3d dc 14 3f 3c 71 5c 1c be 81 20 4e 3e
       0.036414366 0.011662688 -0.15269639 0.20129587
0002b0 c1 8e 87 3d c2 0b 9f 3d 4b 55 e2 3c d3 89 12 3d
       0.06619025 0.077659145 0.027628561 0.03577597
0002c0 70 18 13 bd ab bb cb 3c 49 33 87 bd 6b 31 83 be
       -0.035911977 0.02486976 -0.06601579 -0.2562364
0002d0 2e c4 bf be b6 62 d7 3d 7a 99 93 3d b9 a8 d9 3d
       -0.3745436 0.105168745 0.07207008 0.106278844
0002e0 af 6d 26 3e ed 40 4d 3d bc 72 0c be c7 70 fb 3d
       0.16252778 0.050110746 -0.13715643 0.1227737
0002f0 84 62 af bc 54 f7 c2 bc ed a8 a5 3d 34 07 88 3d
       -0.02140928 -0.023799576 0.08088861 0.06641999
000300 94 98 67 3d 80 ca d1 bb 14 cd 1b bf 04 d6 d5 be
       0.056541994 -0.0064023137 -0.608598 -0.41764843
000310 4b 37 0f bf 9f a4 69 3e 16 58 4e bd a9 34 94 bd
       -0.55943745 0.22816704 -0.050376974 -0.07236607
000320 75 88 41 be 39 5e 9d 3d 10 3b e2 be 9a 6f 7c 3d
       -0.1889971 0.07683987 -0.44185686 0.06162987
000330 e4 e8 a1 be 26 1e 76 3b 72 1a 2d 3b 2b 12 64 3d
       -0.31622994 0.003755459 0.0026413468 0.05568139
000340 5d 6a 51 3d b6 c4 18 3d 6c d4 4d 3e e8 6b 48 3d
       0.051126827 0.037296973 0.20100564 0.048931032
000350 bb b4 6a be 45 3e 6a 3e 26 7c 0f 3d 27 6d 38 bd
       -0.22920506 0.22875316 0.035030507 -0.04502597
000360 7b e1 ba be c7 a3 b9 bc 85 ff d9 3b 4b 67 33 bf
       -0.36500153 -0.022661103 0.0066527748 -0.7007949
000370 db 2c 36 bd 63 96 64 3d d3 2f c5 3d 0c 1e ba be
       -0.04447637 0.055807482 0.09628262 -0.3635105
000380 30 60 ef be 41 31 8d 3b 37 87 b3 3d 05 2c 9c be
       -0.46753073 0.00430885 0.087660246 -0.30502334
000390 7a 8f 20 bf 88 93 2b bf 90 fc d1 bd 01 62 8e 3d
       -0.6271893 -0.6702199 -0.102532506 0.069522865
0003a0 63 52 dc 3d 0f f6 06 3e 9e c4 6a 3c e9 20 11 3d
       0.107579015 0.13179801 0.014329104 0.035431776
0003b0 4a e6 7d 3c b9 96 30 bd 03 21 26 bc 89 7e 16 bd
       0.0154968 -0.04311249 -0.010139707 -0.036741767
0003c0 43 e0 2c be 96 0c 2b 3c 93 3a a0 3a ef 37 76 be
       -0.16882424 0.010440012 0.0012224488 -0.24044774
0003d0 9a c4 36 3e 92 b5 a7 be 4b c4 92 3d f9 94 08 3e
       0.17848435 -0.32755715 0.07166346 0.13338079
0003e0 ad 72 f9 3d 9b b3 f1 3c c3 0e 01 3e 21 df 2e bf
       0.12180076 0.029504588 0.12603287 -0.6830922
0003f0 87 32 02 be 79 7b 92 be 3f a1 fd be 8d 76 6c 3c
       -0.12714587 -0.28609827 -0.49537084 0.014432562

fc.6.bias f4 [4]
000000 a6 1b 55 3c 55 87 85 bc d5 72 13 bc 21 1f 70 bc
       0.01300708 -0.016299883 -0.008999546 -0.014655859
