model/lv1_bc_model_2.1.pth (torch, 723180 bytes, 8 tensors)

fc.0.weight f4 [256, 184]
-0.51078475 -0.15838785 -0.21383661 -0.061842762 0.0039520124 -0.1405583 -0.21169816 -0.04159405
0.018837716 0.0026333476 -0.054681312 0.013069019 0.04028422 0.045237962 -0.05587418 -0.09524783
-0.08725145 -0.05789313 -0.018603731 0.0348322 -0.009031505 -0.020026851 0.001989409 -0.05963804
0.010760145 0.05747807 -0.008463509 0.01857293 -0.04491802 -0.011189318 -0.02224762 -0.044676296
-0.06521457 0.024220103 0.01847779 -0.026664391 -0.014147505 -0.032943092 0.018638289 -0.0721555
-0.06889218 -0.061095055 -0.015006123 -0.09986236 -0.09864516 -0.019700266 0.062757425 -0.017353795
-0.0056284694 0.02272048 -0.0556691 0.034372836 0.006051729 -0.06165367 0.042783815 0.0014225852
-0.062974 -0.06348872 -0.04002184 0.037167322 0.03415324 -0.09735898 0.011347031 -0.0071993642
-0.06029145 -0.06714994 -0.05373366 0.06441945 -0.06783227 -0.0042931437 -0.098276354 -0.09243014
0.06137451 -0.0068690204 -0.047108736 -0.02830785 -0.049713716 -0.06948232 -0.06531195 0.018405374
-0.08602277 0.029406747 -0.0024192226 -0.018604234 0.0616214 -0.047023814 -0.054648977 -0.068109766
0.043110076 -0.02565043 0.0076597733 -0.038148113 -0.038689356 0.008455083 -0.09918054 0.030990314
-0.050097656 0.026026074 0.048154008 -0.08976575 -0.098028414 0.05654715 -0.035655044 -0.029340237
-0.068526864 -0.050420597 -0.08845232 0.0137844365 -0.0061576106 -0.066717505 -0.018512765 0.054479692
-0.034226652 -0.047503185 0.008663652 0.04927797 -0.024913423 0.023885975 0.03270925 -0.047401085
-0.051925186 -0.00985653 -0.06940305 -0.03616804 0.022158552 -0.06071614 -0.07192567 -0.011430019
-0.071870275 -0.035345268 -0.027865525 -0.06692622 -0.057821214 -0.027152171 0.028692927 -0.011317539
-0.08150519 -0.067769624 -0.032770406 -0.042469602 0.0307112 -0.028055932 0.032239407 -0.09939674
0.0044080773 0.0041760593 -0.050628815 -0.040285792 -0.022110842 -0.01620222 0.057866648 0.04097258
-0.0069865943 0.04508391 0.030093793 0.017571274 -0.032012373 -0.04177779 0.025014048 -0.0050722826
-0.027130533 -0.021522943 -0.056980163 0.0215366 -0.06846128 -0.029510267 0.01873365 -0.022880021
-0.092889555 -0.09851333 -0.0076162596 0.02896145 -0.053832512 -0.083055176 -0.07532723 -0.05163109
0.024352994 -0.034241598 -0.05998383 0.06740871 -0.015819559 -0.08325387 -0.055303324 -0.22825448
-0.6916241 0.62401056 0.06631863 -0.02570659 0.02529911 0.08924651 0.14409468 0.071916066
-0.03907963 -0.038189948 0.028684465 -0.00305381 -0.06386258 0.017186059 0.030985814 0.025029043
0.0730076 0.07372287 0.0048663984 -0.015906151 -0.034469068 -0.015847899 -0.009271197 0.065000884
0.008623516 -0.026305636 0.071622305 0.0121373655 0.054565124 -0.019822985 -0.010788478 -0.055606704
0.0016029635 -0.024898456 -0.06458691 -0.017345792 -0.028860234 0.020321066 0.048567478 -0.010718506
-0.020937173 0.07126449 -0.045776293 0.02583542 -0.035188388 0.045416836 -0.07019738 -0.015006702
-0.011557305 -0.05696176 0.01089391 0.062418994 0.04372026 -0.01808238 0.026072204 0.01315179
0.015783934 -0.0040948945 -0.053111095 -0.007267537 -0.024558825 -0.01875733 0.03094858 0.058285885
-0.05005659 -0.058762074 -0.034238435 0.06989885 -0.07190482 -0.027329141 -0.04063666 0.072240874
00000000: cac2 02bf 6d30 22be fcf7 5abe d64e 7dbd
00000010: e27f 813b 84ee 0fbe 67c7 58be 865e 2abd
00000020: 8e51 9a3c 3e94 2c3b 83f9 5fbd 701f 563c
00000030: 1101 253d 714b 393d 53dc 64bd 4b11 c3bd
00000040: e3b0 b2bd 5921 6dbd da66 98bc 35ac 0e3d
00000050: e1f8 13bc 5a0f a4bc bf60 023b 0447 74bd
00000060: 524b 303c 206e 6b3d 88aa 0abc 4226 983c
00000070: f5fb 37bd 6753 37bc a440 b6bc 7efe 36bd
00000080: 378f 85bd 3d69 c63c bc5e 973c 486f dabc
00000090: f0ca 67bc 56ef 06bd 53af 983c 43c6 93bd
000000a0: 5817 8dbd cf3e 7abd 3edc 75bc a384 ccbd
000000b0: 7906 cabd 7462 a1bc f786 803d 8c29 8ebc
000000c0: 066f b8bb 4d20 ba3c 4805 64bd 88ca 0c3d
000000d0: 954d c63b 8f88 7cbd 153e 2f3d 0a76 ba3a
000000e0: 83f8 80bd 6006 82bd f1ed 23bd c33c 183d
000000f0: 45e4 0b3d 2564 c7bd e6e8 393c a5e8 ebbb
00000100: 2bf4 76bd e885 89bd d417 5cbd 58ee 833d
00000110: a5eb 8abd 80ad 8cbb 1d45 c9bd 034c bdbd
00000120: d763 7b3d 8515 e1bb 17f5 40bd dde5 e7bc
00000130: 9ca0 4bbd bf4c 8ebd 46c2 85bd dec6 963c
00000140: b52c b0bd 6be6 f03c d28b 1ebb e867 98bc
00000150: b966 7c3d 0b9c 40bd 9bd7 5fbd 227d 8bbd
00000160: 3194 303d da20 d2bc d6fe fa3b 3241 1cbd
00000170: bb78 1ebd 3087 0a3c 2b1f cbbd 66df fd3c
00000180: 3333 4dbd a234 d53c 233d 453d 1bd7 b7bd
00000190: 1fc3 c8bd fc9d 673d 060b 12bd f05a f0bc
000001a0: d057 8cbd d485 4ebd 7d26 b5bd 1ed8 613c
000001b0: c8c5 c9bb 30a3 88bd 15a8 97bc 1926 5f3d
000001c0: 3f31 0cbd b392 42bd fef1 0d3c b2d7 493d
000001d0: 3c17 ccbc 85ac c33c 22fa 053d a427 42bd
000001e0: 81af 54bd 497d 21bc 3023 8ebd f024 14bd
000001f0: da85 b53c 7db1 78bd c44d 93bd f944 3bbc
00000200: b930 93bd 33c6 10bd 3e46 e4bc 9d10 89bd
00000210: f0d5 6cbd 3b6e debc 6e0d eb3c 336d 39bc
00000220: 31ec a6bd cdca 8abd 433a 06bd 9bf4 2dbd
00000230: 0e96 fb3c 8ed5 e5bc 780d 043d 8590 cbbd
00000240: a271 903b 53d7 883b 2960 4fbd b702 25bd
00000250: cc21 b5bc 85ba 84bc 9405 6d3d ddd2 273d
00000260: cdef e4bb e8a9 383d 4287 f63c a2f1 8f3c
00000270: 681f 03bd 301f 2bbd 43ea cc3c 6435 a6bb
00000280: da40 debc e250 b0bc 0864 69bd 866d b03c
00000290: 6d35 8cbd 84bf f1bc 5077 993c e26e bbbc
000002a0: e13c bebd 5bc1 c9bd d191 f9bb 9040 ed3c
000002b0: 7b7f 5cbd d518 aabd 2a45 9abd 1f7b 53bd
000002c0: ee7f c73c eb40 0cbd 9bb1 75bd 940d 8a3d
000002d0: 0598 81bc 0181 aabd bd85 62bd 8bbb 69be
000002e0: 470e 31bf 28bf 1f3f 10d2 873d a096 d2bc
000002f0: 1440 cf3c e0c6 b63d 8e8d 133e bb48 933d
00000300: f611 20bd 106d 1cbd affb ea3c 6e22 48bb
00000310: 62ca 82bd c7c9 8c3c f6d5 fd3c b509 cd3c
00000320: 0285 953d 04fc 963d 4f76 9f3b 9e4d 82bc
00000330: 702f 0dbd 74d3 81bc 38e6 17bc 2f1f 853d
00000340: a649 0d3c eb7e d7bc b7ae 923d cddb 463c
00000350: ae7f 5f3d d063 a2bc 28c2 30bc dbc3 63bd
00000360: 881a d23a d9f7 cbbc 2446 84bd c318 8ebc
00000370: 4c6c ecbc 5d78 a63c b1ee 463d ac9c 2fbc
00000380: 6f84 abbc 1ef3 913d ec7f 3bbd cda4 d33c
00000390: b321 10bd 0107 3a3d a5c3 8fbd acde 75bc
000003a0: da5a 3dbc bc50 69bd 5f7c 323c 0fab 7f3d
000003b0: 0414 333d 8021 94bc 6095 d53c 9b7a 573c
000003c0: 4f4d 813c 772e 86bb 058b 59bd 8524 eebb
000003d0: 972f c9bc f9a8 99bc e087 fd3c 2ebd 6e3d
000003e0: 2408 4dbd 80b0 70bd 9a3d 0cbd 2127 8f3d
000003f0: d642 93bd 5de1 dfbc a072 26bd 06f3 933d

fc.0.bias f4 [256]
0.004109682 0.06943636 -0.04820276 -0.06508289 0.041853257 0.024996495 -0.065641254 0.03864848
-0.04802521 -0.0032182806 -0.071661584 -0.011553724 0.023015957 -0.009493861 0.06672975 -0.068604864
0.032906253 -0.07543863 -0.07392946 -0.006998569 -0.013850016 -0.04269884 -0.019535054 -0.030410223
0.029542357 -0.09681707 0.03419553 0.019674752 -0.06980373 0.055684034 0.061006416 -0.029822756
0.013821817 0.024252497 -0.06997847 -0.0010193697 -0.10771762 -0.061424155 -0.080974676 -0.062206786
0.039191708 0.010610288 -0.011641812 0.010893283 0.05302519 -0.05729059 -0.019012356 -0.045668624
-0.036371376 -0.09232594 -0.027710456 0.013024966 0.003847107 -0.06397977 -0.079218656 0.061862215
-0.080939606 0.04896802 -0.056207195 -0.07534443 0.003011482 -0.010029777 0.0074702506 0.009002104
-0.022959614 -0.014372928 -0.04328185 -0.084734485 -0.0022130844 -0.0074464525 -0.06461567 -0.008842401
-0.057359535 -0.059845947 0.043240633 -0.024852987 -0.016375192 -0.045366302 0.04018105 -0.07626589
0.008842881 -0.08795627 -0.090519845 -0.038250756 0.0028234343 -0.015942385 -0.055554725 0.013127314
0.043353878 -0.061821748 0.009159097 0.014711491 0.042518735 -0.081006564 0.018145071 0.029481253
-0.08720058 -0.08335899 0.0060874475 -0.08458353 -0.045033332 -0.09461371 -0.04920404 -0.024510734
0.021115469 0.052182134 -0.05531592 -0.05382379 -0.07045245 -0.06931562 -0.039076537 0.0058837812
-0.013660308 -0.089310035 -0.043441348 0.040035974 -0.09096091 -0.05429782 -0.022265615 -0.042249568
0.03411754 0.03536568 0.015037472 0.065849 -0.061426077 -0.041269377 0.027766265 -0.07869826
-0.07307094 -0.0461893 -0.071502686 0.015650174 -0.06141398 0.0033447722 0.03452045 -0.07833433
0.04715023 0.008877855 -0.09222392 -0.002516266 0.022192098 0.0019233824 0.040115796 -0.04789724
-0.007824607 -0.07051606 -0.07094193 0.027089644 -0.01301986 0.013352653 0.0109275505 0.02165023
0.019191023 -0.06512143 -0.022074059 -0.061106607 0.038333934 -0.0683802 0.0011929009 -0.0063068327
-0.031278893 -0.07402181 0.06541881 -0.020297699 0.026093004 -0.066879176 0.06703978 0.054874014
-0.050577115 0.031781934 -0.093131244 -0.024285348 -0.08634096 -0.01923594 0.009699864 -0.099989325
-0.07019873 0.0092542805 0.015657166 -0.0366387 0.06800243 0.014045528 0.022738865 0.02331644
-0.056861073 -0.08335651 -0.0028594965 0.028399196 -0.045070954 0.011804073 -0.112076774 -0.04692944
-0.06421285 -0.07998574 0.023785463 -0.018551867 -0.016671712 -0.08558146 -0.021685086 0.023719858
0.01512983 -0.029297154 0.039969865 0.044210725 -0.086176366 -0.040294133 -0.015509416 -0.010013364
-0.06597518 0.012511021 0.03616672 0.0065367087 -0.1108687 -0.0035157609 -0.077345945 0.05682058
-0.038168523 -0.0691772 0.0048506972 -0.026735432 0.044797037 -0.004032579 -0.013923848 0.0016953585
0.005697423 -0.005380965 -0.025252199 0.018044995 0.017273216 -0.043232232 0.030679774 -0.021414526
-0.07530631 -0.08383292 -0.03561208 -0.03335454 -0.06970418 0.09025828 -0.003921058 0.016399676
-0.07991872 -0.0030883527 -0.083694704 -0.034497622 -0.0026260577 0.014936152 -0.1033111 0.05724884
-0.032076918 -0.0030539962 -0.067296736 0.047701452 -0.017566388 0.050743986 -0.055676028 -0.09382553
00000000: 83aa 863b a634 8e3d 4270 45bd 2e4a 85bd
00000010: 526e 2b3d 73c5 cc3c ec6e 86bd de4d 1e3d
00000020: 15b6 44bd cae9 52bb 4fc3 92bd d54b 3dbc
00000030: f68b bc3c 248c 1bbc 9ba9 883d b580 8cbd
00000040: b5c8 063d 927f 9abd 5468 97bd 4054 e5bb
00000050: 2deb 62bc fbe4 2ebd fa07 a0bc dc1e f9bc
00000060: d002 f23c 0748 c6bd 9d10 0c3d f22c a13c
00000070: 42f5 8ebd f114 643d dde1 793d da4e f4bc
00000080: e774 623c 2cad c63c df50 8fbd 5f9c 85ba
00000090: 0e9b dcbd e597 7bbd 0dd6 a5bd 8bcc 7ebd
000000a0: 7c87 203d c6d6 2d3c 4cbd 3ebc be79 323c
000000b0: f130 593d 8aa9 6abd cdbf 9bbc 060f 3bbd
000000c0: 27fa 14bd 6215 bdbd 0a01 e3bc ab66 553c
000000d0: bf1f 7c3b d307 83bd 643d a2bd 3c63 7d3d
000000e0: aac3 a5bd b192 483d 8439 66bd 2e4e 9abd
000000f0: 495c 453b ef53 24bc 01c9 f43b 907d 133c
00000100: cd15 bcbc 6e7c 6bbc 4f48 31bd 4689 adbd
00000110: 6509 11bb 5f01 f4bb 3855 84bd b8df 10bc
00000120: d5f1 6abd 0621 75bd 171d 313d 7e98 cbbc
00000130: 4425 86bc 04d2 39bd e294 243d 4a31 9cbd
00000140: bbe1 103c 6b22 b4bd 7862 b9bd d3ac 1cbd
00000150: 5e09 393b 9b99 82bc 5a8d 63bd f213 573c
00000160: d693 313d cd38 7dbd 0a10 163c 7708 713c
00000170: 2028 2e3d c5e6 a5bd f9a4 943c ab82 f13c
00000180: 3896 b2bd 1eb8 aabd 3679 c73b 213a adbd
00000190: df74 38bd d5c4 c1bd 2d8a 49bd bcca c8bc
000001a0: 59fa ac3c efbc 553d f292 62bd 5676 5cbd
000001b0: 6049 90bd 59f5 8dbd b80e 20bd bccc c03b
000001c0: 7ccf 5fbc 2ee8 b6bd 8eef 31bd c3fc 233d
000001d0: b749 babd 6467 5ebd 6166 b6bc e20d 2dbd
000001e0: d5be 0b3d 9adb 103d bb5f 763c d7db 863d
000001f0: e999 7bbd 140a 29bd 1476 e33c 8e2c a1bd
00000200: 38a6 95bd fe30 3dbd 0070 92bd cb34 803c
00000210: 3a8d 7bbd f733 5b3b 5165 0d3d c06d a0bd
00000220: 9920 413d 6c74 113c e5df bcbd f0e7 24bb
00000230: 34cc b53c 011a fc3a 7650 243d e52f 44bd
00000240: c832 00bc b96a 90bd 014a 91bd 1aeb dd3c
00000250: 4051 55bc 16c5 5a3c 7809 333c d35b b13c
00000260: 7e36 9d3c 625e 85bd a8d4 b4bc ec4a 7abd
00000270: 0b04 1d3d eb0a 8cbd 1d5b 9c3a 8ca9 cebb
00000280: 4c1e 00bd bf98 97bd 4cfa 853d 5c47 a6bc
00000290: ffc0 d53c f3f7 88bd 274c 893d 93c3 603d
000002a0: f329 4fbd c62d 023d 98bb bebd 11f2 c6bc
000002b0: 87d3 b0bd b194 9dbc 2eec 1e3c 34c7 ccbd
000002c0: 5ac4 8fbd 449f 173c 7543 803c 7612 16bd
000002d0: dc44 8b3d 371f 663c db46 ba3c 1e02 bf3c
000002e0: 28e7 68bd d1b6 aabd 6466 3bbb 6ea5 e83c
000002f0: 529c 38bd df65 413c 8288 e5bd 1639 40bd
00000300: 0782 83bd 90cf a3bd bbd9 c23c 16fa 97bc
00000310: 1d93 88bc 5545 afbd eca4 b1bc 2650 c23c
00000320: 1be3 773c 9600 f0bc 71b7 233d 4e16 353d
00000330: 3c7d b0bd 760b 25bd 351b 7ebc 180f 24bc
00000340: ff1d 87bd 07fb 4c3c 8e23 143d e331 d63b
00000350: 210f e3bd ae68 66bb 8d67 9ebd b2bc 683d
00000360: 9956 1cbd c7ac 8dbd 99f2 9e3b 4404 dbbc
00000370: 197d 373d b923 84bb da20 64bc cb36 de3a
00000380: 73b1 ba3b ce52 b0bb b3dd cebc 19d3 933c
00000390: 8f80 8d3c 4814 31bd 2654 fb3c 846d afbc
000003a0: 323a 9abd 98b0 abbd f9dd 11bd c59e 08bd
000003b0: 11c1 8ebd 55d9 b83d 387c 80bb 9d58 863c
000003c0: 6dac a3bd f665 4abb 2168 abbd 614d 0dbd
000003d0: f019 2cbb c3b6 743c c594 d3bd c27d 6a3d
000003e0: 1663 03bd 8e25 48bb dfd2 89bd 9962 433d
000003f0: 63e7 8fbc edd8 4f3d 8c0c 64bd 9927 c0bd

fc.2.weight f4 [256, 256]
0.016126925 0.044273283 0.010045914 -0.066905476 0.04283469 0.0027583602 0.02775806 -0.031043021
0.007481176 -0.063707605 0.04926743 0.019593675 0.029806858 -0.034637265 0.011560224 -0.035626374
-0.02136175 -0.031983353 -0.012764895 0.0079517765 -0.043482933 -0.026358837 -0.016307754 0.02679949
0.020159855 -0.051517032 -0.083796956 -0.07658909 -0.0009943837 0.01481327 -0.023946077 -0.04568533
-0.087620914 -0.04196383 -0.0015101979 -0.029640684 0.036289617 -0.041390903 -0.017220061 -0.050992634
0.003823897 -0.012588702 -0.13989703 0.034724835 -0.061793074 0.0020007729 0.053514816 0.040831245
0.013024633 0.028857166 0.05175501 -0.015640246 -0.03833005 0.01900784 -0.018570745 -0.034293897
0.059787605 0.046019193 -0.032520562 -0.046593964 -0.03793154 0.042645656 0.0008427419 0.048958115
0.034512743 -0.011623682 0.07026771 0.0057856166 -0.03563261 -0.022033935 -0.044417918 0.016809301
0.06139569 -0.025930358 0.00094169937 0.0035570518 -0.06221115 0.026391208 0.04425077 -0.01059833
-0.031064427 0.023617476 -0.012927459 -0.030429918 -0.004172395 0.034789704 -0.0071117114 0.017451866
0.07433775 -0.085502476 -0.0033497065 -0.043790113 -0.090372644 -0.04915128 0.025776967 0.04509576
-0.05480794 -0.018984422 0.036200304 0.010502831 -0.053435624 -0.029146945 -0.0017898711 -0.08895256
-0.039052323 -0.015731774 -0.040872797 -0.014905316 0.007932813 -0.061278738 0.024004193 0.01207939
-0.051694136 0.0029186453 -0.06403776 -0.036604818 0.03766127 0.04699081 0.040800713 -0.061518434
-0.01158315 -0.0068990416 -0.06275258 0.024448263 0.053018466 0.06412737 -0.0022253662 -0.043753944
-0.0050629573 0.006750697 -0.05269013 -0.045347255 -0.029362917 -0.060802832 -0.04693677 -0.024899162
0.04695628 -0.04796278 -0.010622469 -0.049875434 -0.04170061 0.03488968 -0.035777096 0.06331727
-0.05047598 -0.03197236 -0.022595856 -0.055561014 -0.02540925 -0.03171273 -0.02195697 0.02833417
0.014328444 -0.05939299 -0.05588832 -0.024024513 0.03531509 -0.0028756647 -0.039854832 0.08866033
-0.0460671 0.024457794 -0.09557419 0.04994825 -0.0057881237 0.024106294 0.012677513 -0.031640887
0.002131026 0.023293491 0.03956946 0.000397142 -0.08297978 0.0114227105 -0.01227851 0.052449904
0.041696914 -0.018580712 0.037649356 0.01814813 -0.07496816 -0.051667064 -0.09132761 -0.041815788
-0.0024881137 0.005130299 -0.025752073 -0.058117192 0.0003547001 -0.007999772 -0.060296558 -0.011304425
-0.021254878 -0.06350739 0.031828225 -0.009244224 -0.025951196 -0.017372899 0.043073334 -0.021115191
0.017802967 -0.12052204 0.08478044 0.039911315 -0.15043966 -0.07458093 -0.053753976 -0.08938352
-0.06325457 0.0030594727 -0.025224278 0.049665913 0.0036389616 -0.051569752 0.017159589 0.054000273
0.0055420846 -0.030089844 0.00913758 -0.049996827 -0.008164852 0.057760704 0.008217968 -0.14659464
-0.04711455 -0.014325583 0.016726254 0.07252246 0.035838805 0.0008820983 0.0075740917 -0.004429874
0.0061103385 0.017263995 -0.07575621 0.0039889636 -0.05805149 -0.042618107 0.107057355 -0.039308596
0.014250888 -0.03414731 0.008454246 -0.06853653 -0.02299203 -0.03605835 0.0025494692 0.031720027
-0.0033032957 0.034325346 -0.006881084 0.02111694 0.053085815 0.015082203 -0.05464899 0.020961065
00000000: 9d1c 843c e757 353d 9e97 243c bd05 89bd
00000010: 6e73 2f3d 9bc5 343b df64 e33c ef4d febc
00000020: a724 f53b 2279 82bd a5cc 493d ea82 a03c
00000030: 832d f43c cedf 0dbd 1867 3d3c f6ec 11bd
00000040: d6fe aebc fa00 03bd da23 51bc 2b48 023c
00000050: 291b 32bd 7dee d7bc d797 85bc 9b8a db3c
00000060: 4826 a53c 8603 53bd bd9d abbd beda 9cbd
00000070: fb55 82ba 5cb3 723c 902a c4bc 8a20 3bbd
00000080: 9872 b3bd 44e2 2bbd d5f1 c5ba 05d1 f2bc
00000090: 6ca4 143d 8289 29bd 1611 8dbc a7dd 50bd
000000a0: 599a 7a3b d840 4ebc 2b41 0fbe a13b 0e3d
000000b0: bc1a 7dbd 661f 033b 5a32 5b3d aa3e 273d
000000c0: 4565 553c dd65 ec3c 10fd 533d f91f 80bc
000000d0: f8ff 1cbd 54b6 9b3c ad21 98bc c277 0cbd
000000e0: d9e3 743d 9f7e 3c3d 4834 05bd 50d9 3ebd
000000f0: 1a5e 1bbd 36ad 2e3d 74eb 5c3a 4e88 483d
00000100: 3c5d 0d3d 4271 3ebc 84e8 8f3d 4595 bd3b
00000110: 80f3 11bd 8380 b4bc 90ef 35bd a9b3 893c
00000120: 0c7a 7b3d e76b d4bc 60dc 763a 6d1d 693b
00000130: 1ed1 7ebd 6032 d83c 4c40 353d 9ea4 2dbc
00000140: d37a febc 7079 c13c b1cd 53bc 2a48 f9bc
00000150: 96b8 88bb a67f 0e3d 5c09 e9bb 37f7 8e3c
00000160: 643e 983d ec1b afbd c086 5bbb 435d 33bd
00000170: 4b15 b9bd da52 49bd 382a d33c 55b6 383d
00000180: 4a7e 60bd 3885 9bbc c546 143d 1114 2c3c
00000190: 50df 5abd 93c5 eebc 1c9a eaba c32c b6bd
000001a0: 54f5 1fbd ecdf 80bc 3c6a 27bd 6d35 74bc
000001b0: a1f8 013c 6aff 7abd 71a4 c43c a2e8 453c
000001c0: 3bbd 53bd be46 3f3b 3b26 83bd efee 15bd
000001d0: b442 1a3d 7079 403d a61e 273d c1fa 7bbd
000001e0: 41c7 3dbc 5b11 e2bb 6d84 80bd b947 c83c
000001f0: e429 593d 3655 833d 73d7 11bb 5637 33bd
00000200: 2ae7 a5bb f334 dd3b 9bd1 57bd 0bbe 39bd
00000210: 808a f0bc 640c 79bd c540 40bd 54f9 cbbc
00000220: 3a55 403d 9f74 44bd dd09 2ebc 2f4a 4cbd
00000230: 42ce 2abd 7be8 0e3d 018b 12bd 7cac 813d
00000240: e7bf 4ebd 73f5 02bd f21a b9bc f293 63bd
00000250: 0f27 d0bc 35e5 01bd 1bdf b3bc 101d e83c
00000260: dac1 6a3c 1046 73bd 27eb 64bd 0ecf c4bc
00000270: 8ea6 103d a675 3cbb d23e 23bd 8c93 b53d
00000280: dbb0 3cbd b65b c83c 67bc c3bd 8996 4c3d
00000290: 4daa bdbb 907a c53c 58b5 4f3c e099 01bd
000002a0: afa8 0b3b fed1 be3c 9613 223d 7f37 d039
000002b0: 4ef1 a9bd 5226 3b3c ce2b 49bc b6d5 563d
000002c0: 62ca 2a3d 9436 98bc 3636 1a3d 63ab 943c
000002d0: e888 99bd d8a0 53bd f809 bbbd 0847 2bbd
000002e0: 9f0f 23bb 111c a83b 03f6 d2bc 4b0c 6ebd
000002f0: 0bf7 b939 7a11 03bc 86f9 76bd 3236 39bc
00000300: b61e aebc 2a10 82bd 505e 023d 1675 17bc
00000310: 9a97 d4bc 9c51 8ebc aa6d 303d c4f9 acbc
00000320: 87d7 913c 42d4 f6bd 5ea1 ad3d 0c7a 233d
00000330: db0c 1abe e3bd 98bd 212d 5cbd b50e b7bd
00000340: 9d8b 81bd 6f81 483b 25a3 cebc 7c6e 4b3d
00000350: a57b 6e3b ce3a 53bd 4492 8c3c 642f 5d3d
00000360: 609a b53b fa7e f6bc cab5 153c 79c9 4cbd
00000370: dfc5 05bc 7d96 6c3d a8a4 063c e81c 16be
00000380: 30fb 40bd dab5 6abc 7f05 893c a886 943d
00000390: b6cb 123d 9d3c 673a 1630 f83b 7a28 91bb
000003a0: 3c39 c83b 396d 8d3c 1226 9bbd dab5 823b
000003b0: 66c7 6dbd 5390 2ebd e340 db3d 0d02 21bd
000003c0: 8e7c 693c 0dde 0bbd ae83 0a3c e15c 8cbd
000003d0: c859 bcbc ecb1 13bd ff14 273b dcec 013d
000003e0: 1b7c 58bb bc98 0c3d b77a e1bb 6ffd ac3c
000003f0: 8370 593d 581b 773c 9fd7 5fbd 8ab6 ab3c

fc.2.bias f4 [256]
-0.056955993 -0.07714133 -0.11674226 -0.018500136 -0.046321265 0.027342156 -0.02367043 -0.07277129
-0.10078997 -0.087707974 0.035749044 0.07797136 -0.103812486 -0.013848118 0.030743293 -0.038427476
0.0017943184 0.073908545 0.019759726 -0.06966097 -0.06380426 -0.03689271 -0.0049286284 -0.0315617
-0.053158265 -0.044203185 0.03682171 0.022879194 0.0012706302 0.05430096 -0.051885992 -0.04785612
-0.07420728 0.0067363083 0.01305148 -0.07390319 -0.019392584 -0.059672795 0.04813348 -0.07479681
-0.025664922 -0.01633516 -0.014945862 0.048153777 -0.0632473 0.081753135 -0.09158704 0.019800095
0.015097039 0.043505184 0.011551943 -0.0714964 -0.07242914 -0.032541793 -0.0005097253 -0.0075617214
-0.057142645 -0.0337252 -0.017433831 -0.086723566 0.009330579 -0.081070065 0.030646145 -0.011088891
0.027398149 -0.012548131 0.018733706 0.007831358 -0.052491553 -0.052788757 0.019405754 0.014334104
-0.008181949 -0.07233827 7.940675e-05 0.009305008 0.010305121 -0.054390687 -0.040610738 0.059486855
-0.046630524 -0.07541969 -0.011223961 -0.0061211064 -0.05900655 0.0038654227 2.6519047e-05 0.002199059
-0.08584675 -0.022619562 -0.047064662 -0.01983708 -0.006498194 0.033585235 -0.06711078 -0.073369496
0.059276767 -0.08492862 0.0051832474 -0.011494696 -0.08237903 -0.007162866 -0.01996426 -0.07946785
0.016804934 0.015842086 -0.020397479 -0.02975018 -0.118061975 0.08789649 -0.0561786 0.010582262
0.01693455 0.02668852 -0.071690835 -0.018825836 -0.0017542208 -0.057251833 0.035602316 -0.06958776
0.043115303 -0.012358666 -0.106732324 -0.021640804 -0.024132539 0.07339416 0.12837367 0.023704
-0.055095192 0.04885726 -0.076576546 0.026157228 -0.023797356 -0.051225834 -0.001456905 -0.050922807
-0.054981705 0.03548833 -0.031904243 0.0066428455 0.054404963 0.0061983233 0.01021011 -0.07967586
0.023850273 -0.10860883 0.024220586 -0.05880009 0.0013185642 -0.028289098 -0.10541927 -0.02382664
-0.008380702 -0.07312738 0.042831346 -0.031786945 -0.05728981 -0.014375026 -0.00068318093 -0.010879433
0.017504644 -0.022288859 -0.030698542 -0.06367521 -0.0029485282 0.015899258 0.012928974 0.011435704
-0.027443524 0.024600692 -0.019023886 -0.015029138 0.000345112 0.009299468 0.029145157 -0.039052896
0.03466453 -0.03568499 0.025563553 0.00032769085 -0.057097778 -0.08849337 -0.03664032 -0.07283831
0.040089875 -0.010721822 0.063157886 -0.047360364 -0.04261525 0.05057371 0.03272134 0.01152604
-0.016648963 -0.029363906 -0.0016497199 -0.028894916 0.0077157696 0.037804626 -0.11172982 0.10424508
0.03263078 -0.01788243 0.00091596064 -0.020258846 0.016652329 -0.039800595 -0.014377021 0.017851414
-0.02384505 0.005628095 -0.055908114 0.045027874 -0.07586604 -0.036685117 -0.031324033 -0.052421138
0.08451002 -0.0018283494 -0.029448912 -0.053126927 -0.0835574 0.028790567 0.0045880247 -0.0058294698
0.014980178 -0.059360184 0.03578255 0.009863972 -0.04737078 0.035760757 0.042457864 0.05948751
0.02656666 0.00042687124 -0.07708711 0.09668469 -0.05617762 -0.04215827 -0.019959034 -0.030716706
-0.041483156 -0.018548442 -0.09631782 -0.076195486 0.028050907 -0.0011830274 0.017435994 0.0156406
0.072364815 -0.07220143 0.010126008 -0.043273654 -0.06458012 -0.05695128 0.016317653 -0.0005055083
00000000: b04a 69bd 46fc 9dbd 9116 efbd 998d 97bc
00000010: 5ebb 3dbd a8fc df3c 7de8 c1bc 1d09 95bd
00000020: f96a cebd 3da0 b3bd 976d 123d 73af 9f3d
00000030: a49b d4bd 37e3 62bc 5cd9 fb3c 2166 1dbd
00000040: 562f eb3a 5d5d 973d 26df a13c 69aa 8ebd
00000050: cfab 82bd cf1c 17bd 5580 a1bb d746 01bd
00000060: 7bbc 59bd 660e 35bd 5dd2 163d 266d bb3c
00000070: 468b a63a af6a 5e3d 6886 54bd c704 44bd
00000080: fdf9 97bd 40bc dc3b e0d5 553c 8e5a 97bd
00000090: 32dd 9ebc 766b 74bd 9d27 453d 122f 99bd
000000a0: 3e3f d2bc 50d1 85bc 7ddf 74bc e53c 453d
000000b0: cd87 81bd 306e a73d fc91 bbbd cf33 a23c
000000c0: 9259 773c 7e32 323d 5c44 3d3c b46c 92bd
000000d0: bb55 94bd 8b4a 05bd 169f 05ba 51c8 f7bb
000000e0: 680e 6abd 6f23 0abd 65d1 8ebc 209c b1bd
000000f0: 49df 183c 1008 a6bd a00d fb3c 2eae 35bc
00000100: 1572 e03c ad96 4dbc 6e77 993c 194f 003c
00000110: 6201 57bd 0639 58bd d1f8 9e3c 97d9 6a3c
00000120: 950d 06bc 1626 94bd 2d87 a638 0874 183c
00000130: cfd6 283c c5c8 5ebd 7257 26bd 7da8 733d
00000140: a6ff 3ebd a375 9abd b4e4 37bc 9093 c8bb
00000150: dab0 71bd 0853 7d3b 3875 de37 161e 103b
00000160: 6cd0 afbd a94c b9bc e0c6 40bd 5f81 a2bc
00000170: cdee d4bb ac90 093d 6071 89bd bf42 96bd
00000180: 32cc 723d 0eef adbd 3bd8 a93b 4054 3cbc
00000190: 56b6 a8bd 7ab6 eabb 168c a3bc 0ac0 a2bd
000001a0: 80aa 893c 43c7 813c 9d18 a7bc a6b6 f3bc
000001b0: 7aca f1bd 1303 b43d 881b 66bd 3961 2d3c
000001c0: 53ba 8a3c e2a1 da3c a5d2 92bd a438 9abc
000001d0: e2ed e5ba e680 6abd bcd3 113d 0784 8ebd
000001e0: ac99 303d 017c 4abc 7a96 dabd 0e48 b1bc
000001f0: 9ab1 c5bc ad4f 963d 6374 033e e42e c23c
00000200: 7fab 61bd 8d1e 483d 2ad4 9cbd af47 d63c
00000210: acf2 c2bc 2ed2 51bd 9ff5 beba 6f94 50bd
00000220: 7f34 61bd 365c 113d 06ae 02bd 3aac d93b
00000230: bdd7 5e3d 4e1b cb3b 4e48 273c 192d a3bd
00000240: a661 c33c 4e6e debd 406a c63c 5dd8 70bd
00000250: acd3 ac3a 8abe e7bc 0fe6 d7bd 1630 c3bc
00000260: 364f 09bc cfc3 95bd ec6f 2f3d 0733 02bd
00000270: b8a8 6abd 3b85 6bbc 7f17 33ba a63f 32bc
00000280: e665 8f3c 2097 b6bc 827b fbbc 2668 82bd
00000290: 183c 41bb 293f 823c 0cd4 533c d25c 3b3c
000002a0: 3ed1 e0bc 6487 c93c fbd7 9bbc c63c 76bc
000002b0: 26f0 b439 cc5c 183c d3c1 ee3c eef5 1fbd
000002c0: 65fc 0d3d 6d2a 12bd a86a d13c eccd ab39
000002d0: 5cdf 69bd 033c b5bd 2914 16bd 402c 95bd
000002e0: 4835 243d 95aa 2fbc ec58 813d f1fc 41bd
000002f0: 548d 2ebd 6126 4f3d d006 063d b7d7 3c3c
00000300: 6863 88bc 938c f0bc 6a3b d8ba 08b5 ecbc
00000310: 91d4 fc3b 06d9 1a3d 9bd2 e4bd 727e d53d
00000320: daa7 053d 2d7e 92bc 141d 703a e1f5 a5bc
00000330: 776a 883c f305 23bd 998d 6bbc 213d 923c
00000340: b256 c3bc e26b b83b e8ff 64bd 266f 383d
00000350: a85f 9bbd 2243 16bd a14d 00bd 8cb7 56bd
00000360: 9713 ad3d 3aa5 efba d83e f1bc 9f9b 59bd
00000370: 2420 abbd 32da eb3c 2457 963b 2305 bfbb
00000380: 6c6f 753c aa23 73bd b990 123d 7f9c 213c
00000390: dd07 42bd df79 123d 4ce8 2d3d 2da9 733d
000003a0: 53a2 d93c b0cd df39 d9df 9dbd 9f02 c63d
000003b0: 811a 66bd 26ae 2cbd 2181 a3bc 9aa1 fbbc
000003c0: 3eea 29bd e7f2 97bc 4742 c5bd 610c 9cbd
000003d0: 04cb e53c d00f 9bba eed5 8e3c b720 803c
000003e0: 0134 943d 58de 93bd 8ee7 253c b73f 31bd
000003f0: 9542 84bd bf45 69bd 99ac 853c 1684 04ba

fc.4.weight f4 [256, 256]
-0.023849785 0.020544387 0.15159291 0.024842776 0.04061673 0.0059487126 0.018588193 -0.07345828
0.21028385 -0.1573102 0.0644334 -0.090624705 -0.026851268 0.057234045 0.30092576 0.056496322
-0.11386599 0.1468055 -0.04442453 -0.015930464 0.2500106 -0.03295588 0.0049470323 0.029531488
0.20829763 -0.0022620214 -0.14667028 -0.12846589 0.065735236 -0.03366233 -0.05686432 0.057283152
0.0011881138 -0.026602248 -0.030388659 -0.020916572 -0.018044524 -0.13577154 0.09208915 0.017451718
-0.07460049 0.010679036 -0.18885565 -0.097839035 -0.0374032 0.034835692 0.102008976 0.06440447
-0.009190149 0.044939842 0.024561856 -0.0013899603 -0.0013447097 0.011705629 -0.04801788 -0.022998795
0.0379981 -0.14052258 -0.21345511 0.016311944 -0.048993554 -0.013685625 -0.059318826 0.006984628
-0.03970195 -0.041769594 -0.003792462 -0.0511145 0.01566015 -0.20429318 0.045537435 -0.07582544
-0.0082919 -0.036917195 -0.07414076 0.10185543 0.058134735 -0.012884165 -0.16531864 0.01726188
0.11324391 -0.011125297 -0.23215102 0.0711171 -0.08141822 -0.030786382 -0.07689201 -0.009404716
0.04899204 0.042677827 -0.1099632 0.086580046 0.016187279 0.016377892 -0.024802867 -0.04648294
0.0033259848 -0.025505655 -0.03202036 -0.2688147 -0.1893052 -0.045453858 0.27584141 -0.020114748
-0.07587986 0.02396459 -0.052921154 -0.047082983 -0.001991606 0.08556577 -0.05181668 0.065658875
0.06313642 -0.0016322031 0.06038457 -0.02258131 0.07588338 0.008863157 0.06521774 -0.022533325
0.041893844 0.029317647 -0.04487936 0.075791515 -0.07580638 0.026703954 0.06922402 0.00083007594
0.19602576 -0.13251843 0.029121092 0.11833817 -0.06316658 -0.047232598 -0.021906555 0.025014233
-0.13937683 0.0205828 0.09726437 0.057886288 0.13464348 -0.050880205 0.0015104382 -0.02999346
0.054647908 -0.18167183 -0.039705444 0.04160354 0.008345168 0.0010407923 0.0033176017 -0.054151032
-0.10882722 0.111888655 -0.05588842 0.030157302 -0.017753296 0.020792138 0.111718394 -0.04606303
0.069616735 0.025602996 -0.05438739 -0.07459955 0.016912078 -0.032858133 0.05760302 0.032777432
-0.3498511 0.038622864 0.046620987 -0.1439685 0.049549278 -0.22921874 -0.035009954 0.0126926135
-0.054737467 0.030176105 -0.03253236 0.09181194 0.05841333 0.19077384 -0.06520422 0.021065295
0.010789863 -0.038367163 -0.027276289 0.040892933 -0.052222632 -0.076699026 -0.008816263 -0.032999963
-0.067447744 0.21274827 0.014549052 -0.05022796 -0.027254444 -0.089344576 0.027360395 -0.17229441
0.01723047 -0.023928726 0.044961143 -0.20670126 -0.0015100547 -0.020274984 -0.010258364 -0.034849983
-0.09326924 -0.01319891 0.007760183 0.15205978 0.016996313 -0.008422976 0.06541396 0.011759864
-0.051237248 0.040773124 0.052558985 0.0405897 -0.010151568 -0.16856991 -0.056331847 0.037898332
0.09778455 -0.03339597 0.013276205 0.015248088 0.07576883 0.03957238 -0.10158489 -0.054348182
-0.13510285 0.007754412 0.029158412 0.0052685193 0.0036179782 0.045844607 -0.08391374 -0.048697982
-0.038973093 -0.049234975 -0.08203762 0.055396143 -0.07579494 -0.05718144 0.02020222 -0.077744365
-0.05036121 -0.28736213 0.07632975 -0.11657721 -0.049640395 -0.3718616 -0.026198328 0.072511
00000000: a060 c3bc b44c a83c 2c3b 1b3e 1483 cb3c
00000010: ba5d 263d 6bed c23b 4446 983c 4b71 96bd
00000020: a654 573e ed15 21be a9f5 833d 7299 b9bd
00000030: 31f7 dbbc 3f6e 6a3d f112 9a3e b068 673d
00000040: 9232 e9bd 2e54 163e 7ff6 35bd 9b80 82bc
00000050: 6401 803e bffc 06bd b71a a23b 05ec f13c
00000060: f94b 553e 6c3e 14bb bc30 16be 908c 03be
00000070: 32a0 863d 83e1 09bd 90ea 68bd bda1 6a3d
00000080: 7cba 9b3a f5ec d9bc a3f1 f8bc 3b59 abbc
00000090: 1cd2 93bc b207 0bbe 3c99 bc3d e8f6 8e3c
000000a0: 24c8 98bd 20f7 2e3c 6063 41be d55f c8bd
000000b0: 1934 19bd dfaf 0e3d 15ea d03d 7ee6 833d
000000c0: 4792 16bc d712 383d f235 c93c 542f b6ba
000000d0: f840 b0ba f7c8 3f3c 66ae 44bd f867 bcbc
000000e0: e5a3 1b3d 27e5 0fbe fa93 5abe a0a0 853c
000000f0: 77ad 48bd ac39 60bc 4cf8 72bd 4edf e43b
00000100: 839e 22bd 9816 2bbd f48a 78bb 705d 51bd
00000110: b749 803c 3b32 51be 7685 3a3d 5e4a 9bbd
00000120: c0da 07bc 7c36 17bd 1cd7 97bd 9499 d03d
00000130: b01e 6e3d 1b18 53bc 4a49 29be c968 8d3c
00000140: 6cec e73d e146 36bc ffb8 6dbe d8a5 913d
00000150: 99be a6bd b933 fcbc 8f79 9dbd 3d16 1abc
00000160: e1ab 483d f2ce 2e3d 6334 e1bd e150 b13d
00000170: 2f9b 843c ee2a 863c 622f cbbc e564 3ebd
00000180: c4f8 593b 3cf1 d0bc c827 03bd 15a2 89be
00000190: 39d9 41be d32d 3abd 163b 8d3e afc7 a4bc
000001a0: e666 9bbd 6351 c43c dac3 58bd 16da 40bd
000001b0: 9b85 02bb 1b3d af3d ba3d 54bd 2978 863d
000001c0: ab4d 813d a6ef d5ba d055 773d 70fc b8bc
000001d0: bf68 9b3d c636 113c e190 853d cf97 b8bc
000001e0: e198 2b3d 902b f03c 6bd3 37bd 9538 9b3d
000001f0: 6040 9bbd 40c2 da3c 53c5 8d3d 7499 593a
00000200: faba 483e e9b2 07be 5b8f ee3c 485b f23d
00000210: 7b5d 81bd f876 41bd 6075 b3bc a6ea cc3c
00000220: cdb8 0ebe 439d a83c 8b32 c73d 2c1a 6d3d
00000230: fbdf 093e c367 50bd e5f9 c53a d8b4 f5bc
00000240: 7cd6 5f3d 2e08 3abe 2da2 22bd 7968 2a3d
00000250: 2cba 083c 326b 883a 1f6c 593b 79cd 5dbd
00000260: cee0 debd e125 e53d 42eb 64bd 720c f73c
00000270: 5c6f 91bc 4654 aa3c 9dcc e43d 96ac 3cbd
00000280: 3893 8e3d 60bd d13c 50c5 5ebd a6c7 98bd
00000290: 338b 8a3c 4096 06bd 25f1 6b3d a141 063d
000002a0: af1f b3be 0233 1e3d a6f5 3e3d 7a6c 13be
000002b0: 2ff4 4a3d 51b8 6abe 9966 0fbd aef4 4f3c
000002c0: 6534 60bd e133 f73c a740 05bd e607 bc3d
000002d0: d142 6f3d 385a 433e ca89 85bd 2091 ac3c
000002e0: f7c7 303c e326 1dbd 8672 dfbc 597f 273d
000002f0: 66e7 55bd 6114 9dbd 1672 10bc f82a 07bd
00000300: 0b22 8abd afda 593e 265f 6e3c d5bb 4dbd
00000310: b644 dfbc 4afa b6bd e822 e03c f26d 30be
00000320: ea26 8d3c 2d06 c4bc 2d29 383d 7fa9 53be
00000330: 07ed c5ba b917 a6bc b212 28bc dbbe 0ebd
00000340: f103 bfbd 3e40 58bc 2249 fe3b 8fb5 1b3e
00000350: da3b 8b3c 8600 0abc c1f7 853d 72ac 403c
00000360: 26de 51bd b801 273d 1748 573d 6341 263d
00000370: c352 26bc 979d 2cbe 39bc 66bd 483b 1b3d
00000380: 4443 c83d 36ca 08bd 7184 593c 1ed3 793c
00000390: b02c 9b3d a616 223d bd0b d0bd 339c 5ebd
000003a0: 6758 0abe b918 fe3b 9fdd ee3c 8ba3 ac3b
000003b0: 9a1b 6d3b 8ec7 3b3d f8da abbd 8977 47bd
000003c0: 40a2 1fbd 9daa 49bd 5703 a8bd 11e7 623d
000003d0: 613a 9bbd 1637 6abd 207f a53c 7038 9fbd
000003e0: 8e47 4ebd 2121 93be c652 9c3d 08c0 eebd
000003f0: ba53 4bbd a564 bebe e09d d6bc a680 943d

fc.4.bias f4 [256]
-0.029744567 0.027548458 0.03477621 0.052594233 -0.07759173 0.0011181579 0.017891541 0.19044733
0.15609397 -0.006669179 0.030573992 0.041044276 -0.03642032 -0.01662353 0.060533058 -0.001669312
0.015536063 -0.09563458 -0.06690073 -0.020940855 -0.033739626 -0.0051560323 -0.059052054 -0.043434173
-0.11750494 0.052161638 -0.08058289 0.01576481 -0.15201002 0.20718263 0.11121113 0.096201904
-0.036503445 0.04399654 -0.10051755 0.08482768 0.24739437 -0.13171177 0.06347333 -0.0016037413
-0.024141716 0.08363432 -0.19148971 -0.09290059 -0.068054296 -0.112319656 -0.057586405 -0.10589589
-0.0317216 -0.13675798 -0.053451877 -0.08010999 0.15212128 -0.01907584 -0.03171331 -0.11125575
0.07659643 -0.12734425 0.060898066 -0.08295444 0.11201269 -0.015708296 0.1568068 -0.1902866
-0.044834074 0.056727123 0.17342 0.22481814 -0.0087103555 -0.06208632 -0.16550301 0.052524738
-0.114388205 0.0066449465 0.012684976 0.19162306 -0.11327947 -0.031546313 -0.10865394 -0.029599944
-0.07594741 0.0003857695 -0.03193065 0.08269791 -0.109878816 0.033886094 -0.06896879 0.011169561
-0.075899616 -0.09490195 0.00012823114 0.005731098 0.06164378 -0.03491348 -0.014158377 -0.00089192024
0.020772781 -0.03126671 0.024097318 -0.17045161 0.12886825 0.01761025 -0.090988904 0.035705235
-0.014754772 0.0021190648 -0.104070336 -0.022594903 -0.04483446 0.0075199166 -0.013542805 0.004783475
-0.18901803 -0.09577346 -0.011175015 -0.09302271 0.027582414 -0.12125544 0.201148 0.02692153
-0.0867996 -0.056994468 -0.045998637 0.101142414 0.017582176 -0.14302346 -0.059419464 0.013703745
-0.08358036 -0.023475336 -0.0205791 0.012095523 -0.08690011 0.06561565 -0.041736573 0.06334926
-0.1289156 0.07148301 -0.019492961 0.11807423 0.07346172 -0.057209015 0.040913682 -0.08246463
-0.0064074546 -0.009641136 0.03920977 0.011187667 -0.007817103 -0.028268421 0.0074658324 0.010048143
-0.123834506 -0.08601382 -0.17329869 -0.030855002 -0.04401196 -0.0988703 -0.01944027 0.055953167
0.0077877287 -0.020693544 0.034862384 -0.016749248 -0.031154389 -0.13644706 0.028234318 0.00277
0.08693051 -0.07504545 0.19610907 -0.086937875 0.120711714 0.06091762 0.06269771 -0.082315035
0.006813692 0.047614776 -0.120215155 -0.09206265 -0.023238959 -0.10298007 0.18433549 0.01963791
0.010018149 -0.026745627 0.0277957 -0.09901355 -0.05716781 -0.013137954 -0.11388903 -0.20123182
0.08733437 0.020303274 0.027463466 -0.0430507 -0.16796288 0.08899002 -0.025629118 0.010134221
-0.092978925 -0.03003442 -0.021620192 -0.24436721 -0.020213628 0.063584335 0.026810942 -0.10165183
-0.054017227 0.067818716 -0.023588562 -0.040904686 0.03731396 -0.0648559 -0.022661556 -0.03261825
0.18896271 0.12562847 -0.051320184 0.0009906112 0.08679624 -0.011945153 0.04937893 0.028210707
-0.032078948 -0.11366894 0.05685384 0.14535578 -0.06587309 -0.07756354 0.1199949 0.017565427
0.10304378 0.07584653 -0.07625038 -9.181515e-05 -0.03500432 -0.033880748 0.052992865 0.09444951
0.0035656055 -0.055235054 0.11642066 -0.0011267829 -0.03776353 0.032963373 0.008917266 -0.0077927304
-0.089733854 -0.028489005 -0.072207525 0.19303106 -0.22147948 -0.051714223 -0.07513236 0.002728654
00000000: e1aa f3bc 4ead e13c 8071 0e3d 0d6d 573d
00000010: 6ae8 9ebd 278f 923a 4891 923c a004 433e
00000020: 19d7 1f3e 2189 dabb 4f76 fa3c 0b1e 283d
00000030: 792d 15bd 122e 88bc 83f1 773d d1cc daba
00000040: f98a 7e3c 10dc c3bd 4003 89bd 288c abbc
00000050: 9032 0abd eff3 a8bb 91e0 71bd 08e8 31bd
00000060: 6ea6 f0bd 71a7 553d a408 a5bd 3425 813c
00000070: 84a8 1bbe af27 543e a9c2 e33d 8105 c53d
00000080: a384 15bd b735 343d 25dc cdbd 22ba ad3d
00000090: f354 7d3e 73df 06be 4efe 813d a134 d2ba
000000a0: d9c4 c5bc 7848 ab3d e115 44be aa42 bebd
000000b0: 0d60 8bbd d907 e6bd b9df 6bbd f2df d8bd
000000c0: 82ee 01bd 490a 0cbe 5bf0 5abd b510 a4bd
000000d0: aec5 1b3e f044 9cbc d1e5 01bd 0eda e3bd
000000e0: 97de 9c3d 8866 02be 4070 793d 04e4 a9bd
000000f0: e966 e53d afae 80bc f691 203e 7eda 42be
00000100: efa3 37bd b35a 683d 0395 313e ba36 663e
00000110: e1b5 0ebc 3a4e 7ebd 9f79 29be 2e24 573d
00000120: 5d44 eabd dabd d93b a5d4 4f3c d638 443e
00000130: 11ff e7bd b536 01bd f585 debd 957b f2bc
00000140: 518a 9bbd 1b41 ca39 b7c9 02bd 865d a93d
00000150: 2508 e1bd 25cc 0a3d 823f 8dbd 8900 373c
00000160: 4271 9bbd f45b c2bd c975 0639 efcb bb3b
00000170: 307e 7c3d 7001 0fbd 8af8 67bc c1cf 69ba
00000180: ae2b aa3c 8611 00bd bd67 c53c de8a 2ebe
00000190: 0af6 033e 5f43 903c 6458 babd a73f 123d
000001a0: 00be 71bc 02e0 0a3b d422 d5bd f218 b9bc
000001b0: 57a4 37bd a269 f63b a4e2 5dbc b2be 9c3b
000001c0: f18d 41be e024 c4bd 6917 37bc b182 bebd
000001d0: 84f4 e13c c654 f8bd bef9 4d3e 8a8a dc3c
000001e0: fdc3 b1bd 0873 69bd 1169 3cbd c123 cf3d
000001f0: 7f08 903c be74 12be d361 73bd ac85 603c
00000200: 2e2c abbd 594f c0bc 8095 a8bc 4d2c 463c
00000210: aff8 b1bd 7f61 863d f8f3 2abd 42bd 813d
00000220: 7302 04be af65 923d b4af 9fbc e7d0 f13d
00000230: 1973 963d 0054 6abd 1b95 273d 37e3 a8bd
00000240: a0f5 d1bb dbf5 1dbc 6c9a 203d 7a4c 373c
00000250: 4e13 00bc 2d93 e7bc f1a3 f43b f7a0 243c
00000260: f29c fdbd 0328 b0bd 3675 31be a1c3 fcbc
00000270: e345 34bd 837c cabd 3341 9fbc 262f 653d
00000280: 3430 ff3b 8285 a9bc dccb 0e3d b835 89bc
00000290: 7d37 ffbc c7b8 0bbe a84b e73c e388 353b
000002a0: a008 b23d 6eb1 99bd d1d0 483e 7c0c b2bd
000002b0: b437 f73d c184 793d a867 803d c994 a8bd
000002c0: 6445 df3b b607 433d 5d33 f6bd 588b bcbd
000002d0: a15f bebc 37e7 d2bd 71c2 3c3e afdf a03c
000002e0: 2a23 243c a519 dbbc cfb3 e33c 9ec7 cabd
000002f0: cb28 6abd 9340 57bc a73e e9bd b70f 4ebe
00000300: 5ddc b23d 0d53 a63c 10fb e03c ee55 30bd
00000310: 76fe 2bbe 6640 b63d 28f4 d1bc 010a 263c
00000320: bc6b bebd be0a f6bc d41c b1bc 663b 7abe
00000330: 0d97 a5bc 8138 823d 9fa2 db3c d62e d0bd
00000340: 2b41 5dbd 8ae4 8a3d cd3c c1bc ac8b 27bd
00000350: 86d6 183d 2cd3 84bd baa4 b9bc b79a 05bd
00000360: 717f 413e c0a4 003e 1d35 52bd 65d7 813a
00000370: 3ac2 b13d 9ab5 43bc 9041 4a3d 241a e73c
00000380: 3765 03bd 43cb e8bd 92df 683d 25d8 143e
00000390: 78e8 86bd a2d9 9ebd e3bf f53d 5fe5 8f3c
000003a0: 9e08 d33d 6d55 9b3d 2929 9cbd e28c c0b8
000003b0: b160 0fbd 8ac6 0abd 0c0f 593d bf6e c13d
000003c0: efac 693b 273e 62bd f46d ee3d 8fb0 93ba
000003d0: eead 1abd 9a04 073d b919 123c 295a ffbb
000003e0: 62c6 b7bd c661 e9bc 8ae1 93bd efa9 453e
000003f0: 84cb 62be 4bd2 53bd ffde 99bd 38d3 323b

fc.6.weight f4 [4, 256]
-0.013794537 0.04160263 0.11167819 -0.5378521 0.08209833 0.04315878 0.016064633 0.15381457
-0.22295009 0.007483644 -0.15890141 0.11755693 -0.40516514 -0.013974464 0.008276199 0.065782666
0.048912626 0.09741065 0.06814731 0.09249009 0.0363302 -0.13354896 0.036203746 -0.22310974
0.12609324 -0.06344942 0.07865936 -0.23339391 -0.3639383 -0.0031822291 0.19945331 0.02445662
-0.22901595 -0.10755495 0.10945747 -0.3710414 0.12692475 0.25274888 0.14055096 -0.011049389
-0.018923335 0.1326434 0.15761934 0.045476712 -0.02158183 -0.119499385 0.035981398 -0.120838255
-0.25370464 -0.48308092 0.013476691 -0.03842817 0.09183427 0.18693995 -0.035881817 0.05582669
0.10532223 -0.10472455 -0.018898312 -0.025668785 0.040042497 -0.00018403286 0.1525582 0.14109294
-0.00828965 -0.061901286 0.16430995 -0.8185193 0.013308189 0.02041104 0.028035497 -0.008806101
-0.023108024 -0.00907234 0.15812746 0.10970763 0.15463357 -0.53477067 0.10393781 0.07864783
0.14220238 -0.009685034 0.021813964 0.1177909 0.020899063 -0.24861653 0.12535396 -0.1615145
-0.20028941 -0.030404674 0.19200163 0.0058000516 -0.26878896 -0.3318747 -0.34188974 -0.048916854
0.15347852 0.018494895 -0.37708542 0.10429749 0.007535475 0.06419375 0.010666162 -0.17195916
-0.26358214 0.06793412 -0.02681635 0.20552056 0.07294559 -0.026414244 -0.025436638 0.04730309
0.13330612 -0.043256145 0.04990607 -0.43963194 -0.14521846 -0.157116 -0.81273127 -0.4519136
-0.22805601 0.101546235 0.12245662 -0.12034102 0.08537932 -0.04428898 0.05462124 0.02080993
-0.06196177 -0.014918413 0.020703616 -0.29935253 -0.0053482098 0.08163448 -0.13494812 0.17246166
-0.14960408 -0.63829565 0.13336304 0.09114771 0.19135706 0.061275642 0.107141964 0.090951495
-0.23425324 -0.58244693 0.071343906 -0.5691384 0.25784528 0.1362803 0.026257357 -0.083511814
-0.22931783 0.29623476 0.10270489 0.07391178 0.15308411 0.178869 -0.23698318 0.084650956
0.10325225 -0.18754467 0.12385611 -0.796278 -0.07365428 0.022450058 -0.13985854 0.0032425425
-0.4413817 0.048249662 0.047571596 0.057529185 0.124529146 0.008359808 0.48537236 -0.06751664
0.020346707 0.04519815 0.18803939 0.11346818 -0.4422455 -0.17089157 0.07766422 -0.07877659
0.03609677 -0.033899732 0.012371731 -0.38089588 0.24030823 -0.14215429 -0.20193775 0.069085695
-0.3056864 -0.16598809 0.051470716 -0.019258518 -0.24809669 0.020608474 0.06598167 0.14665447
0.0037471438 0.07400355 -0.28345138 0.12365937 0.09334907 0.07168669 0.12865488 -0.7262571
0.016731858 0.21279797 0.041229535 0.25462502 -0.0033404832 0.0076010916 0.08870091 0.0600937
0.102728784 -0.15492517 0.030745786 0.020107452 0.10952663 0.026008217 -0.31059122 0.12209341
-0.18489945 -0.06584654 0.037075836 0.011812296 0.08901657 0.12455634 -0.35246956 0.00023443541
0.08166945 -0.2386526 0.0057209353 0.06292319 0.043691535 -0.21561992 -0.0380898 -0.022056444
-0.42477086 -0.7692455 0.11013988 -0.55819225 -0.018580368 -0.07892283 -0.14443459 0.06670892
0.046592038 0.042871114 0.11039973 0.096191615 0.14535303 0.012814807 -0.18024996 -0.018144645
00000000: 7b02 62bc 8567 2a3d 89b7 e43d adb0 09bf
00000010: 2b23 a83d 43c7 303d fa99 833c 9181 1d3e
00000020: 074d 64be 5b39 f53b 0db7 22be b0c1 f03d
00000030: ce71 cfbe 26f5 64bc e598 073c 10b9 863d
00000040: 9b58 483d 3c7f c73d d190 8b3d 726b bd3d
00000050: face 143d 0fc1 08be 614a 143d e176 64be
00000060: 961e 013e c5f1 81bd 2918 a13d d0fe 6ebe
00000070: 1f56 babe f28c 50bb 7d3d 4c3e 4059 c83c
00000080: 2883 6abe c545 dcbd 3d2b e03d 23f9 bdbe
00000090: 90f8 013e 4d68 813e 97ec 0f3e 7f08 35bc
000000a0: 1c05 9bbc acd3 073e f766 213e ca45 3a3d
000000b0: 61cc b0bc 18bc f4bd 3b61 133d 0c7a f7bd
000000c0: 93e5 81be 6256 f7be 57cd 5c3c db66 1dbd
000000d0: 9b13 bc3d 306d 3f3e d0f8 12bd 87aa 643d
000000e0: 2eb3 d73d d379 d6bd a2d0 9abc 5847 d2bc
000000f0: 9a03 243d f2f8 40b9 3738 1c3e ab7a 103e
00000100: 50d1 07bc 348c 7dbd de40 283e 7b8a 51bf
00000110: 970a 5a3c 0e35 a73c b3aa e53c 7747 10bc
00000120: 0a4d bdbc 27a4 14bc 2aec 213e 65ae e03d
00000130: 4358 1e3e bbe6 08bf 59dd d43d 1d12 a13d
00000140: 809d 113e faad 1ebc 33b3 b23c 5b3c f13d
00000150: 8334 ab3c 5595 7ebe ca5c 003e 0f64 25be
00000160: ab18 4dbe 3913 f9bc 139c 443e 5c0e be3b
00000170: b59e 89be 7beb a9be 2c0c afbe 0a5d 48bd
00000180: 7929 1d3e 9b82 973c 5711 c1be ec99 d53d
00000190: 25ec f63b 0378 833d 20c1 2e3c 1016 30be
000001a0: 3df4 86be 0b21 8b3d f6ad dbbc fb73 523e
000001b0: 7f64 953d af62 d8bc 7f60 d0bc e3c0 413d
000001c0: 6681 083e 5b2d 31bd 4f6a 4c3d 7017 e1be
000001d0: 26b4 14be 04e3 20be 280f 50bf 3861 e7be
000001e0: 8487 69be 79f7 cf3d 89ca fa3d 5a75 f6bd
000001f0: 5adb ae3d 5d68 35bd 85ba 5f3d 9679 aa3c
00000200: a0cb 7dbd 5c6c 74bc a19a a93c bc44 99be
00000210: 0940 afbb fa2f a73d d72f 0abe ca99 303e
00000220: d031 19be 5867 23bf 5290 083e a7ab ba3d
00000230: 1bf3 433e 2bfc 7a3d 3f6d db3d c744 ba3d
00000240: 15e0 6fbe 3e1b 15bf c11c 923d 0eb3 11bf
00000250: 4c04 843e 108d 0b3e ab19 d73c 3e08 abbd
00000260: 4bd2 6abe 15ac 973e f156 d23d 0f5f 973d
00000270: 15c2 1c3e 6f29 373e b8ab 72be 7b5d ad3d
00000280: ea75 d33d b60b 40be 46a8 fd3d e0d8 4bbf
00000290: 0ed8 96bd 2fe9 b73c 1437 0fbe d680 543b
000002a0: c8fc e1be 70a1 453d 6fda 423d b9a3 6b3d
000002b0: 2309 ff3d 93f7 083c ba82 f83e 2a46 8abd
000002c0: 23ae a63c b221 393d 668d 403e 0162 e83d
000002d0: 016e e2be 33fe 2ebe 6b0e 9f3d 9f55 a1bd
000002e0: 35da 133d 72da 0abd cdb2 4a3c c904 c3be
000002f0: 5c13 763e e590 11be c5c8 4ebe cd7c 8d3d
00000300: ee82 9cbe c8f8 29be f5d2 523d 0ac4 9dbc
00000310: 0f0d 7ebe 1ad3 a83c 6621 873d 972c 163e
00000320: a492 753b 2c8f 973d 8a20 91be 2041 fd3d
00000330: cc2d bf3d 79d0 923d 1bbe 033e fceb 39bf
00000340: 4011 893c b6e7 593e 4de0 283d 365e 823e
00000350: 02ec 5abb 9412 f93b d3a8 b53d d024 763d
00000360: 7863 d23d b4a4 1ebe 96de fb3c 62b8 a43c
00000370: 7f4f e03d 2f0f d53c d005 9fbe 1c0c fa3d
00000380: 4856 3dbe 8dda 86bd d5dc 173d 5c88 413c
00000390: 524e b63d 6517 ff3d e476 b4be c7d2 7539
000003a0: 5042 a73d 5961 74be af76 bb3b e0dd 803d
000003b0: e5f5 323d 78cb 5cbe 0d04 1cbd b7af b4bc
000003c0: 917b d9be 46ed 44bf 0491 e13d b0e5 0ebf
000003d0: db35 98bc 4ba2 a1bd a9e6 13be b09e 883d
000003e0: 4bd7 3e3d 9f99 2f3d 4119 e23d 1c00 c53d
000003f0: 6dd7 143e 32f5 513c 7293 38be 14a4 94bc

fc.6.bias f4 [4]
-0.042247146 0.028671345 -0.01768547 -0.022405121
00000000: 580b 2dbd 2be0 ea3c 1ee1 90bc f28a b7bc
