model/lv1_bc_model_3.0.pth (torch, 336364 bytes, 8 tensors)

fc.0.weight f4 [256, 191]
-0.3300733 -0.028628899 0.007791917 0.06419946 0.118143104 -0.09860215 0.16540319 0.047060143
-0.02413093 0.012008993 0.088091284 -0.01932203 0.056819804 0.04185342 -0.007892592 -0.044486627
0.08473265 0.0032248106 -0.04600299 0.037813157 0.002655631 0.012337068 -0.031492896 -0.009190888
-0.056779265 0.0065079993 0.0030325653 -0.01758823 -0.011933117 -0.02833432 -0.06363152 0.014188263
-0.030412488 0.011581056 -0.0440953 -0.049632713 -0.04961308 0.021974795 0.07096227 0.03485371
-0.025802113 -0.033721663 -0.02893013 -0.028346725 -0.018799076 0.005568076 -0.03945969 0.060578592
-0.03759326 0.0072684563 0.01470557 0.0047108596 -0.048870303 -0.0684818 -0.037015904 -0.07116747
-0.031464748 0.0010844193 -0.06757105 0.045293782 0.061124958 0.07123552 0.07057702 0.0028291615
0.06945926 0.004818137 0.025858233 -0.035788972 -0.027447075 0.0818308 -0.00032672338 0.04169575
0.056702316 0.046999052 0.016910266 -0.04759803 -0.024683155 -0.06173953 0.025133554 0.06189062
-0.038784616 -0.006506343 -0.07191914 -0.020199802 -0.050250772 0.03419304 0.06501301 0.0024469863
0.024127912 -0.027320536 0.041023213 -0.06137503 0.0328046 0.06390355 -0.04749282 0.02912125
0.045108605 0.02575053 0.05975754 0.051657684 0.0049528778 -0.038601503 -0.022748942 -0.027685996
0.007104396 -0.043382805 0.04984254 -0.060073197 0.012545579 0.010927721 0.069577746 -0.05227112
-6.695908e-05 0.030492965 -0.018485585 0.05497072 -0.027156198 -0.010430605 0.0311699 -0.029783953
0.0518041 0.04643234 -0.038919542 0.05506056 0.043281592 0.06921156 -0.023049414 0.05859447
-0.016241696 0.076770455 0.06098243 -0.056843482 0.029902926 0.04548572 -0.054656826 0.073513955
0.009452568 0.07024455 -0.043680504 0.07240194 0.06574767 0.005193033 0.008607705 0.07758714
-0.050011832 -0.039680205 0.041252494 -0.00055966584 0.00097167183 0.07452028 0.031953793 0.04914058
0.02255335 -0.028468363 -0.062260084 -0.04236138 0.08699097 -0.029996393 -0.02096629 0.032105494
-0.04877197 -0.024721548 0.033498928 -0.032985047 -0.00887702 0.07669121 0.04474721 0.080868915
0.0100985505 -0.011134967 -0.046896793 0.02084693 0.07088113 0.05479657 -0.035475455 0.057118088
0.009176802 0.030676607 -0.027598491 0.39305514 0.16107531 -0.62850565 0.15594661 -0.015178823
-0.089547716 1.2543075 -0.059268717 -0.033571817 0.030187516 0.005662994 -0.011247661 -0.013118776
-0.031418554 -0.08906026 -0.06796945 -0.058713373 0.03648064 -0.07408956 -0.08934432 0.029093476
-0.059650656 -0.07621487 0.0063657844 0.003997024 -0.016786808 -0.0061209532 0.02012771 -0.0752372
-0.021948863 -0.0138279945 0.0013187805 -0.09280613 0.008878861 0.042156387 0.02798046 -0.00820242
0.06429145 -0.05868058 -0.029290942 -0.015228509 -0.070193015 0.05437654 -0.031969104 -0.06889902
0.0016716915 0.034666736 -0.008488479 0.059075084 0.04410632 -0.042369623 0.044120196 0.06819887
-0.0028723087 0.047160283 -0.00040403553 0.029829063 0.07082984 -0.05239998 0.04263221 -0.004350108
0.01396773 0.041701935 0.021887831 -0.08246212 -0.008372535 -0.04367468 0.059274193 -0.018103437
0.0058709905 0.030498624 -0.022616131 -0.017230622 0.02817135 0.05710761 -0.020092215 0.010158315
00000000: 5eff a8be 2787 eabc 5653 ff3b 027b 833d
00000010: 03f5 f13d edef c9bd 745f 293e 23c2 403d
00000020: 3aae c5bc 5ec1 443c 3469 b43d 3c49 9ebc
00000030: e2bb 683d 7e6e 2b3d ee4f 01bc 9c37 36bd
00000040: 5088 ad3d 5857 533b a26d 3cbd f8e1 1a3d
00000050: 180a 2e3b 6a21 4a3c b2fe 00bd 6195 16bc
00000060: 6091 68bd 0e41 d53b 01be 463b 3115 90bc
00000070: 1f83 43bc 601d e8bc 3e51 82bd e375 683c
00000080: 9c23 f9bc 78be 3d3c 469d 34bd ac4b 4bbd
00000090: 1637 4bbd 7c04 b43c ab54 913d c4c2 0e3d
000000a0: f45e d3bc ba1f 0abd e1fe ecbc 6437 e8bc
000000b0: 8500 9abc 6874 b63b 7ca0 21bd 4221 783d
000000c0: 64fb 19bd 3b2c ee3b a2ef 703c 8e5d 9a3b
000000d0: 3a2c 48bd 3040 8cbd fd9d 17bd 40c0 91bd
000000e0: 2ee1 00bd 1323 8e3a b162 8abd f985 393d
000000f0: 2a5e 7a3d eee3 913d af8a 903d 7469 393b
00000100: a840 8e3d 76e1 9d3b a5d4 d33c 7597 12bd
00000110: b0d8 e0bc e896 a73d 124c abb9 2ac9 2a3d
00000120: b040 683d 1482 403d 6687 8a3c 27f6 42bd
00000130: 5434 cabc 97e2 7cbd e2e4 cd3c 0581 7d3d
00000140: 9edc 1ebd 2933 d5bb 584a 93bd 0e7a a5bc
00000150: c1d3 4dbd 000e 0c3d 8a25 853d 9e5d 203b
00000160: e6a7 c53c 51cf dfbc f507 283d 6264 7bbd
00000170: 1e5e 063d dddf 823d d587 42bd b08f ee3c
00000180: cdc3 383d c7f2 d23c 52c4 743d 0297 533d
00000190: c04b a23b 9c1c 1ebd fd5b babc becd e2bc
000001a0: fecb e83b 2bb2 31bd b127 4c3d 500f 76bd
000001b0: f98b 4d3c 2f0a 333c c77e 8e3d 3e1a 56bd
000001c0: 626c 8cb8 62cc f93c 156f 97bc fa28 613d
000001d0: ad76 debc 21e5 2abc 0558 ff3c 7afd f3bc
000001e0: 8930 543d d62f 3e3d 196a 1fbd 2f87 613d
000001f0: 0a48 313d cabe 8d3d 20d2 bcbc c100 703d
00000200: 4e0d 85bc d439 9d3d b6c8 793d b6d4 68bd
00000210: fbf6 f43c 3c4f 3a3d d6df 5fbd 7c8e 963d
00000220: f2de 1a3c 60dc 8f3d 54ea 32bd 7847 943d
00000230: b7a6 863d 512a aa3b 5507 0d3c 02e6 9e3d
00000240: 35d9 4cbd b687 22bd 60f8 283d 8ab6 12ba
00000250: cbb7 7e3a 179e 983d fbe1 023d a247 493d
00000260: cec1 b83c 7c36 e9bc 6e04 7fbd 2083 2dbd
00000270: 5228 b23d ffba f5bc 7fc1 abbc 0d81 033d
00000280: 1ec5 47bd d884 cabc 2c36 093d 541b 07bd
00000290: ec70 11bc 4810 9d3d da48 373d 9a9e a53d
000002a0: 6474 253c 706f 36bc da16 40bd 2ec7 aa3c
000002b0: 202a 913d 5e72 603d b64e 11bd a8f4 693d
000002c0: 4c5a 163c 824d fb3c 3b16 e2bc 863e c93e
000002d0: edf0 243e bfe5 20bf 78b0 1f3e 99b0 78bc
000002e0: cb64 b7bd 268d a03f c1c3 72bd 9a82 09bd
000002f0: cf4b f73c a390 b93b 1c48 38bc 22f0 56bc
00000300: beb0 00bd 3a65 b6bd 9133 8bbd 6f7d 70bd
00000310: b96c 153d 44bc 97bd 28fa b6bd 7155 ee3c
00000320: 3f54 74bd 8b16 9cbd 1298 d03b 78f9 823b
00000330: 7d84 89bc 4792 c8bb dee2 a43c f615 9abd
00000340: 1ace b3bc d08e 62bc eeda ac3a 2411 bebd
00000350: a478 113c 2dac 2c3d 4737 e53c 7163 06bc
00000360: 3cab 833d 0c5b 70bd 8ff3 efbc ff80 79bc
00000370: 5bc1 8fbd efb9 5e3d 09f2 02bd ee1a 8dbd
00000380: a91c db3a b5fe 0d3d 4313 0bbc b7f8 713d
00000390: d4a8 343d c58b 2dbd 61b7 343d d9ab 8b3d
000003a0: 583d 3cbb 242b 413d bbd4 d3b9 145c f43c
000003b0: 3c0f 913d 5da1 56bd 1d9f 2e3d 5a8b 8ebb
000003c0: e8d8 643c a6cf 2a3d 1c4e b33c e6e1 a8bd
000003d0: f52c 09bc 39e4 32bd 7fc9 723d a94d 94bc
000003e0: 7061 c03b 40d8 f93c 7745 b9bc 3c27 8dbc
000003f0: 9ac7 e63c abe9 693d 6e98 a4bc 106f 263c

fc.0.bias f4 [256]
0.044822786 -0.007432495 -0.053051952 0.04488882 -0.0020926192 0.034870625 -0.051366657 0.0058749826
-0.044067416 -0.08367893 0.027065115 -0.021039644 0.004686135 0.017832084 -0.099909306 -0.017392231
-0.04349005 0.03337465 0.013405781 -0.0056382776 0.00874309 -0.043008156 0.0152208535 0.010257925
-0.0037406129 -0.005288981 -0.0065037813 0.03519065 -0.08781634 0.07790716 -0.062106322 0.03344474
-0.08829852 0.018631727 0.017834045 -0.07543887 -0.083673544 -0.035092756 -0.09211259 0.06114735
-0.04310533 -0.046198163 0.022133589 -0.06413567 0.01098616 0.06935522 0.017976705 0.07515451
0.008163873 0.0015403382 -0.04547202 -0.002711813 -0.0067951716 -0.045762986 -0.0035938905 -0.05928261
-0.074369155 -0.07222998 -0.0032823086 -0.031942587 0.038220353 0.058552776 -0.059204753 0.034947008
0.048302844 -0.031529773 0.049294066 -0.06286236 -0.08580255 0.011307682 0.04724541 -0.054948185
0.04424938 -0.04667068 -0.004382436 0.03376524 -0.021263871 0.07223948 -0.035604414 0.041516103
-0.019564897 -0.011744065 -0.036539003 -0.046269808 -0.032085333 -0.07104302 0.026641566 -0.03045272
0.047776196 0.01533213 0.024829684 -0.00810323 -0.02652541 0.012418037 -0.08815377 0.020230707
-0.016322535 -0.062022623 -0.011502698 -0.060946092 -0.058453675 -0.06317644 0.014269766 0.029059414
-0.019612173 -0.002007612 -0.061053246 0.046050657 0.07765782 0.060658813 -0.069603376 -0.060490463
-0.07812851 -0.07745768 0.05126582 -0.035112407 -0.010444746 -0.080847844 -0.049843077 -0.0692096
-0.090847746 -0.020439524 -0.05298404 0.02968392 -0.081819475 0.06954639 0.045773998 -0.019263785
0.025786087 -0.07728984 0.0067930114 -0.04643341 -0.0190295 -0.02401038 -0.03739796 -0.08296722
-0.017536253 0.06552108 0.0028224955 -0.033349127 -0.02938302 -0.024216764 0.048608743 -0.038918123
-0.024547411 0.0007304888 0.0026737275 0.052279536 -0.09701352 -0.11221578 -0.08642076 0.0055150883
-0.0028987871 0.06348898 -0.0223346 -0.034586076 0.078022294 0.025127474 -0.01332672 -0.0203333
0.019483829 -0.06537657 0.012702852 -0.0160695 0.033466954 0.025490819 -0.021840826 0.046516046
0.0043130997 -0.08336659 0.017521549 -0.054568645 -0.07869479 0.014117679 -0.06094989 -0.051337544
-0.05241509 0.040860094 -0.07425219 0.0016566386 0.030103501 -0.0992523 -0.04298461 -0.059212133
0.027408352 -0.036553174 -0.046265047 -0.05640978 0.028773766 0.032233413 -0.043175466 0.017300406
0.01633332 0.0005863386 0.030388474 0.009480579 -0.0066365316 0.057856403 -0.015618963 -0.057455737
0.03540139 0.029932288 -0.038531665 0.02169558 0.009178702 -0.0052224463 0.003384384 -0.08256413
-0.079308264 -0.047695763 -0.018145854 -0.07034585 0.002872086 0.034083027 -0.06869817 0.03191856
-0.001270975 -0.0034717685 0.0017747512 0.012770793 0.06046446 -0.0053295973 0.05041794 -0.038628865
-0.011924556 0.0063332673 0.028406087 0.053176373 -0.072251424 0.043768823 0.034198925 -0.020181654
0.03413233 -0.043997742 0.029059133 -0.025808372 -0.06843504 0.006141152 0.048582613 0.0034699442
-0.0630323 -0.075083494 0.005717958 -0.06573847 0.0049372534 -0.060696788 0.011093496 0.04075463
-0.047788218 -0.054701876 -0.046228733 0.035271328 -0.0730245 -0.0392923 0.01630208 -0.031753927
00000000: 1998 373d 498c f3bb 014d 59bd 57dd 373d
00000010: 5324 09bb 80d4 0e3d d865 52bd ed82 c03b
00000020: 0980 34bd dc5f abbd a9b7 dd3c 555b acbc
00000030: 268e 993b 9714 923c 409d ccbd 277a 8ebc
00000040: 9f22 32bd dbb3 083d eca3 5b3c 4dc1 b8bb
00000050: 2d3f 0f3c 5229 30bd e360 793c db10 283c
00000060: 1225 75bb 304f adbb ac1d d5bb 1224 103d
00000070: 0ed9 b3bd ca8d 9f3d 3363 7ebd 5afd 083d
00000080: dbd5 b4bd 90a1 983c b418 923c b27f 9abd
00000090: 095d abbd 6cbd 0fbd 87a5 bcbd a575 7a3d
000000a0: 378f 30bd 493a 3dbd 8051 b53c 9059 83bd
000000b0: 4bff 333c 1c0a 8e3d e243 933c 9cea 993d
000000c0: c4c1 053c 2ce5 c93a de40 3abd acb8 31bb
000000d0: 08aa debb f871 3bbd 7a87 6bbb 52d2 72bd
000000e0: db4e 98bd 50ed 93bd 001c 57bb 3bd6 02bd
000000f0: f28c 1c3d 09d5 6f3d af80 72bd 9824 0f3d
00000100: 34d9 453d 5d25 01bd 93e8 493d fbbd 80bd
00000110: 3fb9 afbd db43 393c 6784 413d 5911 61bd
00000120: d63e 353d c129 3fbd 8a9a 8fbb 6c4d 0a3d
00000130: 9231 aebc 4bf2 933d efd5 11bd ca0c 2a3d
00000140: 9046 a0bc 2e6a 40bc eca9 15bd 6985 3dbd
00000150: e96b 03bd 017f 91bd 6a3f da3c fc77 f9bc
00000160: f9b0 433d 9d33 7b3c 9f67 cb3c 69c3 04bc
00000170: d14b d9bc 0675 4b3c f789 b4bd deba a53c
00000180: d6b6 85bc 6f0b 7ebd d075 3cbc 9ca2 79bd
00000190: 1f6d 6fbd a662 81bd bdcb 693c 020e ee3c
000001a0: b5a9 a0bc 2492 03bb f812 7abd 9d9f 3c3d
000001b0: 100b 9f3d 6075 783d 378c 8ebd d9c4 77bd
000001c0: d701 a0bd 22a2 9ebd 1cfc 513d 07d2 0fbd
000001d0: 7120 2bbc 8e93 a5bd 4128 4cbd c3bd 8dbd
000001e0: 620e babd ca70 a7bc cb05 59bd b12b f33c
000001f0: f890 a7bd 566e 8e3d 847d 3b3d 16cf 9dbc
00000200: 583d d33c 234a 9ebd e997 de3b f630 3ebd
00000210: c1e3 9bbc 6bb1 c4bc 9a2e 19bd b8ea a9bd
00000220: 30a8 8fbc ea2f 863d 9ef9 383b 1899 08bd
00000230: a9b4 f0bc 3c62 c6bc f619 473d 9c68 1fbd
00000240: a717 c9bc 467e 3f3a b439 2f3b 1123 563d
00000250: 06af c6bd 63d1 e5bd 5efd b0bd eab7 b43b
00000260: 94f9 3dbb 8306 823d 0df7 b6bc 21aa 0dbd
00000270: 27ca 9f3d 22d8 cd3c 5158 5abc 0592 a6bc
00000280: 8d9c 9f3c 27e4 85bd 9f1f 503c 2fa4 83bc
00000290: a514 093d 1fd2 d03c 88eb b2bc 9c87 3e3d
000002a0: e754 8d3b 1abc aabd 5a89 8f3c 5f83 5fbd
000002b0: bc2a a1bd d64d 673c 98a6 79bd 5147 52bd
000002c0: 35b1 56bd ea5c 273d 8811 98bd 9123 d93a
000002d0: 9e9b f63c ca44 cbbd a110 30bd 6c88 72bd
000002e0: 7b87 e03c c8b8 15bd 6b80 3dbd f10d 67bd
000002f0: f6b6 eb3c 2f07 043d c2d8 30bd 95b9 8d3c
00000300: 74cd 853c 84b4 193a 40f1 f83c 6e54 1b3c
00000310: 4377 d9bb d6fa 6c3d aee6 7fbc b556 6bbd
00000320: 0c01 113d 8f34 f53c 61d3 1dbd eeba b13c
00000330: 4462 163c 0e21 abbb 8bcc 5d3b 6217 a9bd
00000340: 5f6c a2bd a25c 43bd 9da6 94bc 7c11 90bd
00000350: 9b39 3c3b a59a 0b3d a0b1 8cbd 09bd 023d
00000360: d896 a6ba 9c86 63bb c59e e83a 973c 513c
00000370: 95a9 773d e7a3 aebb 0b83 4e3d 4d39 1ebd
00000380: 375f 43bc 4c87 cf3b e2b3 e83c 78cf 593d
00000390: 8ef8 93bd f046 333d 2c14 0c3d ff53 a5bc
000003a0: 58ce 0b3d fa36 34bd 6b0d ee3c 146c d3bc
000003b0: ac27 8cbd b73b c93b 90fe 463d 0168 633b
000003c0: 1417 81bd 60c5 99bd b55d bb3b e4a1 86bd
000003d0: afc8 a13b 329d 78bd 7fc1 353c 54ee 263d
000003e0: 94bd 43bd 130f 60bd 575a 3dbd ab78 103d
000003f0: de8d 95bd f6f0 20bd f18b 853c 6810 02bd

fc.2.weight f4 [64, 256]
0.2022512 -0.006477166 0.03161258 -0.033678494 0.07322973 -0.09577316 0.07420015 -0.040910903
0.101088576 0.016799456 -0.030519329 0.03544815 0.04863959 0.012811891 0.04948876 -0.037014112
-0.05948132 -0.015417816 0.054968536 0.014087124 0.065197706 -0.0013260327 0.044598144 0.0008637613
-0.0391571 -0.12138342 0.04043974 -0.066648796 0.02920863 0.011082204 -0.05510778 -0.09292922
0.070445895 0.08730781 0.11434778 0.01878673 -0.030277234 -0.08819216 0.05609778 -0.15640658
0.01935381 0.060080532 0.012022259 0.060645774 0.004783951 -0.1544626 0.063664645 -0.121872425
-0.049020253 -0.19466318 -0.067829005 0.025828792 -0.049644478 -0.032085367 0.047960717 0.044932827
0.04986634 0.03140789 -0.011092999 -0.079902515 0.050105017 0.028865796 0.020486576 -0.03652771
-0.024023464 0.030038076 -0.08180543 -0.00089885795 -0.025817387 -0.050673224 0.060703892 0.011546928
-0.043140493 -0.04341148 0.038609106 0.074096836 -0.0971368 0.033515666 0.07732636 0.00930572
-0.02743938 0.01732506 0.04597062 -0.13095778 0.05597659 -0.036259867 0.010782606 -0.08059058
-0.008095198 0.1303876 0.02769927 0.033669397 0.028159196 -0.056690346 0.006183389 0.021750882
0.054202024 0.045322232 0.03969767 0.057647996 0.018177545 -0.077327274 -0.12125903 0.04505832
-0.05866992 -0.056225296 0.013446034 0.040722165 -0.020495737 0.00046179802 0.010972675 -0.07040693
-0.0623413 0.025967361 -0.051193982 -0.02374445 0.036884446 0.06936938 -0.074361525 0.045625176
-0.043442857 0.010013813 -0.03452769 -0.06870332 0.0041469447 -0.080946304 0.025441147 -0.009384535
0.03921834 -0.012891828 0.086361386 0.03479594 -0.07663076 -0.038221195 0.045466565 -0.004683477
-0.0025422177 0.021927658 -0.047027208 0.01816266 -0.018807644 0.0376378 0.052935798 -0.034621514
0.003944837 0.0026787315 0.03535603 0.030996593 0.036664266 -0.039776713 -0.05045294 -0.026700089
0.051690605 -0.16076404 0.14227283 0.043951932 -0.008603042 -0.4070343 0.0056800013 -0.076716624
-0.032530975 0.044485606 -0.079016834 0.00852652 0.0032965036 0.05627238 0.048526216 -0.05059636
-0.08440426 0.034342173 0.02763175 0.10446033 -0.052617006 0.018413706 0.055481005 -0.092257075
-0.01974501 0.02343402 -0.017093161 -0.02108908 -0.055591732 -0.023943368 -0.029867295 -0.006803215
0.030576156 -0.07250729 -0.044215772 -0.0069110454 -0.0013322212 -0.1356014 0.026329149 -0.05178597
0.023966363 -0.023956813 0.0050886394 -0.02273469 0.074229285 0.007731182 0.08931994 0.046693135
-0.019003725 -0.04460899 0.09001847 0.0034535297 0.110889494 -0.06733829 0.056300487 -0.030010357
0.11684116 -0.043816928 0.06379316 0.0070867264 -0.05184469 0.028176382 0.1293112 -0.030101312
0.04080739 -0.05423524 0.012270659 -0.017270966 0.17322125 0.02446404 0.009217283 -0.08188436
-0.12341852 -0.08046005 0.009236802 -0.018113976 -0.04091001 -0.14429247 -0.08046271 0.14733425
-0.18708865 0.019731501 0.07990206 0.1419326 -0.06784029 -0.02747213 -0.06228793 0.03377931
-0.0053733424 -0.030470338 0.112565875 0.09274792 0.005694907 -0.044857457 0.020624807 0.05300403
-0.045661315 0.04133556 -0.018138997 0.07061102 -0.046320222 0.010267246 -0.055885162 -0.026405482
00000000: f01a 4f3e 683e d4bb 317c 013d 76f2 09bd
00000010: 78f9 953d b824 c4bd 40f6 973d 3192 27bd
00000020: 8707 cf3d 039f 893c ac03 fabc 1432 113d
00000030: 4f3a 473d f7e8 513c bab4 4a3d 1c9c 17bd
00000040: afa2 73bd 029b 7cbc b026 613d aecd 663c
00000050: 6086 853d 46ce adba 8bac 363d 0a6e 623a
00000060: 3263 20bd df97 f8bd 24a4 253d 2a7f 88bd
00000070: f046 ef3c 2292 353c b2b8 61bd ad51 bebd
00000080: f045 903d 70ce b23d 2b2f ea3d a1e6 993c
00000090: f607 f8bc 179e b4bd c9c6 653d 0c29 20be
000000a0: e28b 9e3c 0117 763d 02f9 443c b467 783d
000000b0: b1c2 9c3b 722b 1ebe 9c62 823d 4098 f9bd
000000c0: 76c9 48bd c955 47be efe9 8abd e796 d33c
000000d0: 0258 4bbd f26b 03bd 7572 443d 7c0b 383d
000000e0: a640 4c3d 8fa5 003d 69bf 35bc eea3 a3bd
000000f0: eb3a 4d3d f677 ec3c 77d3 a73c 149e 15bd
00000100: dbcc c4bc 6912 f63c 9b89 a7bd 56a1 6bba
00000110: fc7e d3bc ba8e 4fbd a5a4 783d 542f 3d3c
00000120: 16b4 30bd 3cd0 31bd 9524 1e3d 15c0 973d
00000130: a9ef c6bd b947 093d 485d 9e3d 0577 183c
00000140: 8dc8 e0bc 49ed 8d3c b04b 3c3d cc19 06be
00000150: b547 653d 3a85 14bd 87a9 303c ad0c a5bd
00000160: b9a1 04bc 5484 053e 94e9 e23c ece8 093d
00000170: 1dae e63c 2334 68bd 079e ca3b e82e b23c
00000180: f102 5e3d cea3 393d 069a 223d 4e20 6c3d
00000190: 13e9 943c c35d 9ebd a856 f8bd 138f 383d
000001a0: df4f 70bd 7f4c 66bd c14c 5c3c 49cc 263d
000001b0: ade6 a7bc 7b1d f239 bcc6 333c 8231 90bd
000001c0: 9759 7fbd 81b9 d43c c8b0 51bd b983 c2bc
000001d0: 2514 173d 8911 8e3d db4a 98bd 77e1 3a3d
000001e0: 23f1 31bd fa10 243c e86c 0dbd 54b4 8cbd
000001f0: 18e3 873b 2dc7 a5bd f469 d03c 98c1 19bc
00000200: 69a3 203d 3f38 53bc 3dde b03d 3086 0e3d
00000210: 97f0 9cbd d48d 1cbd 263b 3a3d da77 99bb
00000220: 569b 26bb a2a1 b33c 9a9f 40bd dcc9 943c
00000230: 7d12 9abc 182a 1a3d 35d3 583d 4acf 0dbd
00000240: b143 813b a88d 2f3b 7cd1 103d 91ec fd3c
00000250: 452d 163d e8ec 22bd bea7 4ebd 25ba dabc
00000260: 87b9 533d 549f 24be f8af 113e f106 343d
00000270: c6f3 0cbc cd66 d0be 4e1f ba3b 9b1d 9dbd
00000280: 333f 05bd 8a36 363d 94d3 a1bd d1b2 0b3c
00000290: 270a 583b de7d 663d 6dc3 463d 213e 4fbd
000002a0: 24dc acbd 61aa 0c3d fb5b e23c 4cef d53d
000002b0: ee84 57bd 57d8 963c 0d40 633d 47f1 bcbd
000002c0: 4ac0 a1bc b4f8 bf3c f506 8cbc 02c3 acbc
000002d0: 28b4 63bd e224 c4bc 42ac f4bc 81ed debb
000002e0: d97a fa3c b47e 94bd 991b 35bd 0d76 e2bb
000002f0: ed9d aeba 18db 0abe 3ab0 d73c 861d 54bd
00000300: 1b55 c43c 1441 c4bc 9abe a63b 1a3e babc
00000310: 8605 983d db55 fd3b 5fed b63d 4d41 3f3d
00000320: b3ad 9bbc ebb7 36bd 9b5b b83d 9d54 623b
00000330: 081a e33d a8e8 89bd 579b 663d 48d8 f5bc
00000340: 6b4a ef3d 6179 33bd fda5 823d c537 e83b
00000350: 195b 54bd 28d2 e63c 286a 043e 0797 f6bc
00000360: a625 273d c525 5ebd e00a 493c d77b 8dbc
00000370: e960 313e cf68 c83c 1604 173c fdb2 a7bd
00000380: d9c2 fcbd 3dc8 a4bd f555 173c c363 94bc
00000390: 4191 27bd 68c1 13be a2c9 a4bd cade 163e
000003a0: 2b94 3fbe f5a3 a13c b1a3 a33d c856 113e
000003b0: daef 8abd 3b0d e1bc a121 7fbd 2c5c 0a3d
000003c0: dd12 b0bb ee9c f9bc f088 e63d 9ff2 bd3d
000003d0: 589c ba3b 74bc 37bd 5bf5 a83c c11a 593d
000003e0: 5c07 3bbd 7a4f 293d 3c98 94bc 839c 903d
000003f0: 46ba 3dbd f337 283c d7e7 64bd 4f50 d8bc

fc.2.bias f4 [64]
-0.018844137 -0.030695552 -0.031357575 -0.059544913 -0.018284487 -0.110663496 0.027040225 -0.0044987923
-0.027046222 -0.014287505 0.019944813 -0.08206691 0.016937174 -0.073503345 -0.0714212 -0.019434426
-0.067774415 -0.03920398 -0.009507739 0.03127487 -0.034710787 -0.0118495505 0.024565335 0.031040113
-0.012514394 -0.09073128 0.00038200922 -0.0912937 0.0006387788 -0.067138486 0.025066124 0.009133057
0.047402184 0.027027981 -0.063506156 0.034229267 0.015146981 0.027657354 -0.016113175 0.0032322714
-0.029635703 -0.08896964 -0.033629306 -0.06813391 -0.071481995 -0.057219014 -0.04730221 -0.052999955
0.023111125 0.052933633 -0.004775166 0.038586177 -0.06820965 -0.043560117 -0.018305 -0.07094724
-0.055659752 0.027473211 -0.023507118 0.035521284 0.0029149635 0.040699337 0.05232278 -0.0414779
00000000: 055f 9abc 3d75 fbbc cd70 00bd 5ee5 73bd
00000010: 59c9 95bc 8ba3 e2bd 7683 dd3c 9b6a 93bb
00000020: 0a90 ddbc 2416 6abc 4e63 a33c b212 a8bd
00000030: d4bf 8a3c ec88 96bd 4745 92bd f234 9fbc
00000040: 50cd 8abd 5a94 20bd 59c6 1bbc 141a 003d
00000050: e62c 0ebd 9e24 42bc 3e3d c93c d647 fe3c
00000060: 2c09 4dbc 52d1 b9bd 6948 c839 31f8 babd
00000070: b873 273a e77f 89bd 7957 cd3c d1a2 153c
00000080: cb28 423d c969 dd3c 840f 82bd fd33 0c3d
00000090: 0b2b 783c ad91 e23c c7ff 83bc 84d4 533b
000000a0: 93c6 f2bc b735 b6bd e2be 09bd cb89 8bbd
000000b0: 2765 92bd 7c5e 6abd f6bf 41bd 7b16 59bd
000000c0: 8b53 bd3c f0d0 583d ff78 9cbb 8a0c 1e3d
000000d0: 80b1 8bbd 186c 32bd 5ef4 95bc c94c 91bd
000000e0: 7bfb 63bd 800f e13c 0092 c0bc c47e 113d
000000f0: f908 3f3b 59b4 263d 6950 563d bbe4 29bd

fc.4.weight f4 [256, 64]
0.10195408 -0.12226043 -0.04001344 -0.06753133 -0.034635834 0.082488246 -0.10487745 -0.16755114
-0.08321371 -0.11570804 0.013981334 -0.020726858 0.087305635 -0.02532126 0.10229243 0.061122835
-0.096122 -0.030959254 0.10864615 -0.17240815 -0.116813414 -0.009900386 -0.18972068 -0.027553068
-0.1657068 0.049451258 0.010946448 0.1805716 0.069879666 -0.11143339 0.03854936 0.22422652
0.07875753 0.09851126 -0.041043617 0.10385251 0.013415396 0.36003646 0.15941039 -0.068828106
0.15803315 -0.068092056 -0.13487695 -0.19148014 0.11957004 0.0875747 0.052910194 0.012422746
-0.063011244 -0.11161644 -0.07157856 -0.06578304 0.06980632 -0.08608647 -0.1330964 0.21248098
0.008700875 0.103642136 0.20164946 0.20144743 0.24916235 -0.12542592 -0.107521445 -0.010089133
0.061942182 0.017850837 0.11175844 -0.031627283 0.065316014 -0.04738476 -0.033641618 0.07969828
-0.0016562985 0.022068465 -0.12253158 0.068855375 -0.17899914 0.04055582 0.028087866 -0.23764524
0.03936459 -0.0043811314 -0.04813485 0.10672338 0.057608135 -0.05039731 -0.0016202717 -0.07101546
-0.033860482 0.14160793 -0.06122576 0.025563376 -0.027712068 0.059355877 -0.16012862 -0.12153765
-0.11600091 -0.016366053 -0.12220852 -0.054815833 0.07555707 -0.06541186 0.06297448 0.05763257
0.11944073 -0.13266125 0.121743836 -0.1915796 -0.035461538 -0.050083824 -0.10337055 0.027781667
-0.013029652 0.16095734 -0.06950066 -0.031236175 -0.08545861 -0.09358639 -0.0053730537 -0.0024932197
-0.1280728 -0.22202359 0.028405309 -0.0031554757 -0.15132672 -0.04548033 -0.052361306 0.097882174
-0.07277415 0.093103044 0.053389788 -0.060368385 -0.041216098 0.026493171 0.07091745 -0.06482265
0.020966502 -0.10251407 -0.11025614 0.00084420317 -0.06931362 -0.05940172 -0.061705604 -0.011310045
0.06955534 0.04281133 -0.12786151 -0.06478728 -0.07137721 -0.122731425 -0.100087434 0.0554697
-0.10255367 -0.2688804 -0.18516196 0.036482386 0.14348817 0.08895932 -0.16004936 -0.23022492
0.06665015 -0.095030345 -0.01684589 -0.008196245 -0.061785653 -0.004511389 -0.063314706 -0.082683444
-0.075078174 -0.09386829 -0.09525681 0.083298005 0.156284 0.110112816 0.047485784 0.03531733
0.008150874 -0.039189085 -0.034442436 -0.0095188925 -0.08697423 -0.1332918 0.08828754 -0.09886107
-0.07607288 0.025980277 0.16891521 -0.15071608 0.15470964 -0.12800705 -0.056775436 0.07480172
-0.080203585 -0.12998047 0.10920928 -0.110224806 -0.11084996 -0.05961573 0.14859706 -0.03555537
0.088007756 0.0886319 -0.10173274 0.001431634 0.37627757 -0.053389117 0.032592956 -0.05602095
0.0077874395 0.06946712 -0.072688885 -0.10395692 0.02560161 -0.0153923 -0.009445231 -0.04134617
0.024743795 0.104050465 0.10740906 0.18379046 0.01965713 -0.0093122935 -0.17085654 0.1397809
-0.06077465 -0.042047564 -0.19619739 0.04599216 -0.11969708 0.20165357 0.079606436 0.015026267
-0.21189635 -0.07108651 -0.046521053 -0.06944314 0.019786986 -0.0038803355 0.08754468 -0.22385962
-0.106958285 -0.059537616 0.11587476 -0.106972754 0.02220191 -0.14417991 -0.047549225 0.046807036
-0.19768603 -0.003861075 0.32372898 0.1792712 -0.092191294 -0.10296984 0.06329165 -0.05720781
00000000: 4dcd d03d ad63 fabd 22e5 23bd de4d 8abd
00000010: 4ede 0dbd 99ef a83d fdc9 d6bd 8792 2bbe
00000020: f36b aabd 56f8 ecbd f711 653c 5fcb a9bc
00000030: 4ccd b23d 886e cfbc b27e d13d f05b 7a3d
00000040: 9cdb c4bd 439e fdbc df81 de3d c38b 30be
00000050: df3b efbd 3b35 22bc 2346 42be f9b6 e1bc
00000060: 0baf 29be 678d 4a3d bb58 333c c3e7 383e
00000070: 121d 8f3d 3037 e4bd efe5 1d3d a39b 653e
00000080: a14b a13d 45c0 c93d 5a1d 28bd a0b0 d43d
00000090: 40cc 5b3c b356 b83e 7a3c 233e c0f5 8cbd
000000a0: 71d3 213e d973 8bbd 2f1d 0abe 5f13 44be
000000b0: 23e1 f43d 5d5a b33d 5cb8 583d c688 4b3c
000000c0: 0a0c 81bd 2997 e4bd c897 92bd 42b9 86bd
000000d0: 9ef6 8e3d 1a4e b0bd 6c4a 08be 9d94 593e
000000e0: 1d8e 0e3c 5442 d43d 327d 4e3e 3c48 4e3e
000000f0: 6a24 7f3e a76f 00be 3434 dcbd e44c 25bc
00000100: 16b7 7d3d eb3b 923c 9ce1 e43d 9c8b 01bd
00000110: 67c4 853d 8616 42bd cbcb 09bd da38 a33d
00000120: 2818 d9ba edc8 b43c d6f1 fabd 0c04 8d3d
00000130: 8d4b 37be dc1d 263d 8618 e63c 4659 73be
00000140: c43c 213d 988f 8fbb 0c29 45bd ca91 da3d
00000150: 82f6 6b3d 696d 4ebd 4c5f d4ba 8e70 91bd
00000160: 4ab1 0abd ab01 113e ddc7 7abd 496a d13c
00000170: 6b04 e3bc 261f 733d c2f8 23be bbe8 f8bd
00000180: e391 edbd 1a12 86bc 7648 fabd 9186 60bd
00000190: aabd 9a3d a7f6 85bd c4f8 803d 2110 6c3d
000001a0: 579d f43d 5ad8 07be d554 f93d 712d 44be
000001b0: 1e40 11bd b224 4dbd f0b3 d3bd 6196 e33c
000001c0: 527a 55bc 00d2 243e 5d56 8ebd 02e3 ffbc
000001d0: ec04 afbd 39aa bfbd 7110 b0bb 4965 23bb
000001e0: 8425 03be 275a 63be 40b2 e83c 19cc 4ebb
000001f0: 64f5 1abe 9549 3abd cf78 56bd 7376 c83d
00000200: 9d0a 95bd cfac be3d 40af 5a3d d744 77bd
00000210: 36d2 28bd 3508 d93c 2b3d 913d bdc1 84bd
00000220: f1c1 ab3c e6f2 d1bd f9cd e1bd 844d 5d3a
00000230: 4df4 8dbd 384f 73bd 04bf 7cbd c44d 39bc
00000240: 0873 8e3d ef5a 2f3d 21ee 02be 32af 84bd
00000250: 372e 92bd 9d5a fbbd a4fa ccbd 3234 633d
00000260: a907 d2bd b1aa 89be 199b 3dbe 8e6e 153d
00000270: 90ee 123e 4e30 b63d fbe3 23be 15c0 6bbe
00000280: e07f 883d 459f c2bd 6400 8abc 8b49 06bc
00000290: f412 7dbd 46d4 93bb 24ab 81bd f055 a9bd
000002a0: 96c2 99bd 053e c0bd 0116 c3bd 2598 aa3d
000002b0: ea08 203e d482 e13d 7480 423d e8a8 103d
000002c0: 3e8b 053c bc84 20bd 8313 0dbd 21f5 1bbc
000002d0: 8c1f b2bd a57d 08be 19d0 b43d ac77 cabd
000002e0: 19cc 9bbd 97d4 d43c 1cf8 2c3e 5155 1abe
000002f0: 346c 1e3e 4814 03be 5c8d 68bd a531 993d
00000300: c741 a4bd 9a19 05be 1da9 df3d 8bbd e1bd
00000310: 4e05 e3bd a02f 74bd d429 183e 82a2 11bd
00000320: 693d b43d a484 b53d 4159 d0bd aaa5 bb3a
00000330: 74a7 c03e 8cae 5abd 3180 053d 3976 65bd
00000340: c72d ff3b c744 8e3d e9dd 94bd 5ee7 d4bd
00000350: 78ba d13c fc2f 7cbc 2cc0 1abc 9a5a 29bd
00000360: 80b3 ca3c 6918 d53d 48f9 db3d 9133 3c3e
00000370: fd07 a13c 9792 18bc 04f5 2ebe b922 0f3e
00000380: d7ee 78bd 113a 2cbd f8e7 48be 4662 3c3d
00000390: be23 f5bd 467e 4e3e b308 a33d bb30 763c
000003a0: 5bfb 58be ce95 91bd dc8c 3ebd 3438 8ebd
000003b0: 5118 a23c 3a4d 7ebb a04a b33d 753b 65be
000003c0: f20c dbbd b7dd 73bd bf4f ed3d 8814 dbbd
000003d0: c8e0 b53c e6a3 13be fac2 42bd bcb8 3f3d
000003e0: 356e 4abe 170a 7dbb cebf a53e df92 373e
000003f0: cace bcbd dae1 d2bd 0d9f 813d bd52 6abd

fc.4.bias f4 [256]
-0.083544455 -0.12663093 -0.041572012 -0.04646263 -0.06683165 -0.025998374 0.12669313 0.034325015
0.010115736 0.09430827 -0.03399528 -0.12801138 -0.05274723 0.029008968 0.058298264 0.034158118
0.07478681 -0.055565696 0.037393343 0.13529433 -0.07039209 0.052354842 -0.030848522 -0.0905683
-0.00026352692 -0.022296058 -0.13323785 -0.010366348 0.020914001 0.011102249 -0.054238074 -0.06966634
0.055644102 -0.024345791 0.084291294 -0.17126924 0.09667897 0.027832707 0.048756436 0.10521289
-0.1357218 0.108424835 -0.04518268 0.10801478 -0.0789298 -0.036120065 0.074928254 -0.11944959
-0.14786604 0.14533246 0.08129529 -0.005438232 0.08135878 0.042729426 -0.05225412 -0.033750154
0.0446361 0.05131735 -0.014997746 0.010838202 -0.075907975 -0.0636957 0.06813152 -0.11998615
0.014101798 -0.019455345 0.1263141 -0.05717766 0.08304684 -0.10086628 0.11218005 0.1127728
0.041613333 0.09377516 0.12140659 0.047014352 -0.111655094 -0.028923474 -0.08476678 0.04041354
0.067750454 0.025415324 -0.04195411 0.12768091 -0.08193242 -0.13887048 -0.097517915 -0.057651803
0.046175614 -0.05545506 0.13491865 0.024022512 -0.1205884 0.07879709 -0.048299123 -0.1363239
0.1335579 -0.15388073 -0.14858462 -0.05128205 0.16112755 0.13371034 -0.15435328 0.0034477422
0.033054944 -0.16361488 -0.07898186 0.04774624 -0.08259368 -0.009382425 0.0036487086 0.1956302
0.12795213 -0.002142585 0.016165206 -0.105088174 0.010835757 0.077522494 0.02479827 0.017048059
-0.09183909 -0.040449057 0.0075346143 0.06301906 -0.061754823 0.007111499 -0.049553487 -0.084027894
0.118377775 0.090877526 -0.07357695 -0.01971405 0.08593568 0.13492043 0.13126574 -0.005807984
-0.06599795 -0.019509668 -0.06835908 -0.053445052 0.024272416 -0.036649536 0.04010906 0.04746058
-0.044180926 0.1736643 -0.113617055 0.03471517 0.02863553 0.1093187 0.1080651 0.023758493
-0.041269623 0.039988093 -0.029901057 -0.07915197 0.13496685 0.07319763 -0.0025447942 0.024219684
-0.007369796 0.0010692007 -0.045815893 -0.08190469 -0.106703535 0.11639365 0.13856328 0.13280992
0.10319426 0.046645824 0.05351494 -0.12949933 -0.06933005 0.000900782 0.10403106 -0.026964594
0.030099068 0.020448731 -0.08001191 -0.114081204 -0.1254782 0.04412351 0.051132344 0.11824541
-0.03644204 -0.16676046 0.0562102 0.026539013 -0.07214311 -0.0415821 -0.059008338 0.026522353
0.0042574345 -0.02849467 0.058876783 0.039403036 -0.08083532 -0.04671452 -0.061476406 0.009557569
-0.108722255 -0.09892254 -0.05834646 -0.0674565 -0.09934205 -5.449234e-05 0.1059928 0.08005006
-0.017640343 0.07385397 -0.024317233 -0.20587501 -0.02360691 0.18793635 -0.025308426 -0.06796219
-0.2056462 0.059101727 0.02807386 0.00066692696 0.1502661 -0.124305 0.016035486 -0.03296515
0.13271901 -0.09029265 -0.083483 -0.10034741 0.090923294 0.02295061 0.039085258 -0.06610631
-0.056912847 0.101273924 0.029588467 0.08389802 -0.019414697 0.012235112 -0.074702404 -0.1310011
-0.10379064 -0.11707685 0.10591896 -0.0404609 0.12324572 -0.20644686 0.041767776 0.04528165
-0.10022386 -0.06591055 0.11001982 0.12564658 -0.086998425 0.013315139 0.113586806 -0.073915996
00000000: 5b19 abbd 8aab 01be 6a47 2abd 994f 3ebd
00000010: 08df 88bd 8bfa d4bc d8bb 013e 6398 0c3d
00000020: 79bc 253c b224 c13d a23e 0bbd 6a15 03be
00000030: 7b0d 58bd 37a4 ed3c 29ca 6e3d 62e9 0b3d
00000040: d429 993d db98 63bd c329 193d 998a 0a3e
00000050: ba29 90bd 0872 563d 0ab6 fcbc df7b b9bd
00000060: fc29 8ab9 39a6 b6bc 816f 08be 9dd7 29bc
00000070: d753 ab3c 35e6 353c be28 5ebd 3aad 8ebd
00000080: 12eb 633d d370 c7bc eaa0 ac3d 3461 2fbe
00000090: a0ff c53d 6b01 e43c d4b4 473d db79 d73d
000000a0: a8fa 0abe d70d de3d 7911 39bd da36 dd3d
000000b0: f2a5 a1bd a2f2 13bd fc73 993d fda1 f4bd
000000c0: 326a 17be 08d2 143e 257e a63d 3233 b2bb
000000d0: 6f9f a63d 0d05 2f3d 6b08 56bd 9a3d 0abd
000000e0: 58d4 363d 2432 523d 1bb9 75bc b792 313c
000000f0: a475 9bbd e472 82bd 8a88 8b3d 4cbb f5bd
00000100: 3a0b 673c d160 9fbc 7c58 013e 1f33 6abd
00000110: 7614 aa3d fb92 cebd a7be e53d 6df5 e63d
00000120: be72 2a3d 310d c03d 05a4 f83d 1f92 403d
00000130: 6dab e4bd ecf0 ecbc 359a adbd ab88 253d
00000140: c0c0 8a3d cc33 d03c 13d8 2bbd c9be 023e
00000150: 2fcc a7bd 1034 0ebe 79b7 c7bd 4c24 6cbd
00000160: a422 3d3d d824 63bd 1d28 0a3e dcca c43c
00000170: 0df7 f6bd 5e60 a13d 4dd5 45bd 7e98 0bbe
00000180: 67c3 083e e992 1dbe 9126 18be 200d 52bd
00000190: 9ffe 243e 5deb 083e c90e 1ebe 84f3 613b
000001a0: 9f64 073d a98a 27be 3ec1 a1bd 9091 433d
000001b0: e026 a9bd beb8 19bc 2c1f 6f3b 4853 483e
000001c0: e205 033e 9d6a 0cbb e56c 843c 7838 d7bd
000001d0: 7588 313c 1dc4 9e3d be25 cb3c 5fa8 8b3c
000001e0: 2216 bcbd e9ad 25bd ede4 f63b 2310 813d
000001f0: a0f2 7cbd 9407 e93b 99f8 4abd d116 acbd
00000200: 0c70 f23d ff1d ba3d 83af 96bd 5c7f a1bc
00000210: 0cff af3d 9528 0a3e 876a 063e e750 bebb
00000220: ef29 87bd bdd2 9fbc d8ff 8bbd 33e9 5abd
00000230: f2d6 c63c d31d 16bd 6649 243d 0666 423d
00000240: 0ff7 34bd 0ed5 313e 0fb0 e8bd 7e31 0e3d
00000250: 0f95 ea3c 7ce2 df3d 3c51 dd3d 2ca1 c23c
00000260: 560a 29bd 8eca 233d 10f3 f4bc 6e1a a2bd
00000270: c034 0a3e a4e8 953d 90c6 26bb 5c68 c63c
00000280: 547e f1bb 6c24 8c3a 72a9 3bbd a5bd a7bd
00000290: 6287 dabd cb5f ee3d 88e3 0d3e 53ff 073e
000002a0: 8357 d33d b10f 3f3d 7b32 5b3d 799b 04be
000002b0: eafc 8dbd 7522 6c3a 3d0e d53d dae4 dcbc
000002c0: 5292 f63c 1984 a73c 49dd a3bd 68a3 e9bd
000002d0: 5b7d 00be dbba 343d 2670 513d a62a f23d
000002e0: 4044 15bd 41c3 2abe ab3c 663d 5868 d93c
000002f0: c4bf 93bd fe51 2abd bab2 71bd 6845 d93c
00000300: f381 8b3b a76d e9bc c828 713d 1465 213d
00000310: fd8c a5bd b957 3fbd afce 7bbd 5a97 1c3c
00000320: c6a9 debd e797 cabd b3fc 6ebd a226 8abd
00000330: d873 cbbd b48e 64b8 c112 d93d 49f1 a33d
00000340: 7b82 90bc c040 973d ef34 c7bc e6d0 52be
00000350: 4763 c1bc 6372 403e 9e53 cfbc c32f 8bbd
00000360: eb94 52be a714 723d 27fb e53c b6d4 2e3a
00000370: 5bdf 193e 9f93 febd da5c 833c 7706 07bd
00000380: 7ee7 073e 5aeb b8bd 23f9 aabd f182 cdbd
00000390: fe35 ba3d eb02 bc3c dd17 203d bf62 87bd
000003a0: 721d 69bd b468 cf3d 8363 f23c bad2 ab3d
000003b0: 920b 9fbc c775 483c 93fd 98bd 2725 06be
000003c0: 3090 d4bd fdc5 efbd 0aec d83d 54ba 25bd
000003d0: 4168 fc3d ce66 53be b014 2b3d 4079 393d
000003e0: 2b42 cdbd 1cfc 86bd 1252 e13d 7fa9 003e
000003f0: 3b2c b2bd be27 5a3c 33a0 e83d 4561 97bd

fc.6.weight f4 [4, 256]
-0.16452056 0.080151774 0.044813186 0.047427103 -0.05418369 0.1318698 0.017390488 0.024348019
0.10034471 -0.09458545 0.04362874 -0.035115507 -0.17554718 -0.058129907 -0.020335035 0.06338279
-0.047392976 0.014898921 -0.068592966 0.0578006 0.048350796 -0.1730818 -0.23028105 0.016454183
-0.1604582 0.10116865 -0.015797159 0.039796054 -0.011495258 0.010651587 0.09962934 -0.05122502
-0.18694004 -0.07029387 -0.054221395 -0.31098533 -0.017769529 0.017398302 0.0053951717 -0.06271165
0.056463007 0.051126476 -0.05781067 -0.10008471 -0.213845 -0.023597708 0.06250887 0.07418007
-0.11780948 0.030188581 0.0435164 -0.021453002 -0.040490877 -0.072208524 0.06364828 0.020592615
0.05494609 0.0018144811 -0.14154823 0.03265038 -0.06562004 -0.046963528 -0.14939044 -0.028695984
0.18277769 -0.15083052 0.035992265 -0.023137612 0.07033475 -0.059669472 0.08788953 0.010063548
0.05336819 0.08591484 0.04178121 -0.022477768 -0.1180212 0.15109861 0.0005700496 0.03916462
-0.1382815 -0.07055147 0.062837735 0.08529329 0.0889296 0.012774619 0.07614363 0.047026306
-0.0054719215 0.03287657 -0.03536955 0.10720325 -0.1615765 0.040414535 -0.006688633 0.0316975
0.087092154 -0.06897116 0.048222695 -0.092047475 0.09112994 0.007964964 -0.030029578 0.022939026
-0.09787112 0.05512136 0.017749561 0.03699802 -0.012546212 -0.15571025 -0.07483923 0.1299365
0.006014071 -0.036595207 -0.048674237 -0.12001991 -0.06860032 -0.11146778 -0.32122588 -0.1112657
-0.02613287 0.05546828 0.074843414 -0.10526371 -0.08824427 -0.09906265 0.045310628 -0.03272472
0.10355654 -0.1670468 -0.06890099 -0.051905848 -0.16858017 0.09921991 0.0831651 -0.09501253
0.09151954 0.05992982 -0.018258452 -0.047070306 -0.058049235 0.055331 0.08721749 -0.1613857
-0.14261706 -0.06330818 0.012308692 -0.09380054 0.041272856 -0.029902285 0.07617725 -0.08659821
0.0054879626 -0.00184427 0.059697002 -0.023048699 0.10709841 -0.036890358 -0.022080533 0.021403586
0.004310767 -0.1303462 -0.074255705 -0.04218646 -0.0018626939 -0.029090432 0.053160105 -0.15222877
0.024063848 0.04149047 -0.01902258 -0.065781444 -0.08083163 0.04846749 -0.062315445 0.029028393
0.05730394 -0.11275804 -0.09045306 0.031208688 -0.120330155 -0.07742692 -0.20605123 0.03417545
0.076168686 -0.111067496 -0.07072924 0.07853229 0.0034265164 -0.020108406 -0.038857244 -0.011515809
0.065534666 -0.13478163 0.024603425 0.00563928 -0.11445565 0.040504288 -0.05734069 0.03684475
-0.05774674 -0.016653642 -0.006712756 -0.08621963 -0.08353081 0.08361123 0.07262775 0.03194125
-0.08761881 0.070992544 -0.036195636 -0.1006077 0.10450801 -0.15694092 -0.008108635 -0.13629578
-0.02030323 0.05831841 0.09141867 0.036412746 0.04770716 0.02022273 0.04589188 0.011141642
-0.17019491 -0.012025752 -0.13826329 -0.057889372 0.15676124 -0.012804946 -0.24578118 0.015947923
0.053600337 -0.115879014 -0.0055086007 -0.11790751 0.04306858 -0.038203068 0.07505861 -0.0077224458
-0.066919655 -0.078889176 0.046748262 -0.08627749 -0.054223258 -0.020139355 0.014404443 0.046011467
-0.04029114 0.12427998 0.006892811 0.09385842 -0.10503734 0.12418005 -0.12579468 -0.04483573
00000000: 1478 28be 9d26 a43d 088e 373d ec42 423d
00000010: b8ef 5dbd e008 073e 7f76 8e3c 7f75 c73c
00000020: 8781 cd3d 04b6 c1bd 0db4 323d 47d5 0fbd
00000030: a4c2 33be a019 6ebd a995 a6bc d6ce 813d
00000040: 231f 42bd 9b1a 743c 787a 8cbd 52c0 6c3d
00000050: 7c0b 463d 5b3c 31be ccce 6bbe ecca 863c
00000060: 284f 24be 8231 cf3d 0b69 81bc 3001 233d
00000070: 9b56 3cbc fe83 2e3c 780a cc3d 54d1 51bd
00000080: 366d 3fbe 3cf6 8fbd 4117 5ebd 7839 9fbe
00000090: 6791 91bc e286 8e3c fbc9 b03b f76e 80bd
000000a0: c145 673d ff69 513d e2ca 6cbd 36f9 ccbd
000000b0: 2ffa 5abe fb4f c1bc a704 803d b8eb 973d
000000c0: 1946 f1bd 0b4e f73c 413e 323d 35be afbc
000000d0: c3d9 25bd 10e2 93bd 085a 823d d8b1 a83c
000000e0: 270f 613d e2d3 ed3a 05f2 10be 68bc 053d
000000f0: cd63 86bd d45c 40bd cff9 18be d713 ebbc
00000100: 132a 3b3e 5173 1abe a06c 133d 178b bdbc
00000110: aa0b 903d fa67 74bd 6dff b33d 94e1 243c
00000120: 9a98 5a3d 1ff4 af3d c622 2b3d 4c23 b8bc
00000130: 19b5 f1bd 98b9 1a3e 626f 153a 156b 203d
00000140: aa99 0dbe 4a7d 90bd 12b1 803d 40ae ae3d
00000150: b920 b63d a34c 513c 31f1 9b3d a89e 403d
00000160: ce4d b3bb 95a9 063d a9df 10bd 618d db3d
00000170: 4f74 25be b689 253d 522c dbbb 3dd5 013d
00000180: 5f5d b23d c040 8dbd 2985 453d 6383 bcbd
00000190: 55a2 ba3d 7b7f 023c 9700 f6bc a0ea bb3c
000001a0: a770 c8bd efc6 613d 8767 913c 3c8b 173d
000001b0: a18e 4dbc 8272 1fbe 4f45 99bd 130e 053e
000001c0: af11 c53b dbe4 15bd a35e 47bd 00cd f5bd
000001d0: 537e 8cbd 3849 e4bd b877 a4be 45df e3bd
000001e0: 9a14 d6bc b532 633d 8147 993d 8094 d7bd
000001f0: 69b9 b4bd 5ce1 cabd a397 393d 5b0a 06bd
00000200: 7415 d43d 510e 2bbe f61b 8dbd 3a9b 54bd
00000210: 48a0 2cbe cf33 cb3d 7752 aa3d ee95 c2bd
00000220: 996e bb3d f978 753d c092 95bc cbcc 40bd
00000230: 09c5 6dbd c2a2 623d 159f b23d 4b42 25be
00000240: 350a 12be b8a7 81bd 65aa 493c 7f1a c0bd
00000250: ba0d 293d a3f5 f4bc d102 9c3d 675a b1bd
00000260: 5ed4 b33b 6fbb f1ba d884 743d a0d0 bcbc
00000270: 6956 db3d 581a 17bd 3ce2 b4bc 9356 af3c
00000280: 5641 8d3b 7979 05be 6013 98bd b6cb 2cbd
00000290: a325 f4ba 0f4f eebc 69be 593d dce1 1bbe
000002a0: 8c21 c53c e9f1 293d 3ed5 9bbc 6cb8 86bd
000002b0: 0e8b a5bd d985 463d 7b3e 7fbd f4cc ed3c
000002c0: 89b7 6a3d b0ed e6bd 743f b9bd 5da9 ff3c
000002d0: a86f f6bd 0192 9ebd 18ff 52be 8ffb 0b3d
000002e0: 54fe 9b3d 5b77 e3bd 7eda 90bd 8ad5 a03d
000002f0: 688f 603b 62ba a4bc c628 1fbd ceac 3cbc
00000300: 0a37 863d 3204 0abe 1f8d c93c b6c9 b83b
00000310: b967 eabd d3e7 253d 12de 6abd 85ea 163d
00000320: d887 6cbd 386d 88bc aef6 dbbb eb93 b0bd
00000330: 3412 abbd 5d3c ab3d dcbd 943d d4d4 023d
00000340: 7e71 b3bd 8a64 913d e041 14bd 690b cebd
00000350: 4c08 d63d 1fb5 20be 15da 04bc 1f91 0bbe
00000360: f652 a6bc 49df 6e3d b639 bb3d 8825 153d
00000370: 9568 433d 23aa a53c 20f9 3b3d 6f8b 363c
00000380: 9347 2ebe a907 45bc e494 0dbe 681d 6dbd
00000390: 0586 203e d6cb 51bc 10ae 7bbe 38a5 823c
000003a0: 078c 5b3d fa51 edbd 7e81 b4bb 7e79 f1bd
000003b0: ae68 303d d27a 1cbd 54b8 993d 920c fdbb
000003c0: 2c0d 89bd a690 a1bd 1b7b 3f3d 41b2 b0bd
000003d0: 3519 5ebd 4afb a4bc 9d00 6c3c 8576 3c3d
000003e0: 5308 25bd 8186 fe3d 17dd e13b d838 c03d
000003f0: d11d d7bd 1c52 fe3d 52d0 00be aca5 37bd

fc.6.bias f4 [4]
-0.022423193 -0.016304467 -0.0014028341 -0.014111891
00000000: d8b0 b7bc f290 85bc 4ddf b7ba 9035 67bc
