model/lv2_bc_model_9.2.pth (torch, 244972 bytes, 8 tensors)

fc.0.weight f4 [128, 209]
0.21590753 0.6584623 -0.04564094 0.028009228 -0.0004842614 0.49166185 0.28037536 -0.18418093
0.0024967592 -0.33607417 -0.38238072 -0.016508443 0.05146107 0.024659263 -0.039548837 -0.005440743
0.044170763 0.060140043 0.025639603 0.049894232 0.023232428 0.010126403 0.06584941 0.03746508
-0.07175491 0.07099101 0.022404699 -0.009345504 0.06952627 -0.0055129235 -0.004504612 -0.06513941
-0.03248581 -0.058849312 -0.05930163 0.017729739 0.02743104 0.037995607 0.0018177112 -0.05727092
-0.033161074 -0.044375457 0.015334621 0.064413145 0.026824841 0.19564769 0.06268591 -0.009467547
0.0050243232 0.05171503 -0.024883457 0.00019330875 -0.02527262 0.027191255 0.034109935 0.042086683
0.032059543 -0.03781262 -0.03283535 -0.0299726 0.024080263 -0.06566635 0.0007330907 0.047454074
0.005972576 0.014204703 0.04071945 -0.06834385 -0.018489534 0.046952255 0.011281549 0.026981669
-0.06427679 0.055118676 0.04239789 0.06719704 0.065555826 -0.0013027457 0.045884646 0.010681156
-0.013406356 -0.055923905 0.013940443 0.0119981095 0.029298278 0.012812063 0.0111003965 -0.0040671476
-0.05062308 -0.023445226 -0.050010845 0.062874295 -0.011337094 -0.015244642 0.0672092 0.0060301316
-0.06324205 -0.058820643 -0.01728891 -0.018411996 -0.0516757 0.02997606 -0.0064235604 0.039683633
0.019178504 -0.045715284 -0.04231652 -0.10449838 0.04385752 0.04771135 0.060094833 0.018855764
0.036502644 -0.059365626 -0.03826236 0.06742711 0.02884101 -0.05524174 -0.061408915 -0.022975573
-0.05334271 -0.020485003 -0.11127708 -0.039428283 -0.04775637 0.06775315 -0.058207154 -0.031878598
0.065256365 -0.03338495 -0.04837799 0.022945436 -0.040928 0.032201592 0.040861394 -0.051945705
0.029411957 0.02494601 0.020176815 -0.036185704 -0.025692385 -0.059460174 0.0009328382 -0.007605366
-0.019024976 0.024612553 -0.027858896 0.046934664 0.0026653905 -0.0025162108 0.0476827 0.023869716
0.024842879 -0.03148977 0.036341514 0.04686416 -0.022414548 -0.008977503 0.05836161 0.0032928782
-0.21598566 -0.054872915 0.03760488 0.019551983 -0.057554528 0.06663915 0.057746705 -0.06441325
0.058561422 -0.023615403 0.04379216 -0.0058927354 0.03979376 0.014786504 -0.041068725 -0.024600742
0.028800627 -0.04946939 -0.027822396 -0.011531705 0.023411324 0.0031537767 0.016713435 -0.0644282
-0.08799539 0.24948618 0.20192285 0.0835434 -0.4952833 -0.009392694 -0.14139223 1.4731566
0.43729523 0.051981084 -0.020721883 0.26835802 0.0118727265 -0.16731016 -0.01878644 0.04664579
-0.07291855 -0.043869 -0.02459712 -0.12378431 -0.03611657 -0.007461088 0.02387275 -0.051523387
0.43368343 0.0061373506 0.2618753 0.021240497 0.087252416 0.13367462 -0.274808 0.16409442
0.0626406 0.105405256 -0.09964778 -0.025385601 0.016567757 0.019616632 -0.06555251 -0.051796205
0.0018859673 -0.05921834 -0.04061254 -0.06758755 -0.070758015 0.008069011 0.004509595 -0.015941123
-0.032549806 0.021188043 0.013700542 -0.06355796 0.028565591 -0.03479308 -0.05861981 0.054639876
0.013762184 -0.0009493803 -0.03932663 -0.009427347 -0.057854656 -0.059562214 0.0601656 -0.055121325
0.02287904 0.07348401 -0.060246814 0.005119165 0.048343897 0.054564513 0.23321506 0.031623613
00000000: dd16 5d3e fc90 283f fff1 3abd 9c73 e53c
00000010: 77e4 fdb9 1abb fb3e 5c8d 8f3e ed99 3cbe
00000020: aba0 233b ea11 acbe 68c7 c3be b73c 87bc
00000030: d8c8 523d 3902 ca3c f6fd 21bd 4348 b2bb
00000040: 67ec 343d 6855 763d 250a d23c e55d 4c3d
00000050: ef51 be3c 36e9 253c 0edc 863d fc74 193d
00000060: 3df4 92bd bc63 913d 0f8a b73c e31d 19bc
00000070: ca63 8e3d c1a5 b4bb 6d9b 93bb d067 85bd
00000080: d70f 05bd fa0b 71bd 44e6 72bd f53d 913c
00000090: 0fb7 e03c 48a1 1b3d 4440 ee3a ea94 6abd
000000a0: e8d3 07bd 0ac3 35bd 103e 7b3c 0aeb 833d
000000b0: c5bf db3c de57 483e 7861 803d c51d 1bbc
000000c0: 14a3 a43b 24d3 533d 64d8 cbbc ecb2 4a39
000000d0: 8708 cfbc 32c0 de3c dcb6 0b3d 1663 2c3d
000000e0: de50 033d 68e1 1abd 5c7e 06bd 1989 f5bc
000000f0: f943 c53c 147c 86bd e22c 403a 345f 423d
00000100: 99b5 c33b d8ba 683c 70c9 263d dcf7 8bbd
00000110: 5d77 97bc 0251 403d 3fd6 383c a908 dd3c
00000120: 8da3 83bd 1fc4 613d 69a9 2d3d 9a9e 893d
00000130: 2242 863d e4c0 aaba 8af1 3b3d 0400 2f3c
00000140: 55a6 5bbc 7710 65bd 7566 643c b893 443c
00000150: f102 f03c b0e9 513c 70de 353c b545 85bb
00000160: 265a 4fbd 3410 c0bc 2cd8 4cbd 3dc4 803d
00000170: 38bf 39bc aac4 79bc faa4 893d 6998 c53b
00000180: 0c85 81bd eaed 70bd 79a1 8dbc c1d4 96bc
00000190: e6a9 53bd 5b90 f53c bb7c d2bb 4e8b 223d
000001a0: 3d1c 9d3c f33f 3bbd 1654 2dbd 3f03 d6bd
000001b0: f1a3 333d fa6c 433d 0026 763d 6777 9a3c
000001c0: cc83 153d 5f29 73bd feb8 1cbd 3a17 8a3d
000001d0: fb43 ec3c 2a45 62bd ea87 7bbd 4537 bcbc
000001e0: e37d 5abd 2ad0 a7bc 3de5 e3bd 8d7f 21bd
000001f0: 2f9c 43bd 2ac2 8a3d a06a 6ebd 2293 02bd
00000200: 21a5 853d a8be 08bd 0028 46bd 11f8 bb3c
00000210: 1ea4 27bd d1e5 033d 475e 273d 05c5 54bd
00000220: 58f1 f03c 935b cc3c d949 a53c 7637 14bd
00000230: d678 d2bc 838c 73bd b689 743a 6f36 f9bb
00000240: 44da 9bbc 44a0 c93c 5738 e4bc 903e 403d
00000250: d5ad 2e3b 03e7 24bb ef4e 433d 6c8a c33c
00000260: 4b83 cb3c 6bfb 00bd d7da 143d a2f4 3f3d
00000270: b79e b7bc 6016 13bc 950c 6f3d 54cd 573b
00000280: 582b 5dbe 6cc2 60bd 9307 1a3d 7b2b a03c
00000290: 4cbe 6bbd 1b7a 883d cf87 6c3d 18eb 83bd
000002a0: 1ade 6f3d 1775 c1bc 685f 333d d917 c1bb
000002b0: c8fe 223d 1843 723c ae37 28bd 7f87 c9bc
000002c0: 4bef eb3c 6aa0 4abd cbeb e3bc 7aef 3cbc
000002d0: 1bc9 bf3c 98af 4e3b 9dea 883c eff2 83bd
000002e0: ed36 b4bd 4e79 7f3e ddc4 4e3e cd18 ab3d
000002f0: c695 fdbe d0e3 19bc 20c9 10be 6590 bc3f
00000300: 29e5 df3e 1eea 543d f0c0 a9bc 3966 893e
00000310: d385 423c 5b53 2bbe 05e6 99bc a80f 3f3d
00000320: 5256 95bd fbaf 33bd e67f c9bc a182 fdbd
00000330: f8ee 13bd 247c f4bb c990 c33c 300a 53bd
00000340: c10b de3e d41b c93b 8514 863e 8d00 ae3c
00000350: 65b1 b23d 00e2 083e a2b3 8cbe 5e08 283e
00000360: b749 803d b6de d73d 2314 ccbd 77f5 cfbc
00000370: 1bb9 873c 0fb3 a03c 6540 86bd 4228 54bd
00000380: 9032 f73a ee8e 72bd 5659 26bd 576b 8abd
00000390: 94e9 90bd e333 043c 3ac5 933b f596 82bc
000003a0: f252 05bd 8c92 ad3c 3d78 603c ad2a 82bd
000003b0: 6302 ea3c 3083 0ebd 531b 70bd 10ce 5f3d
000003c0: c97a 613c d5df 78ba f614 21bd 2975 1abc
000003d0: 01f9 6cbd 82f7 73bd 3470 763d e6c6 61bd
000003e0: d36c bb3c c97e 963d 5dc5 76bd abbe a73b
000003f0: 4004 463d 0a7f 5f3d eecf 6e3e c387 013d

fc.0.bias f4 [128]
0.040872186 0.031124841 -0.05089606 -0.03132608 -0.005116121 -0.024778798 0.0024701932 -0.08482036
-0.006999782 -0.060786147 -0.048695154 0.035954162 -0.04888533 0.013167369 -0.041223306 -0.007280694
-0.05715058 -0.031644296 0.06109483 -0.056038734 0.0116769 0.022979353 -0.06794046 0.025082367
0.024647439 0.027885184 -0.05908291 -0.06733458 -0.049616355 0.012639069 0.005682465 0.034026098
0.05707226 -0.009258468 -0.046545684 -0.07175665 0.006726597 -0.015280785 -0.08747327 -0.057805452
0.066607915 0.05695829 0.033359256 -0.018077673 -0.07806428 -0.06047083 -0.02662422 0.04224055
-0.03905486 -0.042398717 0.022800751 -0.007963639 -0.07064786 0.0060586175 0.036683507 0.05219177
0.037124515 0.036425993 0.042218775 0.013841825 -0.059694346 -0.011301121 -0.060593743 0.03572101
-0.061695937 -0.060420793 -0.090503015 -0.05506421 0.02589606 -0.06709925 -0.051499356 -0.03673301
0.029895307 -0.06442501 -0.07680763 0.04023692 -0.06863205 -0.020028159 -0.041441843 -0.035531256
-0.046992827 -0.023389513 0.0131494375 0.06632446 0.0385146 -0.053520788 0.02288714 -0.024556438
-0.04382827 0.035277862 -0.026133668 0.009616999 -0.030215492 -0.05458923 -0.037029564 -0.03063007
0.07216727 -0.037235316 0.006657365 0.06681911 0.063984595 -0.051627092 0.007651988 -0.045955498
-0.014035604 -0.03493148 0.028194288 0.032126833 0.007561095 0.057837795 0.044745762 0.060467154
0.0058696424 0.030384589 0.013434139 -0.039190788 0.03123607 0.033881836 -0.03370616 -0.066501014
-0.06488812 0.02857897 -0.060379714 -0.07353965 -0.07903179 -0.03758452 3.7772174e-05 -0.020562528
00000000: 9869 273d 86f9 fe3c 6378 50bd c74f 00bd
00000010: 22a5 a7bb e8fc cabc f7e2 213b 4cb6 adbd
00000020: 6d5e e5bb e5fa 78bd 9274 47bd ac44 133d
00000030: fc3b 48bd f3bb 573c c5d9 28bd e392 eebb
00000040: ba16 6abd 739d 01bd 933e 7a3d df88 65bd
00000050: 7850 3f3c 323f bc3c 5e24 8bbd 8979 cd3c
00000060: 6de9 c93c 786f e43c ec00 72bd b6e6 89bd
00000070: 853a 4bbd 1914 4f3c f933 ba3b f35e 0b3d
00000080: 9ac4 693d d4b0 17bc b0a6 3ebd 27f5 92bd
00000090: c96a dc3b 425c 7abc 3025 b3bd 69c5 6cbd
000000a0: bb69 883d 194d 693d b7a3 083d a117 94bc
000000b0: 2ae0 9fbd 43b0 77bd 091b dabc 6d04 2d3d
000000c0: fdf7 1fbd 47aa 2dbd a4c8 ba3c ec79 02bc
000000d0: d3af 90bd 5e87 c63b 7241 163d 0ac7 553d
000000e0: e00f 183d 6c33 153d 98ed 2c3d d2c8 623c
000000f0: 0f82 74bd 5628 39bc 2531 78bd 3250 123d
00000100: e1b4 7cbd cb7b 77bd a559 b9bd 028b 61bd
00000110: f923 d43c 556b 89bd fdf0 52bd 5a75 16bd
00000120: 01e7 f43c 42f1 83bd 524d 9dbd 78cf 243d
00000130: f68e 8cbd 1812 a4bc ecbe 29bd 3989 11bd
00000140: 8d7b 40bd 5d9b bfbc bd70 573c 1ed5 873d
00000150: 7cc1 1d3d 9d38 5bbd d07d bb3c 952a c9bc
00000160: 4685 33bd 857f 103d 4616 d6bc 9e90 1d3c
00000170: 7b86 f7bc f598 5fbd 50ac 17bd eaeb fabc
00000180: 6fcc 933d 0f84 18bd 0626 da3b 75d8 883d
00000190: 5b0a 833d ee76 53bd 87bd fa3b d53b 3cbd
000001a0: 97f5 65bc 5014 0fbd b5f7 e63c 6d97 033d
000001b0: 10c3 f73b 53e7 6c3d 5547 373d 68ac 773d
000001c0: 2156 c03b 1ae9 f83c dd1a 5c3c 8586 20bd
000001d0: c9e2 ff3c aec7 0a3d 780f 0abd af31 88bd
000001e0: 10e4 84bd 721e ea3c b850 77bd f59b 96bd
000001f0: 6bdb a1bd 3af2 19bd 906d 1e38 bf72 a8bc

fc.2.weight f4 [128, 128]
0.038919162 -0.07988475 -0.09533948 -0.009811845 -0.00083702663 0.073055975 0.013602129 -0.018513195
0.045671463 -0.048672732 0.08215258 -0.012601998 -0.006098447 -0.04461238 0.055881493 -0.08512278
0.0010211536 -0.031448565 -0.015880274 0.032836217 0.0025116832 -0.0028389003 0.026436392 0.01074955
0.08203478 -0.09694714 -0.10375169 -0.013513114 -0.06073672 -0.09364237 -0.08580373 -0.06122579
-0.09329223 0.05790895 -0.10224296 -0.035249393 -0.05847421 0.011882824 0.0022896642 -0.033546943
-0.05505327 0.04625557 0.011852466 0.07021072 0.01794326 -0.0008560248 -0.006752652 -0.09517339
0.043975517 -0.022234637 -0.012468048 0.01532007 0.04348891 -0.060226183 0.056547727 -0.013086474
-0.009398744 -0.004925349 -0.07425438 0.013756079 -0.090092845 0.020762896 -0.07726795 0.010758562
-0.02372581 -0.024763633 -0.0551067 0.12674847 -0.10441208 -0.077163406 0.027335737 -0.06521853
0.05609877 -0.031854175 -0.055350147 -0.020717237 0.009233649 -0.012494813 -0.008556334 0.020021426
-0.070528924 -0.09221389 0.06553894 0.04440906 -0.020019623 0.014003897 0.040998768 -0.032896552
-0.081640586 -0.095442414 0.05247458 -0.064895116 0.014667459 -0.09470271 -0.06744526 0.016232492
-0.087049246 0.016033383 -0.11089878 0.067235366 -0.065696426 -0.0036764694 0.025705962 -0.011599013
-0.09106481 -0.05293908 0.0059356843 -0.029322073 -0.014151081 -0.04326597 0.024867814 -0.04235119
-0.08186802 0.081967376 0.012830472 -0.006035804 -0.03026106 0.016332276 0.03267583 0.0047813887
-0.09871437 -0.0412505 -0.04018782 -0.09354264 0.0011644653 0.017705262 0.06288328 -0.079549044
0.07540708 0.12255917 0.022173898 0.057605322 -0.030131781 0.019713026 -0.2267018 0.11212164
0.06998531 -0.053378556 0.02337262 0.06487984 0.11530576 0.08254879 -0.0950222 0.0746397
-0.080986045 -0.094379686 0.023797126 -0.066562094 0.059713952 -0.012193802 -0.066464595 -0.07618291
0.0403377 0.08333626 -0.115081236 -0.010763632 0.004411334 0.0012072215 -0.11446686 -0.07893419
0.052394662 0.053170137 0.11700833 -0.10453991 0.09447695 0.10385168 0.055548187 0.07301789
0.015987745 -0.0010023203 -0.09330036 -0.013309691 0.09008444 0.020581692 0.07669766 0.06269372
0.14748786 -0.065609805 -0.026343444 0.03805317 0.06608716 0.12123353 0.006499178 -0.046348803
-0.14662857 0.047276225 -0.057199154 -0.0372418 0.07953416 0.02749044 -0.022930594 -0.06636324
-0.09942764 0.0768388 0.0729182 -0.025443839 0.15387447 -0.17220925 0.04337286 0.11285557
-0.108883366 0.20095989 -0.061834086 -0.0013191719 -0.123143114 -0.0225641 0.00421793 -0.10609722
0.021132022 0.04346714 -0.0924467 -0.04856189 0.06174769 0.048960377 0.054933015 -0.0214662
-0.07791437 -0.0975008 -0.085107975 0.0054042325 0.02510933 -0.010955882 0.11816444 -0.05913974
0.030426547 0.08463418 -0.06599032 -0.3813033 -0.05221615 0.08469398 0.09755415 0.038753726
-0.063927576 0.08179312 -0.15922546 -0.12624186 -0.07038215 0.1620995 -0.048173144 -0.010263214
0.058504313 0.18729798 -0.013357829 0.0059864665 -0.028237652 0.04533057 -0.040820077 0.12232813
-0.1015777 -0.009438802 -0.11118031 -0.04790328 -0.037210904 0.11256241 0.03341049 0.09863748
00000000: b369 1f3d 9e9a a3bd 5841 c3bd dcc1 20bc
00000010: e86b 5bba 5f9e 953d 77db 5e3c fca8 97bc
00000020: 0012 3b3d 0f5d 47bd 9d3f a83d 9c78 4ebc
00000030: 7bd5 c7bb 79bb 36bd fee3 643d da54 aebd
00000040: 3bd8 853a 36d0 00bd 5917 82bc 457f 063d
00000050: 0d9b 243b d80c 3abb 2291 d83c e11e 303c
00000060: da01 a83d 398c c6bd c47b d4bd 1c66 5dbc
00000070: 11c7 78bd 92c7 bfbd deb9 afbd e5c7 7abd
00000080: ff0f bfbd ef31 6d3d c264 d1bd ab61 10bd
00000090: a782 6fbd 2db0 423c 310e 163b 8568 09bd
000000a0: 8a7f 61bd 7b76 3d3d d830 423c a3ca 8f3d
000000b0: befd 923c da66 60ba 5a45 ddbb 44ea c2bd
000000c0: ac1f 343d 6a25 b6bc c946 4cbc 0801 7b3c
000000d0: 6d21 323d bbaf 76bd 979e 673d a668 56bc
000000e0: 31fd 19bc d264 a1bb ae12 98bd 2d61 613c
000000f0: 9982 b8bd f316 aa3c a93e 9ebd ae44 303c
00000100: a15c c2bc 1add cabc 90b7 61bd 5aca 013e
00000110: 00d6 d5bd d907 9ebd 32ef df3c 4b91 85bd
00000120: d3c7 653d 8679 02bd d6b6 62bd 32b7 a9bc
00000130: bb48 173c 0bb7 4cbc de2f 0cbc f903 a43c
00000140: 7871 90bd a3da bcbd 4839 863d 46e6 353d
00000150: 3100 a4bc 9a70 653c 53ee 273d 89be 06bd
00000160: 2e33 a7bd 5077 c3bd 96ef 563d bbe7 84bd
00000170: c84f 703c 7ff3 c1bd be20 8abd 01fa 843c
00000180: e046 b2bd 7158 833c e61e e3bd b2b2 893d
00000190: d98b 86bd ecf0 70bb 4f95 d23c c909 3ebc
000001a0: 3080 babd a6d6 58bd 2180 c23b d834 f0bc
000001b0: f0d9 67bc a837 31bd 96b7 cb3c 7178 2dbd
000001c0: 6caa a7bd 83de a73d e636 523c fec7 c5bb
000001d0: 0be6 f7bc 44cb 853c 17d7 053d 32ad 9c3b
000001e0: c22a cabd 49f6 28bd fc9b 24bd 4993 bfbd
000001f0: f9a0 983a a00a 913c f3c8 803d 9cea a2bd
00000200: 076f 9a3d 4d00 fb3d 09a6 b53c 8ff3 6b3d
00000210: edd6 f6bc 367d a13c 8424 68be 08a0 e53d
00000220: 7554 8f3d 79a3 5abd f077 bf3c b9df 843d
00000230: 6d25 ec3d 570f a93d 009b c2bd b3dc 983d
00000240: 03dc a5bd 234a c1bd 31f2 c23c b551 88bd
00000250: 9e96 743d 83c8 47bc 971e 88bd c905 9cbd
00000260: 2539 253d 33ac aa3d b6af ebbd f259 30bc
00000270: f48c 903b a23b 9e3a 9a6d eabd 40a8 a1bd
00000280: c99b 563d eec8 593d 10a2 ef3d 0519 d6bd
00000290: 227d c13d 31b0 d43d 7f86 633d 678a 953d
000002a0: bbf8 823c 4a60 83ba 4214 bfbd e410 5abc
000002b0: 317e b83d f09a a83c aa13 9d3d 9165 803d
000002c0: 0f07 173e 6f5e 86bd 35ce d7bc a4dd 1b3d
000002d0: b458 873d 4949 f83d 0ef7 d43b 3ed8 3dbd
000002e0: cd25 16be b7a4 413d a949 6abd dc8a 18bd
000002f0: cee2 a23d a233 e13c f1d8 bbbc 73e9 87bd
00000300: b8a0 cbbd a95d 9d3d 2356 953d 996f d0bc
00000310: 4591 1d3e 9f57 30be bda7 313d d220 e73d
00000320: 3efe debd 6ec8 4d3e bd45 7dbd 10e8 acba
00000330: 7532 fcbd 59d8 b8bc 9036 8a3b 8049 d9bd
00000340: 101d ad3c 9a0a 323d b254 bdbd d5e8 46bd
00000350: 25eb 7c3d ad8a 483d 7101 613d e2d9 afbc
00000360: 9291 9fbd 80ae c7bd 174d aebd fd15 b13b
00000370: 15b2 cd3c 4d80 33bc 3300 f23d 833c 72bd
00000380: 1841 f93c af54 ad3d ef25 87bd 303a c3be
00000390: 9ae0 55bd 0a74 ad3d 78ca c73d 3abc 1e3d
000003a0: 76ec 82bd 2783 a73d 000c 23be 8c45 01be
000003b0: 8424 90bd 69fd 253e 3451 45bd 0a27 28bc
000003c0: 38a2 6f3d 0bcb 3f3e ccda 5abc 1f2a c43b
000003d0: a652 e7bc 8cac 393d f432 27bd 2c87 fa3d
000003e0: f807 d0bd 34a5 1abc 81b2 e3bd 3b36 44bd
000003f0: 766a 18bd 1f87 e63d 70d9 083d 7202 ca3d

fc.2.bias f4 [128]
0.023074506 -0.07388642 -0.08383845 -0.04845505 0.03979768 -0.06239471 0.16144411 -0.07751776
0.02066606 0.009536296 -0.044554796 -0.09713677 0.04080689 0.07371351 -0.017166313 0.11013677
0.052538704 -0.031713434 0.0009680305 0.07861 -0.1457424 0.0029148771 0.03593668 -0.090900555
-0.069787554 -0.0113977 0.108596325 0.05989712 -0.103203006 -0.07714206 -0.025296178 0.024886083
0.017595919 -0.068667926 0.004890207 -0.03813676 -0.03396282 -0.023663534 0.0098538 -0.03442316
0.05103757 0.056889143 0.029894203 0.14399914 0.05563095 0.009152337 -0.0017575205 0.030951217
-0.07149152 -0.016123785 -0.04143741 -0.0065966705 0.0016532548 0.06946761 0.09511798 -0.014742208
-0.115975566 -0.08117764 0.050554182 0.030210856 -0.1335435 0.061351072 0.101853944 -0.010541831
-0.10856022 0.0044155843 -0.14597456 0.051814083 0.022287646 -0.019954884 0.027022244 -0.084824234
-0.01489949 0.047127113 0.09444147 -0.102728985 0.035807397 -0.026596377 0.067254044 0.043517403
0.016429927 0.032348 -0.033401523 0.037165526 -0.010433982 0.057003643 0.030368386 -0.038917113
-0.088932104 -0.08542156 -0.08477432 0.121671595 0.062262774 -0.0143067315 -0.092486024 -0.080697015
-0.08914195 0.10928671 0.13233466 0.049784165 0.013818403 0.011460983 -0.056145415 0.052169852
-0.07066243 -0.04462607 -0.06893585 -0.09018211 -0.028337862 0.07529045 -0.10038719 0.019217081
-0.08319835 -0.09984523 -0.0014675482 0.09711114 0.060920816 -0.039119694 -0.090353936 -0.07681386
0.0068754656 -0.050152097 0.07023946 -0.018632358 0.0065184534 0.031340633 -0.07198329 -0.04628865
00000000: bf06 bd3c c351 97bd 7eb3 abbd cd78 46bd
00000010: e402 233d 9891 7fbd 9b51 253e a2c1 9ebd
00000020: de4b a93c 203e 1c3c 177f 36bd a5ef c6bd
00000030: 2025 273d 1cf7 963d 5ea0 8cbc 638f e13d
00000040: d332 573d f2e5 01bd 6dc3 7d3a 48fe a03d
00000050: 7f3d 15be 8607 3f3b 5732 133d 122a babd
00000060: c7ec 8ebd 6bbd 3abc c067 de3d af56 753d
00000070: 195c d3bd a8fc 9dbd ee39 cfbc e6dd cb3c
00000080: 5125 903c c5a1 8cbd 083e a03b 4b35 1cbd
00000090: 991c 0bbd 07da c1bc d571 213c 4dff 0cbd
000000a0: c50c 513d 9704 693d b0e4 f43c 8374 133e
000000b0: 47dd 633d aff3 153c 9a5c e6ba 688d fd3c
000000c0: 256a 92bd 0716 84bc 46ba 29bd e228 d8bb
000000d0: 07b2 d83a 0945 8e3d 37cd c23d 4d89 71bc
000000e0: 9984 edbd 7640 a6bd e711 4f3d c27c f73c
000000f0: a1bf 08be 434b 7b3d cd98 d03d a5b7 2cbc
00000100: d254 debd 9bb0 903b 5b7a 15be 013b 543d
00000110: 9594 b63c 6d78 a3bc c15d dd3c 54b8 adbd
00000120: fe1c 74bc 5c08 413d 886a c13d 9363 d2bd
00000130: c7aa 123d a5e0 d9bc 7dbc 893d 4e3f 323d
00000140: 0e98 863c 567f 043d 09d0 08bd e13a 183d
00000150: 4bf3 2abc a77c 693d 1fc7 f83c 8d67 1fbd
00000160: 0922 b6bd 80f1 aebd 299e adbd f52e f93d
00000170: 4007 7f3d c866 6abc 5069 bdbd 7a44 a5bd
00000180: 0e90 b6bd b6d1 df3d bd82 073e 7bea 4b3d
00000190: 9566 623c d9c6 3b3c bcf8 65bd 0eb0 553d
000001a0: 77b7 90bd d3c9 36bd 3d2e 8dbd 66b1 b8bd
000001b0: ce24 e8bc e131 9a3d cd97 cdbd 246d 9d3c
000001c0: e663 aabd a87b ccbd bf5a c0ba 35e2 c63d
000001d0: 1b88 793d f93b 20bd 7c0b b9bd 9650 9dbd
000001e0: 964b e13b 496c 4dbd b5d9 8f3d e3a2 98bc
000001f0: c098 d53b 095f 003d fa6b 93bd 2b99 3dbd

fc.4.weight f4 [128, 128]
-0.091687866 -0.039170615 0.03398445 -0.0010622451 -0.05176066 0.07620653 -0.0320524 -0.08310703
-0.088023126 -0.11731132 -0.07154814 -0.008706369 -0.14491822 -0.044311944 -0.24389146 -0.026373338
0.08632265 -0.08691125 -0.052447613 0.7529046 0.09952148 0.06472605 -0.1488455 0.038687706
-0.22695749 -0.08224505 -0.019601924 0.040865395 -0.04422001 -0.14555539 -0.007550554 -0.1826956
0.12695321 -0.16681029 -0.016102387 -0.0033957968 -0.0723312 0.088639915 -0.0924804 -0.1217101
0.0055369553 0.072130114 0.026439587 -0.15758364 0.014752007 0.096107 -0.10736708 -0.0022879636
-0.08102819 -0.12295166 0.07528496 -0.016008629 -0.31485957 -0.22815792 -0.04057468 -0.099190176
-0.26782256 -0.11511667 0.04756015 -0.04608999 -0.038758717 -0.120616764 -0.20702714 0.13264257
-0.01367902 0.116667934 -0.13611077 0.07651149 0.20967357 -0.06528356 -0.04056123 0.18612091
-0.06370832 -0.017843207 -0.08715131 0.0022128501 -0.094314285 0.04575414 -0.17038332 -0.17246102
0.032722346 0.030964736 0.30805847 -0.22403681 0.058292672 -0.027166305 0.17884038 0.032518633
-0.07952893 -0.07094529 -0.1466601 0.0102050835 -0.08761271 0.051639616 0.0739998 0.0322548
0.17050765 -0.12715691 0.018170247 -0.08647639 -0.09730908 -0.04413936 -0.058922146 -0.11427974
-0.0231642 -0.18852611 -0.11729992 0.122331634 0.079767846 0.0838887 -0.047148112 -0.10040712
-0.04729097 -0.08550633 0.026325649 -0.14718877 -0.098691635 -0.04265856 -0.0352179 -0.0058519677
0.20893264 -0.07172887 -0.22361842 0.17882979 0.10879787 -0.09821314 -0.071476296 0.13632987
0.0428577 -0.05355366 -0.28878912 -0.068210945 0.21825945 0.1265359 -0.05828569 0.096801504
0.0064980285 0.044118393 -0.11311673 -0.0203386 0.09583627 -0.14222346 -0.09144627 0.0014132141
0.10190423 -0.13837269 -0.014488872 -0.0011643446 -0.1067306 -0.053262357 0.07901528 -0.027151318
-0.11162317 0.03048162 -0.050341908 0.026984263 0.06769484 -0.020340849 0.036504112 0.093806
0.0166646 -0.18183647 0.117862105 -0.012885445 -0.008433007 -0.060770202 -0.029968347 -0.09233381
0.14419058 -0.19715913 0.00586803 -0.06698209 0.054329775 0.060534935 0.1117345 0.13150713
0.08787372 -0.02574385 0.058725398 0.044057406 -0.047157995 -0.017563269 -0.06941732 -0.028590797
0.002663373 -0.1007261 -0.20760071 0.14827286 -0.028508333 -0.09737696 0.11535824 -0.090410076
0.03554528 0.09412671 0.06877214 -0.0052699912 0.061820578 0.094099835 -0.038416028 0.06949227
0.14303164 -0.21987768 0.06683452 -0.08670126 -0.118221715 -0.0602206 -0.0070472034 0.034103118
-0.09688541 -0.14799571 0.10349567 -0.2007386 0.15583727 -0.036330562 -0.19656074 0.066470064
-0.04000831 0.1490962 -0.1007998 0.03583325 -0.0384303 -0.072777055 0.122659616 -0.018538859
0.078548074 0.11695193 -0.02568849 -0.06436985 0.05835774 -0.24649161 0.016111001 0.15018304
0.113198884 -0.23083092 -0.088310055 0.05454864 0.018017737 0.010163478 0.024428148 0.06454772
0.102550715 0.08659868 -0.17913601 -0.011319661 -0.061458126 0.06378167 -0.14474897 0.11172424
0.12321555 0.0819989 0.05725895 0.12602882 -0.08518451 0.11904113 0.00676144 0.15555982
00000000: d9c6 bbbd 5e71 20bd 4733 0b3d 083b 8bba
00000010: fc02 54bd 2b12 9c3d 6149 03bd 0534 aabd
00000020: 7845 b4bd eb40 f0bd d587 92bd 29a5 0ebc
00000030: 7165 14be 7180 35bd afbe 79be e60c d8bc
00000040: eec9 b03d 87fe b1bd 4fd3 56bd 5bbe 403f
00000050: ebd1 cb3d 178f 843d f46a 18be 0077 1e3d
00000060: 8b67 68be 1870 a8bd 3794 a0bc 7962 273d
00000070: 0b20 35bd 790c 15be a36a f7bb 8e14 3bbe
00000080: 0600 023e 51d0 2abe 27e9 83bc 048c 5ebb
00000090: 6122 94bd d888 b53d 5d66 bdbd 2543 f9bd
000000a0: 596f b53b f4b8 933d d597 d83c 9b5d 21be
000000b0: 67b2 713c bfd3 c43d 46e3 dbbd a9f1 15bb
000000c0: 1cf2 a5bd 14ce fbbd 002f 9a3d 8724 83bc
000000d0: 4635 a1be 3ba2 69be a331 26bd 3824 cbbd
000000e0: 0a20 89be 4ac2 ebbd 6fce 423d dbc8 3cbd
000000f0: 76c1 1ebd ec05 f7bd ecfe 53be 74d3 073e
00000100: f81d 60bc 99ef ee3d 9f60 0bbe 0eb2 9c3d
00000110: abb4 563e 63b3 85bd 8823 26bd 7b96 3e3e
00000120: 8279 82bd eb2b 92bc 637c b2bd 7705 113b
00000130: d927 c1bd b168 3b3d f778 2ebe 9f99 30be
00000140: de07 063d c2a9 fd3c d7b9 9d3e e869 65be
00000150: 4cc4 6e3d df8b debc ef21 373e 4232 053d
00000160: 10e0 a2bd c44b 91bd 112e 16be 3933 273c
00000170: 4b6e b3bd 1084 533d 358d 973d 9c1d 043d
00000180: 8f99 2e3e 6c35 02be c5d9 943c 891a b1bd
00000190: fc49 c7bd 79cb 34bd 5958 71bd 7f0b eabd
000001a0: d9c2 bdbc fd0c 41be f13a f0bd 0289 fa3d
000001b0: 535d a33d d7cd ab3d 611e 41bd 40a2 cdbd
000001c0: 2db4 41bd f11d afbd e3a8 d73c a7b8 16be
000001d0: d71e cabd beba 2ebd a540 10bd ddc1 bfbb
000001e0: 70f2 553e 96e6 92bd 3afc 64be 281f 373e
000001f0: 6bd1 de3d f923 c9bd 2a62 92bd 0f9a 0b3e
00000200: 8e8b 2f3d 155b 5bbd 2bdc 93be 2eb2 8bbd
00000210: 687f 5f3e a192 013e fabc 6ebd de3f c63d
00000220: 6aed d43b 7db5 343d bea9 e7bd 239d a6bc
00000230: ce45 c43d 07a3 11be 2f48 bbbd 993b b93a
00000240: 2ab3 d03d 92b1 0dbe bc62 6dbc ec9c 98ba
00000250: 9395 dabd a129 5abd c3d2 a13d 716c debc
00000260: b09a e4bd 97b4 f93c 5133 4ebd 1a0e dd3c
00000270: 98a3 8a3d daa1 a6bc 5685 153d 5c1d c03d
00000280: 3384 883c 5733 3abe b061 f13d 791d 53bc
00000290: 982a 0abc 2dea 78bd 2e80 f5bc 8219 bdbd
000002a0: b2a6 133e 15e4 49be 9a48 c03b e82d 89bd
000002b0: e688 5e3d 7bf3 773d 0fd5 e43d cea9 063e
000002c0: 23f7 b33d c4e4 d2bc 0b8a 703d 8a75 343d
000002d0: be28 41bd d8e0 8fbc ab2a 8ebd 3f37 eabc
000002e0: fc8b 2e3b 7c49 cebd 4895 54be d7d4 173e
000002f0: 4f8a e9bc 926d c7bd f140 ec3d eb28 b9bd
00000300: ed97 113d 81c5 c03d 68d8 8c3d e4af acbb
00000310: 9337 7d3d 6ab7 c03d 205a 1dbd f751 8e3d
00000320: e376 123e 9d27 61be 89e0 883d 6e90 b1bd
00000330: 3a1e f2bd e0a9 76bd 3aec e6bb b6af 0b3d
00000340: dc6b c6bd 308c 17be 8af5 d33d 6b8e 4dbe
00000350: ce93 1f3e 5bcf 14bd 3847 49be 7521 883d
00000360: c1df 23bd adac 183e 2070 cebd e3c5 123d
00000370: 1769 1dbd 230c 95bd f734 fb3d cede 97bc
00000380: d0dd a03d 7e84 ef3d ab70 d2bc 57d4 83bd
00000390: 8708 6f3d 4c68 7cbe 38fb 833c 95c9 193e
000003a0: d1d4 e73d f15e 6cbe e7db b4bd 656e 5f3d
000003b0: ef99 933c b784 263c 8a1d c83c 9831 843d
000003c0: 1c06 d23d a65a b13d 6e6f 37be 1976 39bc
000003d0: 84bb 7bbd f79f 823d 1339 14be aecf e43d
000003e0: 6f58 fc3d 0aef a73d 5c88 6a3d b30d 013e
000003f0: 3775 aebd d6cb f33d 128f dd3b 134b 1f3e

fc.4.bias f4 [128]
0.076031946 0.018553074 0.03695269 -0.016754182 0.050773267 -0.045848094 0.1658934 -0.10055439
-0.03343137 -0.13950582 -0.064215355 -0.10038701 -0.055807415 0.15467937 -0.09074482 0.04536447
0.03523133 -0.07882036 -0.042065155 0.122260585 0.09723311 -0.07869358 0.056035478 -0.034828033
-0.11148482 0.081793986 0.015387757 0.03625585 -0.021252476 0.09530987 -0.02246911 -0.014547542
0.04269012 0.08733544 -0.10415937 0.11940618 0.090021126 0.10126702 -0.02010757 -0.018760625
-0.15006919 -0.065350674 -0.08728715 -0.15556772 0.028773274 -0.025598003 0.059613258 0.08202364
-0.14400111 0.001469653 0.028560374 0.05085568 -0.092814334 -0.102054626 -0.03059109 0.11985027
-0.05589854 0.16569148 -0.045646414 0.11197095 0.15519542 0.027475093 0.022386834 0.062222812
-0.17357168 0.013558044 -0.045541946 0.019178985 -0.0053688195 -0.10272861 0.089108855 0.08358835
-0.09796885 0.12443285 0.050108332 -0.037250143 0.17258243 0.111651815 -0.06785895 -0.11074386
0.004305783 0.025050506 0.01140859 -0.033828754 0.11686512 0.0019790467 0.072346896 0.007939709
0.03200377 0.046782438 0.054984555 0.030379508 0.11867123 0.045771535 0.022111364 0.06494716
0.020875357 0.004873989 0.07604997 0.016999774 0.032316122 -0.023633685 -0.053993247 0.10277777
-0.06362016 0.08268116 -0.117566526 0.089887924 0.076385066 -0.10932003 -0.021576967 -0.05650489
0.015032062 -0.010817382 -0.038921643 -0.15970188 -0.06761489 -0.07857375 0.11435544 -0.04370487
-0.050200913 0.085169785 -0.037184935 0.028785914 0.048327364 -0.002087016 -0.04279411 0.02449698
00000000: a3b6 9b3d 9efc 973c b45b 173d 1140 89bc
00000010: a1f7 4f3d 36cb 3bbd f6df 293e 76ef cdbd
00000020: 55ef 08bd 9dda 0ebe 5783 83bd b497 cdbd
00000030: 5196 64bd 4564 1e3e 6cd8 b9bd 18d0 393d
00000040: ba4e 103d 926c a1bd 834c 2cbd c263 fa3d
00000050: 2722 c73d 1a2a a1bd 7585 653d d7a7 0ebd
00000060: 2752 e4bd 9b83 a73d ee1c 7c3c 0481 143d
00000070: ac19 aebc d231 c33d 2411 b8bc d058 6ebc
00000080: d6db 2e3d ecdc b23d 8251 d5bd 3a8b f43d
00000090: ff5c b83d 1565 cf3d a1b8 a4bc e2af 99bc
000000a0: bdab 19be 93d6 85bd 9bc3 b2bd 254d 1fbe
000000b0: eeb5 eb3c e7b2 d1bc 082d 743d 03fc a73d
000000c0: 0775 13be 5fa1 c03a 72f7 e93c 0c4e 503d
000000d0: 7115 bebd 0402 d1bd 2a9a fabc 0f74 f53d
000000e0: def5 64bd 07ab 293e bcf7 3abd 0751 e53d
000000f0: 8ceb 1e3e 7213 e13c 9864 b73c 59dd 7e3d
00000100: c6bc 31be 8f22 5e3c 318a 3abd 3f1d 9d3c
00000110: ecec afbb 6163 d2bd b47e b63d 5e30 ab3d
00000120: e4a3 c8bd a6d6 fe3d 653e 4d3d 9b93 18bd
00000130: 73b9 303e b5a9 e43d a2f9 8abd adcd e2bd
00000140: 8717 8d3b b836 cd3c 18eb 3a3c 0590 0abd
00000150: fb56 ef3d e5b2 013b 9c2a 943d 8e15 023c
00000160: 6316 033d f19e 3f3d 7c37 613d 72de f83c
00000170: e709 f33d ef7a 3b3d e422 b53c 0403 853d
00000180: cc02 ab3c fcb5 9f3b 16c0 9b3d 1c43 8b3c
00000190: e95d 043d 6e9b c1bc 0628 5dbd 277d d23d
000001a0: 494b 82bd bd54 a93d b8c6 f0bd 2917 b83d
000001b0: c66f 9c3d 2ee3 dfbd 2ec2 b0bc ac71 67bd
000001c0: 0a49 763c 633b 31bc 4d6c 1fbd e488 23be
000001d0: ad79 8abd 46eb a0bd 2f33 ea3d e103 33bd
000001e0: 799f 4dbd 7f6d ae3d 3b4f 18bd 70d0 eb3c
000001f0: eaf2 453d 51c6 08bb e048 2fbd e4ad c83c

fc.6.weight f4 [4, 128]
-0.014855433 0.015892357 -0.41126513 -0.036935497 -0.035157807 -0.10234388 0.12453611 0.002567629
0.048427597 0.0072411112 -0.37363613 0.075004615 -0.32191944 0.14349397 -0.1037482 0.1563351
0.10297336 -0.049371406 -0.041406285 -0.26174006 0.0859949 0.25195885 0.05340293 0.09409692
0.08987582 -0.20754617 0.035472687 0.080148384 -0.24131131 -0.07397828 -0.06398065 0.23971543
0.097295165 -0.043141615 -0.12808815 0.10848363 -0.036319263 0.064911135 0.009611727 -0.15016282
-0.41867346 0.052460648 -0.079667814 -0.010470695 0.0340447 0.004940082 0.16710256 -0.38730302
0.03850771 -0.3957272 -0.04623306 -0.46403745 0.06061422 0.015275771 -0.10053495 -0.08453938
0.3056438 0.032304358 -0.006229453 0.033610623 0.11558017 0.08132838 -0.016159829 0.007347701
-0.027027622 0.07131951 -0.08447763 -0.16583964 0.06436148 -0.17464402 0.07977758 -0.052134868
-0.053226147 0.0324855 0.0553822 0.070834 0.18000941 0.104476675 -0.32698572 0.11885587
-0.09362538 0.10359418 0.035006564 0.023286989 0.106256016 0.06562499 0.006167298 -0.55605525
0.17962691 0.10044795 -0.42854357 -0.16205767 0.112371646 0.16924061 -0.0010451061 -0.25461376
-0.123104714 -0.4366114 0.06866028 -0.25860247 0.06815019 0.007124492 -0.4703138 -0.30699816
-0.1644434 -0.45916277 -0.14751728 0.053041924 -0.19389941 0.07395137 0.028256463 0.20685126
0.15607114 0.01609804 0.0035950171 -0.09703142 -0.34033668 -0.55684423 0.08289668 0.25943425
0.004599364 -0.018616281 0.093610175 0.021250673 -0.01820199 -0.09393191 -0.09826293 0.03709685
0.04352659 0.102631055 0.13444942 -0.12603778 0.21938467 0.042645477 0.017769119 0.14851563
0.041016877 0.051776398 0.07444225 -0.26970267 0.07539093 -0.17877251 0.23990148 -0.029607289
-0.090698816 -0.30285028 -0.10901614 0.12389144 -0.109502025 -0.122126244 -0.41354674 -0.0778456
0.07982475 0.02134004 -0.38762248 0.13578798 0.2574316 -0.11496717 0.04112813 -0.07396676
0.0074432534 -0.33375978 -0.0812593 0.059264753 0.037890952 0.10360483 -0.21829958 0.10638214
0.054245707 -0.18504852 0.11341101 -0.06081835 0.04152219 -0.18586196 -0.51454616 0.12882899
0.046323344 0.054955672 0.0072482442 -0.06524777 0.33936226 0.14082447 -0.4939207 -0.22402506
0.049396466 0.019229578 0.227497 -0.09970754 0.07331985 0.071198575 0.24564926 0.0350647
0.020552821 -0.031953916 -0.15281975 0.12626465 -0.04378583 0.095472105 0.061937157 -0.034483206
0.012355087 0.038159806 -0.43612018 -0.09420521 0.06868818 0.066211015 -0.078002155 -0.44156867
-0.17767456 -0.3559719 0.11935319 -0.20131032 0.15055843 -0.005775385 0.0010571092 0.077729054
-0.30968615 0.15317261 0.0071306564 0.021596767 -0.10674479 0.10925167 -0.1791603 -0.19166197
0.061066188 0.18322834 -0.14524402 0.0021255994 0.029347014 0.054423444 0.018388808 0.109670825
0.04402984 0.038979612 0.103871584 0.099149965 -0.07811538 0.20587488 -0.13088787 -0.09355983
0.10702219 -0.095730804 0.19880544 0.07258042 0.22489758 0.0071634934 -0.089753516 0.00028969996
-0.010019252 0.055352654 -0.085892506 -0.17139189 -0.30815828 -0.035122175 0.04109757 -0.30329818
00000000: 3464 73bc b030 823c 5891 d2be ad49 17bd
00000010: a201 10bd ab99 d1bd ca0c ff3d ab45 283b
00000020: 045c 463d d846 ed3b 3c4d bfbe 059c 993d
00000030: a0d2 a4be 15f0 123e f079 d4bd 4f16 203e
00000040: b2e3 d23d ac39 4abd a399 29bd cb02 86be
00000050: 181e b03d c000 813e 08bd 5a3d e3b5 c03d
00000060: d010 b83d fc86 54be cf4b 113d d624 a43d
00000070: 501a 77be ed81 97bd 4908 83bd f677 753e
00000080: b042 c73d 43b5 30bd 8a29 03be aa2c de3d
00000090: 82c3 14bd 21f0 843d 817a 1d3c 48c4 19be
000000a0: 5e5c d6be fae0 563d e128 a3bd 478d 2bbc
000000b0: 7572 0b3d 69e0 a13b ef1c 2b3e 954c c6be
000000c0: 43ba 1d3d c19c cabe e15e 3dbd 5196 edbe
000000d0: 9e46 783d 3a47 7a3c 45e5 cdbd fc22 adbd
000000e0: 587d 9c3e 9351 043d 7020 ccbb 4bab 093d
000000f0: 4cb5 ec3d 7e8f a63d 9e61 84bc fcc4 f03b
00000100: 0869 ddbc f70f 923d 9c02 adbd ded1 29be
00000110: f4cf 833d e2d5 32be 6e62 a33d 5f8b 55bd
00000120: a903 5abd 840f 053d 72d8 623d 6b11 913d
00000130: 6354 383e def7 d53d ac6a a7be b56a f33d
00000140: aabe bfbd 2f29 d43d 0b63 0f3d 5bc4 be3c
00000150: c19c d93d 6566 863d 0c17 ca3b a359 0ebf
00000160: 1ef0 373e a8b7 cd3d 106a dbbe 72f2 25be
00000170: 1b23 e63d 694d 2d3e f1fb 88ba bc5c 82be
00000180: 531e fcbd 888b dfbe c39d 8c3d 8b67 84be
00000190: 5492 8b3d 9274 e93b f8cc f0be dd2e 9dbe
000001a0: da63 28be 6217 ebbe c50e 17be 7d42 593d
000001b0: 918d 46be d173 973d 197a e73c d1d0 533e
000001c0: 1dd1 1f3e 09e0 833c 619a 6b3b 69b8 c6bd
000001d0: 9c40 aebe 588d 0ebf bcc5 a93d 91d4 843e
000001e0: 43b6 963b 2c81 98bc b1b6 bf3d e415 ae3c
000001f0: 571c 95bc 605f c0bd 133e c9bd def2 173d
00000200: f048 323d 3b30 d23d 1cad 093e 0c10 01be
00000210: 60a6 603e 06ad 2e3d 8b90 913c 7b14 183e
00000220: 5001 283d 7d13 543d 2e75 983d 7816 8abe
00000230: 8f66 9a3d 2410 37be bca8 753e fc8a f2bc
00000240: 4dc0 b9bd 310f 9bbe db43 dfbd ccba fd3d
00000250: 9942 e0bd 531d fabd 66bc d3be 846d 9fbd
00000260: 297b a33d 4fd1 ae3c 7476 c6be 010c 0b3e
00000270: 13ce 833e e873 ebbd f875 283d e27b 97bd
00000280: 89e6 f33b 90e2 aabe 476b a6bd 99bf 723d
00000290: 8b33 1b3d c52e d43d ed89 5fbe e1de d93d
000002a0: bf30 5e3d 5c7d 3dbe 0844 e83d aa1c 79bd
000002b0: 2c13 2a3d 9952 3ebe 4cb9 03bf bfeb 033e
000002c0: 8cbd 3d3d 3319 613d ae82 ed3b 9fa0 85bd
000002d0: e4c0 ad3e 4a34 103e 2de3 fcbe d366 65be
000002e0: f353 4a3d 5987 9d3c f9f4 683e 7733 ccbd
000002f0: b828 963d 8fd0 913d 7b8b 7b3e 01a0 0f3d
00000300: 645e a83c 1ce2 02bd c87c 1cbe 854b 013e
00000310: c558 33bd e186 c33d d1b1 7d3d 433e 0dbd
00000320: fe6c 4a3c 754d 1c3d 254b dfbe a9ee c0bd
00000330: 63ac 8c3d a499 873d 98bf 9fbd 4a15 e2be
00000340: 52f0 35be f341 b6be 726f f43d 4b24 4ebe
00000350: fd2b 1a3e 713f bdbb b38e 8a3a 6930 9f3d
00000360: 2f8f 9ebe 48d9 1c3e 48a8 e93b b4eb b03c
00000370: 039d dabd 57bf df3d cc75 37be 0943 44be
00000380: 8a20 7a3d 36a0 3b3e d9ba 14be a44d 0b3b
00000390: 2669 f03c 1eeb 5e3d 20a4 963c 199b e03d
000003a0: a258 343d 16a9 1f3d a0ba d43d 230f cb3d
000003b0: f5fa 9fbd ddd0 523e 7807 06be 4c9c bfbd
000003c0: 732e db3d 830e c4bd a793 4b3e 0ba5 943d
000003d0: 8d4b 663e bdbb ea3b b1d0 b7bd dfe2 9739
000003e0: ca27 24bc 77b9 623d 69e8 afbd 5b81 2fbe
000003f0: ecc6 9dbe 45dc 0fbd ed55 283d e649 9bbe

fc.6.bias f4 [4]
0.034189817 0.08441643 -0.11560411 -0.038020074
00000000: 9f0a 0c3d 85e2 ac3d d9c1 ecbd f0ba 1bbd
