model/lv2_bc_model_9.4.pth (torch, 244972 bytes, 8 tensors)

fc.0.weight f4 [128, 209]
000000 6d 52 36 3f 4b cc a5 3e cd 93 88 bc f6 6f 6b 3d
       0.7121952 0.32382426 -0.01667204 0.05747982
000010 cb 15 56 be e0 41 b9 3e e8 5b 60 be 42 2a 72 3d
       -0.20906751 0.3618307 -0.2191006 0.05912233
000020 01 11 94 be a6 2c 57 bc d7 95 af bc 0b 5c 52 3c
       -0.28919223 -0.013133204 -0.021433754 0.012839328
000030 0d 0e ef 3b 1d 3f 20 3c 7b 64 22 bc f1 2c ce 3c
       0.007295376 0.009780672 -0.009911652 0.025167914
000040 f4 d2 19 3d b0 ee 01 bd ef 29 50 3c 7c a1 de bc
       0.037554696 -0.03172177 0.01270531 -0.027176611
000050 a7 e7 f5 3c 48 09 73 3d 57 bc 52 bd e0 da 94 bd
       0.030017687 0.059335023 -0.051449146 -0.072683096
000060 91 a4 09 bd f7 8f cd bc 28 f7 3c 3d 52 66 bc 3c
       -0.03360421 -0.025093062 0.046134144 0.022998009
000070 c0 a3 58 bd 65 1d bc 3c 7e c3 25 bd bc 03 1b 3d
       -0.05289054 0.022963235 -0.04046964 0.03784536
000080 97 af 4b 3d 56 37 23 3d a6 bf 02 3d 55 64 2e 3d
       0.049728002 0.039847694 0.03192105 0.042576153
000090 13 03 96 3c 16 0a 50 bd de c2 fd 3b 6b 49 b8 bc
       0.018312013 -0.05079087 0.0077441772 -0.022495946
0000a0 92 85 24 3d b4 87 f7 bb b0 c7 31 3d d5 77 23 3d
       0.040166445 -0.007554019 0.043403327 0.039909203
0000b0 12 c4 bc bb 91 71 21 3c 7d 1f c4 bc e2 c5 4c bd
       -0.005760678 0.0098537365 -0.023940796 -0.049993403
0000c0 a1 cf 1f bd a8 2c 1e bd c3 e9 c4 3c 0b bd ed 3a
       -0.03901637 -0.038616806 0.024037248 0.0018138004
0000d0 37 4f 7c 3b 99 68 59 3d 55 07 9e 3b 86 9d a3 3a
       0.0038499364 0.053078268 0.0048226514 0.0012482859
0000e0 9b 94 aa 3c 9b f6 7e bd 41 ce 89 bd 9d cc 32 bd
       0.020822814 -0.0622469 -0.06728793 -0.043652166
0000f0 cb 2e 90 bd a0 81 6b 3b 54 0b e5 3b 52 5f dd 3d
       -0.07040175 0.0035935417 0.006989876 0.108091965
000100 dd f6 60 3c 9e ed 8a bb e3 f8 bb 3c 0f cf 0d bd
       0.013730732 -0.004239752 0.022945827 -0.034621295
000110 cf ae 94 3c 2a af 90 ba 45 b5 82 3a 92 25 e7 bb
       0.018149761 -0.0011038531 0.0009972235 -0.0070540393
000120 95 19 3f bd 15 b1 1e 3d a7 bb 60 3c af 58 3d bc
       -0.046655256 0.038743097 0.013716615 -0.011556788
000130 33 db 1e bd f0 cd 8a bd 07 ac 68 3c 10 37 48 bd
       -0.038783263 -0.06777561 0.014201171 -0.048880637
000140 39 a9 4d bc c7 10 39 3d d9 c5 69 bd 3a 31 27 bd
       -0.012552553 0.045182016 -0.057073448 -0.04081843
000150 c3 35 36 3b d0 69 45 bd 29 43 a1 3c 08 e8 09 bc
       0.002780304 -0.048196614 0.019685345 -0.008417137
000160 5d 16 23 bb f3 5e 52 bd f9 d0 d0 3c ac e4 61 bd
       -0.0024885156 -0.051360082 0.02549027 -0.05514972
000170 50 8b 32 3c cd de 19 bd f8 7b 02 bd bf d9 17 bd
       0.0108974725 -0.037565995 -0.031856507 -0.037072893
000180 28 d0 96 bc ca 89 95 bc 26 33 d0 3c 57 ef 2d 3d
       -0.018409804 -0.01825418 0.025415014 0.04246458
000190 ce 8a 23 3d 18 98 8d 3d 97 e4 fd 3c 84 01 65 bd
       0.039927296 0.06913775 0.03099279 -0.05590965
0001a0 8a 81 34 bd 65 89 c6 3c 0d de 38 bc b8 a9 33 3d
       -0.04406885 0.024235437 -0.01128341 0.04386303
0001b0 a1 2d 30 bc 4a 5f 74 3d c1 de 6c bd 7e 2f 80 3d
       -0.010753066 0.059661187 -0.057829622 0.062590584
0001c0 3e ef 02 3d a2 b4 7e 3d 18 c1 57 bd 16 de 1c bd
       0.03196644 0.062183984 -0.052674383 -0.038297735
0001d0 b7 c9 d4 3c ab ac d3 3c 6c 52 df bc e2 10 1a bd
       0.025975091 0.02583917 -0.027260982 -0.037613757
0001e0 fd bb 86 3d 65 31 7c bd 5e e9 6f 3c bb a6 39 bd
       0.06578825 -0.061570544 0.014643041 -0.045325022
0001f0 a9 4c 48 3d fb 78 18 3c 8c 0b 20 3d 88 b9 69 bd
       0.048901234 0.009306188 0.039073512 -0.057061702
000200 6d 18 2a bd e6 2d 66 3d 44 dc 46 bd c8 ed c1 3c
       -0.0415272 0.056196116 -0.048549905 0.023672953
000210 79 b5 28 3d ce 69 00 3d a1 42 05 bc 81 f9 54 bd
       0.04118869 0.031350903 -0.008133561 -0.051995758
000220 4e df b4 3c 31 f3 9e 3d c0 24 1a 3d a6 fb 59 ba
       0.022079136 0.07761229 0.037632704 -0.00083153916
000230 95 6c 20 bd 0d 76 4f 3d 49 2d c1 bc ce 63 e1 bb
       -0.039166052 0.05064969 -0.023581164 -0.0068783527
000240 b9 bc 1e 3d 77 22 02 bd db 3a e3 3c a6 90 61 bd
       0.0387542 -0.03177115 0.027738025 -0.055069588
000250 b0 66 ca 3c ab 1c 0c bd 39 95 14 bd 84 34 04 bd
       0.024707168 -0.034207027 -0.036275122 -0.032276645
000260 23 0b 3b bc 22 d6 f4 bc a3 82 70 3b 72 b1 15 3d
       -0.011416229 -0.029887263 0.003669896 0.03654618
000270 bf ec d9 bc 76 b0 1e 3c f9 94 fa bc eb ae 0a bc
       -0.026602147 0.009685626 -0.030588614 -0.008464555
000280 fa 7e f1 bc 85 32 00 bd 93 cb 60 bd 50 75 cb 3a
       -0.029479492 -0.03129818 -0.054881644 0.0015522633
000290 d1 56 b2 3c 01 dd 48 bd 8f 3f c5 bb fe 6d 33 3d
       0.021769913 -0.04903889 -0.0060195397 0.04380607
0002a0 e0 2a a3 3b 4b c3 4c 3c fc f1 55 3d 7c d6 58 3d
       0.0049794763 0.012497733 0.052232727 0.052938923
0002b0 35 2d c8 bc f6 ed 20 3d 2f 3f ad bc 3b 55 c7 bc
       -0.024435619 0.039289437 -0.021148292 -0.024332633
0002c0 be 1f 73 bd 2a 5d 2b bd 23 ed b3 3c 36 b2 4e 39
       -0.059356444 -0.041836895 0.021963662 0.0001971208
0002d0 2f 44 87 3c c5 6a 8c 3c d9 40 8e be 19 22 99 bf
       0.016512005 0.017140755 -0.2778385 -1.1963531
0002e0 0f db 7c 3e 1a 33 11 bf 15 90 7f be 3e 50 cf 3e
       0.24692939 -0.567186 -0.24957307 0.40490907
0002f0 7e 64 db 3e ae 42 51 3e 6d cb 0a bf 94 24 24 bf
       0.42850107 0.20435593 -0.54216653 -0.64118314
000300 ab 2a e3 3f bc 67 66 3d 90 0d 29 3d 43 9f e3 bd
       1.7747396 0.056251273 0.0412727 -0.11114361
000310 7b 46 bc 3c 98 8d 8c 3d ef 0a c4 3d e3 37 fe bc
       0.022982826 0.06862944 0.09572398 -0.031032508
000320 54 16 28 bd e1 95 07 be 3c ea 74 3d df 90 47 3c
       -0.04103692 -0.13240768 0.059793696 0.012180536
000330 b5 c0 b3 3a d7 c0 e0 bd ee ee 2d 3d 0a c0 7e bd
       0.0013714047 -0.10974281 0.04246419 -0.06219486
000340 ed d2 7e 3d b9 f0 ad 3e a6 ac 0f 3f 8c 26 1f bd
       0.062212873 0.3397272 0.56122816 -0.03885512
000350 a5 84 a6 3d fd aa 55 3d 83 39 8e 3d c1 9c 09 be
       0.08130769 0.05216502 0.06944563 -0.13438703
000360 c2 d4 bb 3d c1 b7 bd bd d2 a5 e2 3d 14 7d 19 3e
       0.0917144 -0.09263564 0.11066784 0.1498912
000370 97 74 58 3d 09 59 79 3d ef 27 87 bd 66 71 7a 3d
       0.052845564 0.060875926 -0.065994136 0.0611433
000380 1c 21 26 3d 38 63 08 bc dd 4f ba bc 3a 13 33 3d
       0.04055892 -0.008324437 -0.02274316 0.043719508
000390 fa 55 29 bd 71 3c 73 bc c1 1f b7 3c b5 34 04 3d
       -0.04134176 -0.014845953 0.022354009 0.032276828
0003a0 04 38 2a 3c d9 37 74 b9 d2 6c 1b 3d a4 5f 68 3b
       0.010389332 -0.00023290458 0.037945576 0.0035457397
0003b0 b7 2a 4f 3d b0 be 42 bd 2e 5a 80 bb 92 12 7a bd
       0.050577845 -0.047545135 -0.0039170003 -0.061052866
0003c0 2b 58 b9 bc 78 dc 42 bd 20 ef 3f bd 54 f4 29 bd
       -0.02262505 -0.047573537 -0.046858907 -0.041492775
0003d0 0c 7f f4 3c 4d 74 31 3c 21 55 a4 bc ae ff 23 3d
       0.029845737 0.010830951 -0.020060124 0.040038757
0003e0 25 8c d9 3c 9b c6 9c 3c c4 42 21 3d ec b3 6e 3c
       0.026556084 0.019137671 0.039370313 0.014569264
0003f0 08 aa 8c bb 9f db 1e bd 68 11 c8 3d 25 9e 20 3d
       -0.0042927302 -0.038783666 0.09768945 0.03921332

fc.0.bias f4 [128]
000000 f1 5d 68 bd f4 7b 9a bc f1 f2 2f 3d f9 24 e4 bc
       -0.056730215 -0.018857934 0.042956296 -0.027849661
000010 25 e2 7e bd 79 bf 8e bd cd e5 c2 bc f7 21 9c bd
       -0.062227387 -0.06970114 -0.023791218 -0.07623666
000020 f3 f6 9f 3a eb 1a 98 3c 76 86 d9 3c 1f bb 3e bd
       0.0012204334 0.018567523 0.026553374 -0.04656517
000030 ed 74 ab 3c 20 9f 4a 3d a5 53 5b 3b e5 98 87 3c
       0.020929778 0.04946816 0.0033466604 0.016552398
000040 86 bc 88 3d 7e c0 ae bd 3a 96 9d bc 8e 3f 12 bd
       0.06676583 -0.08532809 -0.019236673 -0.03570514
000050 c8 71 a4 bb de 71 24 3d 39 7f 9b 3c 34 1a 3f bd
       -0.0050184466 0.040147655 0.018981563 -0.04665585
000060 13 e5 82 bd db 62 41 3b e6 a1 77 bc 05 fa f7 bc
       -0.06391349 0.0029508385 -0.015114283 -0.030270586
000070 89 09 24 3c c8 dc b0 bd fe fc 48 bd 93 c2 a9 bc
       0.010012039 -0.08635861 -0.049069397 -0.020722663
000080 24 f5 4b 3d 3e 09 1b bd 6e 0e 89 bd 1c 2c 84 bd
       0.04979433 -0.03785061 -0.06692205 -0.06453726
000090 c2 f8 d7 bc 76 64 30 bd d0 3a 28 3d 33 b1 2a bd
       -0.026363734 -0.043064557 0.041071713 -0.041672897
0000a0 d3 92 d3 3c a1 9d 00 bd b0 a1 25 bd aa 9d bc bc
       0.025826847 -0.031400327 -0.0404374 -0.023024399
0000b0 f8 02 1b 3d bb 8f a7 3c ba 78 2a bd 52 98 47 3d
       0.037844628 0.020454278 -0.04161904 0.04872925
0000c0 ec 3d 97 bd 67 50 63 3d ef 91 bb bd e6 87 73 3d
       -0.073848575 0.0554966 -0.09158694 0.059455775
0000d0 69 31 c2 3c 76 f3 3f bd 2c 8e 15 be bb d3 14 3c
       0.023705201 -0.04686304 -0.14605016 0.009083684
0000e0 df 43 38 bd 48 9f 65 bd d2 8c 0c 3d e0 27 81 bd
       -0.044986602 -0.056060106 0.034313984 -0.06306434
0000f0 9b a0 83 bd c8 61 0d 3d a6 7a be 3c 8f b8 b0 3c
       -0.064271174 0.03451708 0.023251843 0.02157238
000100 7e 13 24 bd 3f e2 49 3c 2e ee dd 3c 72 91 8f 3c
       -0.04005765 0.012322008 0.027091112 0.017525408
000110 c6 e4 c1 bd 97 56 5b bd 81 a3 79 bd 0f 61 49 bd
       -0.09467463 -0.053549375 -0.060946945 -0.049164828
000120 df d1 ab b9 c8 73 f3 bc 83 3d 9a 3d a8 a4 41 bd
       -0.00032772028 -0.029718295 0.07531264 -0.04727617
000130 d8 83 a0 3d b1 2f bc 3c be 49 97 bd 01 e9 7f 3c
       0.07837647 0.02297196 -0.07387112 0.015619517
000140 e3 0b a3 3c ef a5 7a bb 22 c4 ab bd 93 d4 81 bd
       0.019903129 -0.0038245877 -0.08387019 -0.063393734
000150 e9 df d7 bc 9c 57 ca bd bd a5 13 3d 6d 4f b4 3c
       -0.026351886 -0.098799914 0.036046732 0.02201053
000160 23 0b 3e 3d df 03 05 3d a0 18 e8 3b 76 75 36 bd
       0.04639734 0.032474395 0.0070830137 -0.044545613
000170 ce f6 83 3d b8 8a dc 3c 2d f8 9c bb 28 17 f3 bc
       0.06443559 0.026921615 -0.004790327 -0.029674128
000180 88 9d af bd a6 0c 8c bd 9f 6b 95 bc ce 90 dd bd
       -0.085749686 -0.0683835 -0.018239794 -0.10818635
000190 9f 83 5c bc 38 01 92 bd 19 6f ef bc 3a 18 df 3c
       -0.013459115 -0.07129139 -0.02922778 0.027233232
0001a0 2b 26 40 bc bc c1 ae 3d ad a1 aa bd 5c 59 b5 bd
       -0.01172785 0.08533046 -0.083316185 -0.088549346
0001b0 fd 79 eb bc fe 10 2b 3d 9b a4 0d 3c 04 6a 67 bd
       -0.028744692 0.041764252 0.008645202 -0.05649759
0001c0 42 1e ff bb 34 1d 9f bc 9a 7a b2 bd 1d b6 07 3d
       -0.0077855894 -0.019423105 -0.08714791 0.03313266
0001d0 ec b6 88 bd 05 37 88 3c 5b 0e e4 3c 20 c8 0e bd
       -0.066755146 0.016627798 0.027838876 -0.034858823
0001e0 ae 4b 6e bd b8 94 a5 bd ac 04 ae 3c 2c ab 93 bd
       -0.058177643 -0.080850065 0.021242462 -0.07210383
0001f0 85 4c b5 bd ad 79 0d 3d ca 58 6f bc b2 09 34 3d
       -0.088524856 0.034539867 -0.014608571 0.04395456

fc.2.weight f4 [128, 128]
000000 b5 e4 31 be c8 eb 29 be 42 57 fc 3c 29 82 f9 bc
       -0.17372401 -0.1659385 0.030803327 -0.030457573
000010 71 4d 80 3e 8f a3 26 3e 15 24 cf bd c3 fa a9 bd
       0.25059083 0.1627333 -0.10114304 -0.08299782
000020 e8 ae 92 3d c5 18 9e 3d c4 e9 29 be 27 e4 12 bd
       0.07162267 0.07719568 -0.16593081 -0.035862114
000030 e4 a4 16 bc ec 5f 86 bb 61 79 a4 bd df b7 07 be
       -0.009194586 -0.0041007902 -0.08030964 -0.13253735
000040 c9 cd 5c be bd d2 c8 bd 36 92 b2 bd 48 0d 32 be
       -0.21562876 -0.0980582 -0.08719294 -0.17387879
000050 bb 25 c4 ba 7b c9 19 be da fd 43 be 0c a1 6a 3d
       -0.0014964858 -0.15018265 -0.19139805 0.057282493
000060 2f a8 06 3e b3 0f 3e 3c fe 17 bb 3d 7d bb 40 be
       0.13150094 0.011600423 0.091354355 -0.18821521
000070 1a 48 20 3d c8 48 c5 3c b6 4f 8a bb 09 b1 f6 3d
       0.03913126 0.024082556 -0.004220928 0.120454855
000080 83 16 6c bd 2e c3 4e bd 2d bb 94 3c 4c 87 31 bd
       -0.057638656 -0.050479107 0.018155659 -0.04334192
000090 d7 62 9d bd 27 0c 87 bd a9 0d 05 be 71 5a 78 be
       -0.07684868 -0.06594115 -0.12993492 -0.2425325
0000a0 79 7a 69 3c b9 78 8e bd 01 9c 26 be 63 29 b4 bd
       0.014250391 -0.0695662 -0.16270448 -0.087969564
0000b0 69 31 9f bd 29 6d de 3d 77 49 df 3d 6c 49 93 bd
       -0.07773096 0.108606644 0.10902684 -0.071917385
0000c0 0d 2a 52 bd 69 e9 47 3d d1 78 5e be f3 d8 20 3c
       -0.051309634 0.04880658 -0.21725775 0.00981735
0000d0 88 13 17 3d 1b 7d c2 3c ea 57 90 bd 8b 3a 75 bd
       0.03688386 0.023741296 -0.07048018 -0.059870284
0000e0 bb 94 1c be 15 0f 48 bd 5f 20 e4 bc ea 53 62 3e
       -0.15291111 -0.04884251 -0.027847467 0.22102323
0000f0 db 70 12 bd 27 75 14 be 22 ff 76 be 21 e0 01 be
       -0.03575216 -0.14497815 -0.24120763 -0.12683155
000100 9d 7e 60 3c 50 05 59 3d 59 65 8c 3d 9e 31 32 bd
       0.013702062 0.052983582 0.06855268 -0.04350435
000110 03 23 40 3d 57 6c 4b bd b0 7c 4c be dd 48 91 3d
       0.04690839 -0.049663868 -0.1996944 0.07093976
000120 97 db 5b 3d d8 9f 3c 3d c9 47 53 3e 92 46 06 bd
       0.053676214 0.046050876 0.20632853 -0.032782145
000130 d6 e1 17 3d 02 43 7e bc f4 86 06 3d 5a 4e 5f 3d
       0.03708061 -0.015518906 0.032843545 0.05451808
000140 8c 47 06 bd 45 00 34 bd 1d 0f cf 3c b9 2c cb 3c
       -0.032783076 -0.04394557 0.025275761 0.024801599
000150 9b 62 1c 3e 0e 2a b5 3b 95 da fb 3d 56 50 1f 3d
       0.1527199 0.005528695 0.122975506 0.038894974
000160 fd 00 03 3d 6a 86 f0 3c 0e 41 29 be 1e dc 26 bd
       0.031983364 0.029360969 -0.16528723 -0.040737264
000170 75 3e 22 3e 97 8c 76 3d 9d f1 4e 3e 0b ef 28 be
       0.15844138 0.06019267 0.20209356 -0.16497438
000180 4e f5 1c 3c c7 55 89 bc 13 14 a5 bd fa 33 b1 bc
       0.00957997 -0.016764535 -0.080604695 -0.02163123
000190 58 12 3e bd 46 e3 2d 3e ca 01 0b be 26 1b 69 3d
       -0.046404213 0.16981229 -0.13574901 0.056910656
0001a0 d6 ad 2e 3d 2d c1 e7 3d 5a b5 14 3d 5f 1a 6c be
       0.04264625 0.11316142 0.036305763 -0.23056935
0001b0 ba 10 e6 3d f2 ce d4 3c 59 4d 1d 3e a8 51 c9 3c
       0.11233659 0.025977585 0.15361537 0.02457507
0001c0 46 5c 07 3e 95 f7 76 bc fc 98 a0 bd cb 7c 86 3d
       0.13218793 -0.015073677 -0.078416795 0.06566771
0001d0 04 39 8a bd fe ea f3 bc 43 63 ae bd a5 d6 86 be
       -0.06749156 -0.029775139 -0.085150264 -0.26335636
0001e0 78 0f 69 bd ef 8f 7c bb 72 46 33 3e 5e 88 e1 bd
       -0.056899518 -0.003853794 0.17507342 -0.11012338
0001f0 92 5c 08 3d 8c 5a b6 bc 4a b9 cf bc bd 01 b8 bd
       0.033291407 -0.022259973 -0.025356907 -0.089847066
000200 5b bb 9c bd e1 e3 9a be 7e 1f cd 3d 6a 98 8a be
       -0.07652923 -0.30251983 0.10015772 -0.27069408
000210 b1 48 c7 3d 2e 38 bf bc 41 fd 95 3d b2 47 67 bc
       0.09730662 -0.023342218 0.07323695 -0.014116215
000220 56 f7 1e be 1c 16 11 bd b5 41 00 bd ca 53 cf bd
       -0.15524039 -0.035421476 -0.031312663 -0.10123403
000230 b9 bb 44 be a1 f0 2e be 85 c2 11 3d cb 34 01 be
       -0.19212236 -0.1708398 0.0355859 -0.12617795
000240 4b 50 e8 bd ec 47 8b bd 8e 58 b0 3d ed d9 cd bd
       -0.1134344 -0.068008274 0.086106405 -0.10051332
000250 c1 3e 15 3d cb cf f3 3d bb 36 6e 3d 34 d0 b5 bd
       0.0364368 0.11904868 0.058157664 -0.08877602
000260 0e 2c 17 3e 72 ee 79 bd b2 64 75 3e 49 e3 7a bc
       0.147629 -0.061018415 0.23964193 -0.015312978
000270 66 5d 5e bd 93 3d d5 bd e8 f1 f3 3c 4a 78 25 3c
       -0.05428829 -0.10412135 0.029778436 0.01009948
000280 72 b7 a1 3e 77 ee cf 3d ba 15 f8 bc 5c 88 2f bd
       0.3158527 0.101529054 -0.030283798 -0.04285465
000290 0b cf 5c be 2d c0 b0 3a 68 c5 1c bd 6d 97 80 bc
       -0.21563356 0.0013485007 -0.0382742 -0.015697205
0002a0 2e cd b6 3d 53 b5 40 bd 39 af 3b be a8 3b c1 3b
       0.08925854 -0.047047924 -0.18328561 0.005897004
0002b0 34 5e 44 bd 5f a7 f6 3d 52 73 ec 3d 49 d0 6c 3d
       -0.0479414 0.12043642 0.11545433 0.057815824
0002c0 40 00 78 bd 79 01 8d bd 44 59 05 be 1b 42 a3 bd
       -0.060547113 -0.068850465 -0.13022333 -0.07971593
0002d0 51 32 1e 3d 5e c0 a8 bd 0a 3f 11 bd d5 23 72 3d
       0.038622204 -0.08239816 -0.03546051 0.059116203
0002e0 56 36 1b be 92 97 a2 bd da 52 cb bd c6 d2 47 3d
       -0.15157446 -0.07939066 -0.09927912 0.048784994
0002f0 36 68 9e bd c6 ae db bd cf e8 74 bd 2a dd f9 bd
       -0.077347204 -0.10726695 -0.059792336 -0.12200387
000300 29 df 81 bd 68 fb c8 3c d3 02 5e 3d 42 57 57 3d
       -0.063413925 0.024533942 0.054201912 0.05257345
000310 12 e1 35 bc 7d d0 ac bd 91 47 e8 bd 78 c8 18 3e
       -0.011101024 -0.084382035 -0.11341775 0.14920223
000320 cc 21 0b 3e 0a 42 e7 3d 74 f9 b4 ba 9b e2 43 3c
       0.13587111 0.11291893 -0.0013807253 0.011955882
000330 4e 62 b5 bc 60 21 a8 bc f4 6f 9a bd d8 16 21 bc
       -0.022141602 -0.020523727 -0.075408846 -0.0098321065
000340 59 f8 cc bd 8a 0b d4 3c d0 15 5b 3d f8 94 61 bc
       -0.10008306 0.025884409 0.0534876 -0.013768427
000350 c4 1f b2 3d 40 78 21 3d b2 45 07 3c b2 96 1c 3d
       0.08697465 0.03942132 0.008256363 0.03822965
000360 83 10 c2 3d 32 f8 ca 3c 40 b8 dd bd 4d de 17 3b
       0.094758056 0.024776552 -0.108261585 0.0023173273
000370 88 47 c1 3d 6c 5c 22 be 57 7a 1d 3d b2 c6 4a bd
       0.09437472 -0.15855569 0.03844675 -0.049505897
000380 90 2d f5 bc 7b 27 8e 3c f9 a7 a0 3d ab 79 9b bd
       -0.029928952 0.01735281 0.07844538 -0.07591566
000390 ff 23 37 3c e3 a5 3f bd 03 82 ba 3d ea 05 15 3e
       0.011178016 -0.04678906 0.09106829 0.14553037
0003a0 91 27 6a bc c6 46 e8 be e6 e3 27 3d dc 60 1b be
       -0.01429166 -0.45366496 0.040988825 -0.15173668
0003b0 9a bc aa bd db 9f 82 bb 93 eb 2c 3e fb d9 76 3d
       -0.08336754 -0.0039863414 0.1688674 0.060266476
0003c0 ba 10 9f be a0 c3 2e 3d 27 79 82 bd 3a d1 ec 3d
       -0.3106745 0.04266703 -0.06370764 0.11563344
0003d0 e9 fc a3 bd 4d 5e f5 3d 4d 69 3b 3d 7b ee 4e bd
       -0.08007223 0.11980877 0.04575472 -0.0505204
0003e0 b5 13 15 bd b9 88 2c 3d 44 ca 19 3e c2 e0 90 bd
       -0.036395747 0.042122576 0.15018564 -0.07074119
0003f0 e9 c1 f2 3c 79 40 9b bc 45 3e 94 bd 91 bc 46 3d
       0.02963348 -0.018951641 -0.072384395 0.048519675

fc.2.bias f4 [128]
000000 27 30 08 3d 3c c9 69 bd 70 e0 07 bd 81 67 18 be
       0.033249047 -0.057076678 -0.033173025 -0.14883234
000010 ba 7a b6 bd 0f 6a 8d bc 91 e6 85 3d c2 34 9d bd
       -0.08910127 -0.017262487 0.06538118 -0.076760784
000020 b5 07 63 3c 11 66 21 3c 6c 17 34 bd f7 11 96 bd
       0.013856818 0.009850995 -0.04396765 -0.07327645
000030 ac bb f9 bd f4 12 da bc db 5c 05 3e 2a 86 fc bc
       -0.12193999 -0.026620366 0.13023703 -0.030825693
000040 02 36 96 3c 28 af aa bb 85 c4 62 bd 1c 24 ac 3c
       0.0183363 -0.0052088685 -0.055363197 0.021013312
000050 1a 93 72 3c ab 2e 50 be 4f 03 12 3c 1d 04 12 be
       0.01480558 -0.20330302 0.008911922 -0.14259382
000060 51 d5 00 be 1c 9a ce bd 86 ac 20 be 41 14 fc 3d
       -0.12581374 -0.10087988 -0.15690812 0.123085506
000070 9b c1 ba 3c 1f 34 9b 3c cc 2a 48 bd 7e f8 23 3c
       0.022797396 0.018945752 -0.04886894 0.010007976
000080 b7 fa db 3d 21 3c 11 ba 82 13 94 bd 00 02 84 3c
       0.107411794 -0.0005540271 -0.07230283 0.016114235
000090 13 c1 8e 3d 9e 36 8f 3c d2 29 00 3c 86 36 e7 bd
       0.0697042 0.017482098 0.007822471 -0.112896964
0000a0 c3 f1 dc bd b8 95 f7 3a e5 10 4e 3d d8 cd 00 bd
       -0.107883 0.0018889224 0.05030908 -0.031446308
0000b0 80 16 82 bc e3 18 cd bd 55 9d d4 bc 3d a8 57 bc
       -0.01587987 -0.100145124 -0.025953928 -0.01316267
0000c0 a9 ab 19 be b1 f0 c8 bd 73 61 ed bc 68 60 00 be
       -0.1500689 -0.09811533 -0.028977131 -0.12536776
0000d0 3c 91 69 3c 9e f5 c3 bd 0b b7 b3 bd 82 ee ef bd
       0.014255818 -0.09568332 -0.08775147 -0.11715414
0000e0 23 d1 d0 bd 2e 1b 0b 3d be 2a 88 3d e8 ec 40 bd
       -0.1019614 0.033961467 0.066487774 -0.04710093
0000f0 17 67 80 3d 08 d1 f9 3b 43 a4 42 bd 05 7a 38 bd
       0.06269663 0.0076237954 -0.047519933 -0.045038242
000100 86 27 d4 3c fd fc 8c 3c 1f 64 73 3c 5c e3 17 bd
       0.025897752 0.017210478 0.014855414 -0.03708206
000110 d9 7b 96 bc 61 3c 2e bd 21 c5 94 bd 8d 47 06 3d
       -0.018369602 -0.04253805 -0.07264162 0.03278308
000120 f4 61 68 3d ea 6d 6e bd aa d5 ed bd d7 ff 4e bd
       0.05673404 -0.05821029 -0.11613019 -0.050536957
000130 45 1d 51 bd 88 e7 90 3d 3b 1a 4e 3a 92 ba ee b9
       -0.051053304 0.07075411 0.0007862185 -0.00045533903
000140 ff 57 d3 3c 7d 63 41 bd 33 b5 d4 bd 71 fc 48 3d
       0.025798796 -0.04721402 -0.103861235 0.049068872
000150 65 c9 cd bc c5 c1 92 bd 65 3b bc bc 6e b3 dd bc
       -0.025120446 -0.07165865 -0.02297754 -0.027063098
000160 8f a4 a8 3d b5 4e 05 bd 39 a3 96 bd c0 f4 1a be
       0.08234512 -0.032545764 -0.07355351 -0.15132427
000170 7a 80 55 bd 19 e3 9d 3d 23 f6 d5 bd 45 18 4d 3d
       -0.052124478 0.07709331 -0.104473375 0.050071973
000180 f1 cf 4e be f7 27 14 be bb a9 f3 3c 0c 87 a7 bd
       -0.20196511 -0.1446837 0.02974402 -0.08180055
000190 bd 08 93 bb ff 8c e2 3d b4 ce 07 3e 00 84 a3 3d
       -0.0044871257 0.11062049 0.13262445 0.079841614
0001a0 7e d8 7c bd 81 3a 8f bd c4 73 18 bd 0d 26 94 bd
       -0.0617299 -0.069935806 -0.037219778 -0.0723382
0001b0 e6 88 9a bd ba 09 fc 3a 6e a3 9d bd c3 8e 29 bd
       -0.075456426 0.0019228973 -0.07697187 -0.041395914
0001c0 8a e3 b2 3d 5c a9 bd bd 37 6b 4d 3c 4f 92 a9 bd
       0.08734806 -0.09260818 0.012537769 -0.08279859
0001d0 b8 3d fd bd d3 3e 84 bc ad 18 9c b8 42 3d 13 bd
       -0.123652875 -0.016143238 -7.443256e-05 -0.035947092
0001e0 4c 23 a0 bd 9f 44 46 bd 0d 8b 1b 3c 2f 35 d4 ba
       -0.07819232 -0.048405286 0.0094936015 -0.0016190166
0001f0 69 f8 b8 3d 00 9a 09 be 72 e5 ff 3c 1d 81 a2 3c
       0.090317555 -0.13437653 0.031237338 0.019836957

fc.4.weight f4 [128, 128]
000000 6b 33 87 bd 8d b1 98 bd a7 10 5d 3c 6b 3e 90 3d
       -0.06601604 -0.0745574 0.01349274 0.07043155
000010 0d 6e 95 3c 08 58 cc bd 04 47 43 3e 9c f6 ed bd
       0.018240953 -0.09977728 0.19070059 -0.11619303
000020 a2 0a e6 3d 51 be 00 be 7e af c2 bd 59 9e 18 be
       0.11232497 -0.125726 -0.09506129 -0.14904155
000030 2b 02 c9 3d 42 5f 33 bd af 95 a2 3d da f8 f3 3d
       0.09814867 -0.043792017 0.07938706 0.11912699
000040 6a dc 58 bd dd b1 bf bc a2 7a ca 3c c9 c7 d5 bc
       -0.05294458 -0.023400242 0.024716679 -0.026096242
000050 84 4d 81 bd f2 37 cd bd 5a 2f 38 be e2 18 58 3c
       -0.06313613 -0.10020436 -0.17986813 0.013189526
000060 88 f6 09 3e a3 67 44 3e b1 8a 77 bb c8 22 34 3e
       0.1347295 0.1918016 -0.0037771876 0.17591393
000070 f0 ee 04 ba c3 4e e5 bb b5 d4 f8 bd 0f db 59 3e
       -0.0005071005 -0.0069979145 -0.12149946 0.2127497
000080 25 2f 9b bd 18 f9 0c 3e 6b 28 f4 bd 94 20 fd 3d
       -0.075773515 0.13766897 -0.119217716 0.123597294
000090 00 b0 f8 3d 35 0f 0a bc 23 30 21 be 4c be 1d be
       0.12142944 -0.008426477 -0.15741019 -0.15404624
0000a0 a8 6d 96 3d f7 e8 78 3d 8d 16 6e be 5a 7b 8e 3c
       0.07345134 0.060769048 -0.2325079 0.017392803
0000b0 21 5f ab 3d 9a 59 2a 3e 51 89 c4 bd b2 6a 1c 3e
       0.08367754 0.16635743 -0.095965035 0.15275076
0000c0 84 75 d0 3d 6a 63 aa bd 88 22 cc bc eb 90 07 3e
       0.10178664 -0.08319743 -0.02491881 0.13238876
0000d0 41 d4 1d 3c 82 de 6d 39 7d a8 c2 3d 83 39 a1 3d
       0.009633125 0.00022684972 0.09504793 0.078722976
0000e0 81 28 e9 3d be fe f8 3b 0f e2 e4 3d 70 c7 37 be
       0.11384679 0.007598727 0.1117593 -0.17947173
0000f0 0d b6 4a be 67 83 b9 bd 95 9a e0 bc 0a 9b 7e be
       -0.1979601 -0.09058266 -0.02741746 -0.2486383
000100 3f 77 b6 3d 60 ed 17 3e 82 cc 13 3d a6 89 ca 3d
       0.08909463 0.14836645 0.036083706 0.098895356
000110 1a c5 bf 3d ee 02 c6 3d a8 c2 9a bd 19 22 c7 bd
       0.09363766 0.096685275 -0.07556659 -0.097233005
000120 73 1a 92 3d fe 52 a8 3d ee 70 21 be 46 4a 18 bd
       0.07133951 0.082189545 -0.15765736 -0.037180208
000130 bb e9 29 be 7f e4 26 be cd 81 f2 ba b2 15 2d b8
       -0.16593067 -0.16298102 -0.0018501818 -4.126662e-05
000140 a9 2a 90 bc 1b 10 70 3c ae f5 27 3d 33 ae 9d bb
       -0.017598467 0.014652277 0.041005783 -0.004812026
000150 1d 86 a3 be 26 57 36 be cb 6d 03 be 16 f6 05 3c
       -0.31938258 -0.17806682 -0.12834851 0.008176347
000160 48 04 89 3d 8f 60 87 bd 42 ec ca 3c 5a da 87 3d
       0.0669027 -0.06610214 0.02477086 0.06633444
000170 a3 bc 8d bd 6d ca 2c 3e 19 d3 f2 3c 6a 0c d4 3d
       -0.06920745 0.16874094 0.029641675 0.1035393
000180 7d fe 55 be a0 1a ce 3c b2 bc 4d 3d 0d 8c 00 3e
       -0.20897861 0.02515918 0.050228782 0.12553425
000190 5a c5 52 bd 89 58 9e bd 56 5f a9 bd 6d da a8 3c
       -0.05145774 -0.077317305 -0.08270137 0.020611966
0001a0 e6 f7 33 3e 1b bd 01 3e 2c 2b 2d 3e 66 88 e8 3c
       0.17575034 0.12669794 0.16911 0.028385352
0001b0 f6 4d 61 be 18 a5 2a be 95 98 37 bd b8 bb 6d 3d
       -0.22002396 -0.16664541 -0.044823248 0.05804035
0001c0 7b 74 a4 3d 19 0b c4 3d 99 05 36 3e ba 75 73 3e
       0.080300294 0.09572429 0.17775573 0.23775378
0001d0 33 2b 04 be 95 ce 3c be 81 79 0b 3d 87 79 dc be
       -0.12907104 -0.1843818 0.034051422 -0.43061468
0001e0 88 59 9e bd ef db 1d be 1c aa 56 bd 84 40 4b be
       -0.077319205 -0.1541593 -0.052408323 -0.1984883
0001f0 3d eb 69 be 23 14 0e 3e 46 4d 5f 3d e2 9a 94 bd
       -0.22843643 0.13874869 0.054517053 -0.07256104
000200 e9 44 d7 3d 19 63 2a 3d fc f4 da 3e 99 c0 a9 bd
       0.105111904 0.041598413 0.42765033 -0.08288688
000210 6a b8 01 3d 62 02 e2 bc 85 53 dc 3c 98 4c cc 3c
       0.03167001 -0.027589027 0.026895294 0.024938866
000220 8f 82 15 3e 39 3f 83 bd 18 28 c0 bd c2 da 9d bd
       0.14600585 -0.06408543 -0.09382647 -0.0770774
000230 11 e0 38 be fc a8 53 bb df 6f ac bd e8 8c 12 ba
       -0.18054225 -0.0032296767 -0.08419775 -0.00055904547
000240 29 c9 42 3c 03 df bc 3d e6 a4 5b 3c 2f a0 44 bd
       0.011888781 0.092222236 0.013406014 -0.048004325
000250 97 34 8f bc 88 87 0e 3d 73 8b ff bd f8 57 7d bc
       -0.017481131 0.03479722 -0.1247777 -0.015462868
000260 fe 97 30 3c 35 04 eb 3d 62 b1 ca bd 15 52 81 3d
       0.010778425 0.11475412 -0.09897114 0.06314484
000270 28 24 8d bd 91 cc f8 3d 8f 0f 55 3d 80 35 17 be
       -0.06891662 0.12148393 0.05201679 -0.14766502
000280 d8 d2 f1 3b 35 12 2a 3e 6c ed 96 3d 57 4d 2e 3d
       0.007379871 0.16608508 0.073695034 0.042554226
000290 7c 6e b7 3d 4b c9 91 bc 76 87 1c be b5 d9 69 be
       0.0895662 -0.01779618 -0.15286049 -0.22836955
0002a0 cb bf b0 bd 04 1a 1e 3c a1 0f 67 bc 85 6b fb bc
       -0.086303316 0.009649757 -0.014102847 -0.030690918
0002b0 b2 d2 39 bd 1c 84 3d be 60 03 37 3d 63 15 f6 3b
       -0.04536695 -0.18507427 0.044680953 0.0075098737
0002c0 44 86 5e 3d 5d 48 a7 3d 10 8f 53 bb 55 74 41 bd
       0.054327264 0.08168099 -0.0032281317 -0.047230083
0002d0 4f e6 0c bc e6 1b 13 bd ab 0b 0b be 2b ea 08 be
       -0.008599832 -0.035915278 -0.1357867 -0.13370578
0002e0 92 3c 1a 3e 49 02 16 be b1 47 eb 3c 9e 86 29 bc
       0.15062168 -0.14649309 0.028720709 -0.010347037
0002f0 97 c4 22 be 21 8e b7 bd d8 d2 d3 ba 1b 5d ae bb
       -0.15895306 -0.08962656 -0.0016160859 -0.0053211576
000300 75 ba d1 3d 01 cc 16 3d 43 5e 64 3e 1f 81 0e be
       0.10240642 0.036815647 0.22301583 -0.13916443
000310 0e cb de 3d 0a ba 98 bc 1f 06 09 bd 88 29 a9 bd
       0.10878573 -0.018643398 -0.033453103 -0.082598746
000320 76 2a 44 bd a8 c0 a7 3d 73 a8 a4 bc 24 40 f4 bc
       -0.047892056 0.08191043 -0.020099854 -0.02981574
000330 da 3b 9d bd 68 e2 ad bc 2f 8e 78 bd 3e 5b 16 3e
       -0.076774314 -0.021226123 -0.06068247 0.14683244
000340 90 62 b2 3d ef 51 b0 ba f5 c6 e0 bd 67 4d 09 39
       0.087102056 -0.0013452152 -0.10975448 0.00013094173
000350 47 5c ee bd 85 4e 62 bd 51 b8 e4 bd 1c 2d e4 3d
       -0.11638694 -0.055250663 -0.11167968 0.111414164
000360 5a 15 60 bc 0c 73 a0 bd c8 1a ff bd f8 34 57 bd
       -0.013676966 -0.078344434 -0.1245628 -0.05254075
000370 15 e4 ae bc 7c 22 42 be 05 dc 19 be 70 4b d6 bd
       -0.021348992 -0.18958467 -0.15025337 -0.10463607
000380 50 3d 08 3d 54 a8 87 3d 01 0f db 3d bb ea 57 3e
       0.033261597 0.06623903 0.10696221 0.21085636
000390 30 9b 54 bd 11 d6 6f 3e e7 54 1d be 51 68 a6 bd
       -0.05190581 0.23421504 -0.15364419 -0.081253655
0003a0 46 53 0a be 5f c3 fe 3c ff 52 70 bc ff c8 99 be
       -0.13508329 0.03109902 -0.014668225 -0.3003616
0003b0 5d f5 0e 3e 99 95 72 bd cd ed 53 3d b2 cf ba 3c
       0.13960786 -0.0592247 0.051740456 0.022804115
0003c0 78 3c 8a bd 73 5d 66 bd 02 39 26 bd ce ba 15 3d
       -0.06749815 -0.056241464 -0.04058171 0.036555104
0003d0 c8 a8 da 3d 98 57 23 3e 12 64 c0 bd 00 a2 b7 3c
       0.10676724 0.15951383 -0.09394087 0.022416115
0003e0 bc 04 36 bd 70 84 0e 3e 23 d6 25 bc cc 26 cd bc
       -0.04443811 0.13917708 -0.010121855 -0.025042914
0003f0 d7 d1 cf 3d 15 2c c2 bd da 31 35 3e 47 e0 52 bd
       0.10147446 -0.09481064 0.17694798 -0.05148342

fc.4.bias f4 [128]
000000 6f 3c 6c 3d ee 1c 31 be 0f 0d 9d bc 9b a2 f0 bd
       0.05767482 -0.17296192 -0.019171266 -0.117497645
000010 a2 35 c7 bd d0 ab 39 bd d9 0f 2f be 9c a3 cc 3c
       -0.097270265 -0.04532987 -0.17095889 0.024980359
000020 51 65 86 bc 3d be 36 be a6 b7 31 3d b6 51 e6 3b
       -0.016405733 -0.17846008 0.04338803 0.0070287837
000030 8a 6b 12 bd 12 e1 09 3d d7 42 d0 3c c6 7f f5 bd
       -0.03574709 0.03366191 0.025422497 -0.119872615
000040 5e 75 51 be cc 94 0f 3e f5 d9 f9 3d a6 93 b9 bc
       -0.20454928 0.14021605 0.12199775 -0.022653412
000050 57 ef 82 bd d1 18 fe 3d 8a 95 16 be ed 00 95 3d
       -0.06393307 0.12407077 -0.14705482 0.07275567
000060 df 7d 1e bc 01 46 d2 bd c1 a9 d5 3d 93 38 79 3d
       -0.009673565 -0.102672584 0.104327686 0.06084497
000070 c7 7d 66 3c d5 12 98 3d da 75 0b be 69 54 be bd
       0.014068074 0.07425467 -0.13619176 -0.09293444
000080 64 94 55 3c 2a 51 7b 3d df f8 84 bd ad 0c 94 3a
       0.013035867 0.0613567 -0.06492781 0.0011295282
000090 71 d1 71 bd 52 d4 9e 3d 62 b4 8e bd 83 f6 aa 3c
       -0.05903763 0.07755341 -0.06967999 0.0208695
0000a0 12 9a d5 bc 71 bd 7d bb cf ee c5 bd c0 ef e2 3d
       -0.026074443 -0.0038717652 -0.0966469 0.11080885
0000b0 21 2c 19 3e 12 6a b6 bd 70 be 2b 3e 85 4e 9a 3d
       0.1495824 -0.0890695 0.16771865 0.07534508
0000c0 e8 b5 68 bd 78 af 75 bc 21 23 3b 3d e6 1f 81 bb
       -0.056814104 -0.014995448 0.0456878 -0.00394057
0000d0 4a f9 a8 3d 3f 5e d4 bd d7 c5 0f 3e b7 18 01 be
       0.08250673 -0.103695385 0.14040314 -0.12607084
0000e0 6f 5b f1 bd 7e a8 ca 3d 87 66 85 3c 18 7d 28 be
       -0.11785018 0.098954186 0.01628424 -0.1645397
0000f0 8a 5e e9 3d c5 f1 63 bd 29 60 62 be 07 9a 70 bd
       0.11394985 -0.05565049 -0.22106995 -0.058740642
000100 5e 03 9e bd 61 4a ca bc 2d 92 03 3e 75 08 86 bd
       -0.07715486 -0.02469367 0.1284873 -0.06544582
000110 9d 06 8c bd 65 b0 17 3d 7c 30 6d bd 61 0d 4a 3d
       -0.06837199 0.037033457 -0.057907566 0.049329165
000120 5b 02 4a 3d e5 ef 58 3c 0f 86 7d 3c a2 cc 1d 3d
       0.049318653 0.013240789 0.015473857 0.03852523
000130 ba 16 81 bd 2d 46 ee bc 3b 91 69 3e 97 77 2c be
       -0.06303163 -0.029086197 0.22809307 -0.16842495
000140 a4 7b df 3c 83 e8 b2 ba de 76 6d bc f3 74 d0 bd
       0.027280636 -0.0013649616 -0.014493672 -0.10178556
000150 bb 4b 55 3c 14 16 d7 3c a0 87 1a bc 79 0a 89 3d
       0.013018544 0.026255645 -0.00943175 0.066914506
000160 05 5b e4 3a 35 b3 27 bc a6 23 a5 bd 56 4c 66 bc
       0.0017422145 -0.010235597 -0.0806344 -0.014056286
000170 b1 77 ad 3d 91 9c dd 3d 12 22 92 bd d6 fb dc 3d
       0.08470095 0.10820878 -0.07135405 0.107902214
000180 48 70 0f 3d 24 ee d5 3d d7 d9 da bd 39 50 8c bb
       0.03501919 0.10445812 -0.10686081 -0.004282024
000190 bf 6e 7c 3d 08 db 8c 3d 35 a2 d1 bc 14 68 26 3c
       0.061629053 0.068777144 -0.025590042 0.01015665
0001a0 48 61 04 be b0 e4 86 3d 1a b8 49 3d 79 b7 f9 3c
       -0.12927735 0.065865874 0.04924784 0.030482994
0001b0 5b 48 74 bd 71 cb 0e bb 1e f2 44 bd 37 56 03 3e
       -0.059639316 -0.002178874 -0.048082463 0.12825857
0001c0 ab 81 67 bc 8d c3 02 be aa 45 2b 3c a6 9d 9f ba
       -0.014130036 -0.12769909 0.010453621 -0.001217772
0001d0 aa 73 e7 bd dd 25 fc bc 20 c2 bd bc 79 95 b5 bd
       -0.11301358 -0.030779773 -0.023163855 -0.088664
0001e0 49 1e 7b 3c f6 12 a1 bc f8 fe 57 bc a4 c9 19 be
       0.015327045 -0.019662362 -0.013183348 -0.15018326
0001f0 82 cb ca 3b 71 6d d1 3d 3d 1e 09 3d 79 e4 dd 3d
       0.006188811 0.102259524 0.033476103 0.10834593

fc.6.weight f4 [4, 128]
000000 30 57 1a 3d e4 2a 5e 3d 75 d2 12 3e 19 57 0f bd
       0.037680805 0.054240122 0.14338095 -0.034995172
000010 58 09 e1 3d c2 79 9c bd 60 35 47 be e6 66 a4 3d
       0.1098811 -0.07640411 -0.19453955 0.08027439
000020 95 53 dd 3d a8 9e 2e be 39 32 96 3c 2e a0 0f be
       0.10806958 -0.1705271 0.018334495 -0.14025947
000030 59 e9 f0 bd aa 05 53 bf c6 9e 9d 3d 33 85 0e be
       -0.117632575 -0.8243052 0.07696299 -0.13917999
000040 5e a6 ae be 42 dd 2c bd 7d a3 97 3d 5d 2b 02 3e
       -0.34111303 -0.042203195 0.0740423 0.12711854
000050 4d 45 94 bd 78 45 e9 be a6 80 a9 3d a5 c6 db 3d
       -0.072397806 -0.45560813 0.08276491 0.10731248
000060 8d 2c 38 3e 21 aa ec bd 27 6d f0 3d aa 89 ba 3c
       0.17985745 -0.11555887 0.11739569 0.022770721
000070 31 ec 8e 3d 46 3d ce 3c 78 3a 2e bf 46 dd 9c be
       0.06978644 0.025175702 -0.68057966 -0.30637568
000080 2d 37 d2 3c 09 ab 09 be f5 78 bd 3d 04 01 91 3d
       0.025661075 -0.13444151 0.09251586 0.07080272
000090 66 c4 ce be 60 74 aa bd 6c 95 be 3d 4d 35 d7 3d
       -0.40384215 -0.08322978 0.09305844 0.10508213
0000a0 fb 98 c1 3c 38 b5 bc 3d e9 be 01 be 45 59 b2 3d
       0.023632517 0.09214252 -0.12670483 0.08708433
0000b0 81 8f 80 3d 2d df a3 be 99 6a ba bd 82 7a ca 3d
       0.06277371 -0.32006207 -0.09102363 0.09886648
0000c0 9c 95 96 be b1 85 b3 be 7d 26 a6 3d cc 09 91 3c
       -0.29411018 -0.35062936 0.0811281 0.017704867
0000d0 df 2e c4 3d a7 a2 dd 3d a7 ae 89 3d f7 cc be 3d
       0.095792525 0.10822039 0.067227654 0.09316438
0000e0 66 9b 35 3d 0a 8f 10 3e ec 58 2b 3d 58 54 04 3d
       0.044337653 0.14117065 0.04183285 0.032307
0000f0 15 ba 78 3d 8e 6f 16 bf af 85 15 3d c6 39 8c 3d
       0.060724337 -0.5876397 0.036504444 0.06846957
000100 19 ec 83 bd df 3a 07 3e 7a 40 5b 3c 42 44 34 3d
       -0.064415164 0.13206051 0.013382072 0.04401041
000110 2a 63 0b 3e 00 55 44 be ab 42 fa be fa 79 c5 be
       0.13612047 -0.1917305 -0.4887899 -0.38569623
000120 75 29 c4 3c 65 76 94 be 6c 0f d6 3d 98 16 22 bf
       0.02394555 -0.28996578 0.1045216 -0.63315725
000130 fe cc 58 be 77 ea bb bd a3 34 f0 3d 4f f3 96 bc
       -0.21171948 -0.0917558 0.1172879 -0.018426565
000140 1e 74 b1 be 44 a8 08 be b3 54 c3 3d a6 e5 0b be
       -0.34658903 -0.13345438 0.095376395 -0.13661823
000150 05 b3 48 be f7 1c 3c 3d 8a 10 08 3e 41 2e 96 3d
       -0.1959954 0.04592606 0.13287559 0.07333041
000160 b7 8e 2e 3d 65 b5 ef 3c 3b f1 08 bf 02 da 11 be
       0.042616572 0.0292613 -0.5349309 -0.1424332
000170 29 84 e9 3d f2 60 17 be e9 af b9 3d f7 7c 36 bf
       0.11402161 -0.14783075 0.09066755 -0.7128443
000180 7c 23 c9 3d 05 fa 56 3e ac 5a 8f be 28 4f e1 3b
       0.09821221 0.20993812 -0.27998865 0.0068758912
000190 99 31 a9 3c 3f 6d ea 3d d5 ac 2a bc 85 3b 04 bf
       0.020653533 0.11446618 -0.010417183 -0.5165332
0001a0 c7 83 97 3d 11 d6 54 3d 8a 0c e2 3d 91 c1 32 3d
       0.073981814 0.051961962 0.11037548 0.04364163
0001b0 ce 02 51 3e 7c 09 e8 3d 73 fb e1 3d 03 d8 c6 3d
       0.20411226 0.11329934 0.11034288 0.0970917
0001c0 fa ef b7 3d c7 92 8f be 2f f2 8a be 7b cb b3 3d
       0.08981319 -0.2804167 -0.27137896 0.08779045
0001d0 12 ea 8b 3c cf 86 c3 3d e8 62 8e 3c 56 4f d2 bd
       0.017079387 0.09547197 0.017381147 -0.102690384
0001e0 76 f7 13 be 54 c8 bb bc a6 d8 b8 be 61 fc ac bc
       -0.14449868 -0.022922672 -0.3610279 -0.021116437
0001f0 9e 1c 2c bf 1b 8a fc 3d 9c d2 1f bd fd dc c8 bd
       -0.67231166 0.12331029 -0.039019212 -0.09807775
000200 a4 04 ac 3d 88 e5 10 3d ff 54 08 3e be 7f 9a bd
       0.08399323 0.035375148 0.13313673 -0.07543896
000210 76 67 d8 3c d6 70 07 3e 43 75 58 3b a1 df 12 bf
       0.026416522 0.13226637 0.0033028878 -0.5737248
000220 c9 1c bb 3d 5c c7 21 3d c2 2d d8 bd 67 ba af bc
       0.0913635 0.039496765 -0.105556026 -0.021451188
000230 24 a7 da 3d d0 9d 44 3d a7 cc f1 be af dd 91 3d
       0.10676411 0.048002064 -0.4722645 0.07122361
000240 da ee fc 3b b6 ff 5b be 93 f4 25 be 80 fe 20 3e
       0.007718903 -0.21484265 -0.16206579 0.15722084
000250 d7 e6 54 bd 7b a3 fa 3d 25 d6 08 bf 8f 4d 5f be
       -0.05197796 0.12238213 -0.5345176 -0.2180693
000260 76 62 57 be 91 a9 e0 be 62 3b 88 bd 4b f1 c3 bd
       -0.21033654 -0.4387937 -0.066519514 -0.09567507
000270 ef e6 5e be 3c 2e aa be 5f ae 51 3d e5 98 62 bc
       -0.21767782 -0.332384 0.051191684 -0.013830398
000280 2a 8f f0 be 3e b1 17 3d 0e d1 80 be c8 6c d9 bc
       -0.46984226 0.037034266 -0.25159496 -0.026541129
000290 eb 82 f9 3b df 75 41 be 63 d7 06 bf 5e f1 70 3c
       0.0076144836 -0.1889262 -0.52672404 0.014705984
0002a0 b5 44 82 3d 92 1f 71 3b 4c 1a a5 3d b8 51 0c bf
       0.06360761 0.00367925 0.08061656 -0.5481219
0002b0 ab ac a2 3c 7f 13 21 3e ef 85 c1 be 85 45 08 bf
       0.019857725 0.15730093 -0.37797496 -0.5323108
0002c0 e1 26 d8 bb 10 f4 6c bd 36 98 e3 3d 0b 74 db 3c
       -0.0065964316 -0.057849944 0.11113016 0.026788732
0002d0 91 be 3f 3d aa da 19 bd d4 1a a1 be 39 28 db 3d
       0.046812598 -0.03756205 -0.3146578 0.10701031
0002e0 7d b9 da 3d c9 5e 17 be bc 26 23 be 2d 06 66 bd
       0.1067991 -0.14782251 -0.15932745 -0.056158233
0002f0 e4 fb 5b 3d d8 8a 17 3e 16 9a d9 3e ee 69 b7 3e
       0.05370702 0.14799058 0.4250037 0.35823005
000300 5b 57 0c 3e 22 55 f6 3d b8 35 20 3e a6 e3 d9 3d
       0.13705198 0.120279565 0.15645492 0.106391236
000310 e3 14 37 be 76 e4 c6 3d 52 6f 06 3e 6f dd 18 3d
       -0.17879061 0.09711544 0.13128403 0.03732055
000320 47 f3 90 be 1d b8 9d bc f5 eb 3a be fd 18 05 3e
       -0.28310606 -0.019252831 -0.18254073 0.12997814
000330 01 25 45 3d 21 af 9a 3d e7 d7 be 3d 97 32 ab be
       0.048130993 0.075529344 0.09318524 -0.33437034
000340 5d 5d 96 bd 13 fd d2 bd 6a a9 a9 3d dc 9d c5 bd
       -0.073420264 -0.10302176 0.08284266 -0.0964925
000350 61 b6 46 3d 8e 5d da 3d 50 e9 3b bd 73 2c c8 3d
       0.048513774 0.106623754 -0.0458768 0.09774103
000360 24 49 c3 3d 00 1c 79 be 8d 42 e8 3d 02 bd 94 3e
       0.09535435 -0.24327087 0.113408186 0.29050452
000370 51 80 8d 3d d0 19 83 bd 49 33 bb 3d 0a 6a 05 3f
       0.0690924 -0.06401408 0.09140641 0.5211493
000380 91 ea 12 3e dd ce 05 be c7 c5 b5 bd 76 51 3b bf
       0.14347292 -0.13067193 -0.08875614 -0.73171175
000390 c7 fd 8c 3e 22 db 49 bd d8 f2 83 3b 9a 31 6f 3d
       0.27537367 -0.049281247 0.004026752 0.058396913
0003a0 9b 50 29 3d 07 2a 02 3c 35 e9 35 3d 78 42 dc be
       0.041336637 0.00794459 0.044411857 -0.43019462
0003b0 7b fb 5e 3e c9 78 83 3d 0d b2 86 bd f2 11 48 3d
       0.2177562 0.06419522 -0.06576929 0.04884524
0003c0 a2 6b fc 3d 57 2e 81 3d 23 2a 08 3e 72 06 6d 3d
       0.12325217 0.06307667 0.13297324 0.057867475
0003d0 53 b2 c2 bb fd b1 5f be 76 4f 20 3c 19 9b bd 3e
       -0.005941668 -0.21845241 0.00978457 0.37032393
0003e0 40 b8 7d 3c 6c a7 92 bc 89 09 a6 be 46 fc 6b 3c
       0.015485823 -0.017902099 -0.3242915 0.014403408
0003f0 91 05 26 3b 46 17 93 be d7 14 9a 3d 51 e5 8c 3d
       0.0025332908 -0.28728694 0.07523506 0.06879676

fc.6.bias f4 [4]
000000 07 fb 96 3d 3c ff 95 3c df 81 9e bd 2b b1 ac bd
       0.073720984 0.018310182 -0.07739615 -0.084322296
