model/lv2_bc_model_9.3.pth (torch, 244972 bytes, 8 tensors)

fc.0.weight f4 [128, 209]
000000 2c 45 26 3f 5f 7b 9c 3e b7 ed 6f bc 8f d0 3b 3d
       0.649493 0.30562875 -0.014644078 0.045853194
000010 f3 6b 1b be 3f 5c ae 3e 69 e6 51 be 87 c4 a7 3d
       -0.15177898 0.34054753 -0.20498051 0.081917815
000020 bf 9d 94 be 2f e8 14 3d 06 c7 7a bc 91 b5 3a 3c
       -0.290266 0.03635424 -0.01530624 0.011395828
000030 0d 0e ef 3b bd 98 08 3c d7 0a 3a bc b1 59 c2 3c
       0.007295376 0.008337197 -0.0113551235 0.023724409
000040 08 dd 1a 3d 04 d8 07 bd 91 83 38 3c c4 74 ea bc
       0.037808448 -0.033164993 0.011261837 -0.028620131
000050 3b 14 ea 3c f8 1f 6d 3d 57 bc 52 bd 68 e3 85 bd
       0.0285741 0.057891816 -0.051449146 -0.06537515
000060 94 f6 d5 bc 39 63 d9 bc da 0d 37 3d 3c c2 12 3d
       -0.026118554 -0.02653657 0.044690944 0.035829768
000070 0e 8d 5e bd 5f d4 b8 3c cc ac 2b bd 6e 1a 15 3d
       -0.05433374 0.022562204 -0.04191284 0.03640216
000080 44 c6 45 3d 08 4e 1d 3d 93 ac f9 3c f4 7a 28 3d
       0.048284784 0.038404495 0.030477798 0.041132882
000090 cb 2f 8a 3c 64 f3 55 bd 72 76 ce 3b ab 1c c4 bc
       0.016868493 -0.05223407 0.006300741 -0.023939451
0000a0 a3 52 57 3d 1f 6a 13 bc b0 c7 31 3d d5 77 23 3d
       0.052569043 -0.008997469 0.043403327 0.039909203
0000b0 12 c4 bc bb 12 47 eb 3b 7d 1f c4 bc e2 c5 4c bd
       -0.005760678 0.007180103 -0.023940796 -0.049993403
0000c0 02 b9 25 bd f6 15 24 bd c3 e9 c4 3c 2f 79 0a 3b
       -0.04045964 -0.040060006 0.024037248 0.002112936
0000d0 d5 b5 1d 3b 99 68 59 3d 55 07 9e 3b 86 9d a3 3a
       0.002406468 0.053078268 0.0048226514 0.0012482859
0000e0 5b c1 9e 3c 31 70 82 bd 17 c3 8c bd fe b5 38 bd
       0.019379308 -0.06369055 -0.06873148 -0.045095436
0000f0 a1 23 93 bd cd e7 0c 3b f4 be b5 3b df 21 ce 3d
       -0.0718453 0.0021500469 0.005546445 0.10065054
000100 a5 50 49 3c 10 3a ba bb a3 25 b0 3c 0f cf 0d bd
       0.012287294 -0.005683191 0.021502322 -0.034621295
000110 81 db 88 3c 35 f1 26 bb 45 b5 82 3a 1b 39 0b bc
       0.01670623 -0.002547336 0.0009972235 -0.008497502
000120 95 19 3f bd 15 b1 1e 3d a7 bb 60 3c 15 ff 54 bc
       -0.046655256 0.038743097 0.013716615 -0.013000269
000130 33 db 1e bd bc c2 8d bd bf 05 51 3c 5e 20 4e bd
       -0.038783263 -0.06921908 0.012757718 -0.050323837
000140 39 a9 4d bc c7 10 39 3d 38 af 6f bd 88 1a 2d bd
       -0.012552553 0.045182016 -0.05851671 -0.04226163
000150 97 38 af 3a 1e 53 4b bd ed 6f 95 3c 08 e8 09 bc
       0.0013368306 -0.049639814 0.018241847 -0.008417137
000160 5d 16 23 bb f3 5e 52 bd b9 fd c4 3c fa cd 67 bd
       -0.0024885156 -0.051360082 0.024046766 -0.05659292
000170 50 8b 32 3c cd de 19 bd 4c 65 08 bd 0b c3 1d bd
       0.0108974725 -0.037565995 -0.03329973 -0.038516086
000180 65 a3 a2 bc 07 5d a1 bc eb 5f c4 3c 05 06 28 3d
       -0.019853303 -0.01969768 0.023971519 0.041021366
000190 ce 8a 23 3d 18 98 8d 3d 69 11 f2 3c d2 ea 6a bd
       0.039927296 0.06913775 0.029549317 -0.05735285
0001a0 d8 6a 3a bd 65 89 c6 3c 73 84 50 bc 42 ef 10 3d
       -0.04551205 0.024235437 -0.012726891 0.035384424
0001b0 39 d4 47 bc fe 75 6e 3d 15 c8 72 bd b0 75 7a 3d
       -0.012196594 0.058217995 -0.059272844 0.06114739
0001c0 cf 0b fa 3c a2 b4 7e 3d 18 c1 57 bd 16 de 1c bd
       0.030523209 0.062183984 -0.052674383 -0.038297735
0001d0 75 f6 c8 3c 6b d9 c7 3c 6c 52 df bc 30 fa 1f bd
       0.024531582 0.024395665 -0.027260982 -0.039056957
0001e0 fd bb 86 3d 64 0d 81 bd 98 f1 ab 3c 01 90 3f bd
       0.06578825 -0.06301382 0.020989224 -0.046768192
0001f0 63 63 42 3d af d2 00 3c 3e 22 1a 3d da a2 6f bd
       0.047458064 0.007862731 0.037630312 -0.058504917
000200 6d 18 2a bd 98 44 60 3d 92 c5 4c bd c8 ed c1 3c
       -0.0415272 0.054752916 -0.049993105 0.023672953
000210 79 b5 28 3d ce 69 00 3d 3f e9 1c bc c7 e2 5a bd
       0.04118869 0.031350903 -0.009577095 -0.053438928
000220 1f 0c a9 3c f0 8f a5 3d 72 3b 14 3d a6 fb 59 ba
       0.020635663 0.080840945 0.036189504 -0.00083153916
000230 95 6c 20 bd 0d 76 4f 3d 89 00 cd bc 3f 58 08 bc
       -0.039166052 0.05064969 -0.02502467 -0.008321821
000240 6d d3 18 3d bf 0b 08 bd 9b 67 d7 3c f4 79 67 bd
       0.037311006 -0.033214327 0.02629452 -0.056512788
000250 7f 93 be 3c f3 05 12 bd 39 95 14 bd 84 34 04 bd
       0.023263691 -0.035650205 -0.036275122 -0.032276645
000260 23 0b 3b bc bb 54 00 bd 17 e9 11 3b 22 c8 0f 3d
       -0.011416229 -0.031330805 0.0022264177 0.03510297
000270 ff bf e5 bc 8c 57 56 3c f5 33 03 bd 51 55 22 bc
       -0.028045652 0.013082396 -0.032031972 -0.009908036
000280 9c b9 19 bd 85 32 00 bd ed b4 66 bd 24 2c e4 38
       -0.037530527 -0.03129818 -0.056324888 0.00010880109
000290 95 83 a6 3c 01 dd 48 bd 2e 8c f4 bb 82 7d 2a 3d
       0.020326415 -0.04903889 -0.007463 0.0416236
0002a0 df bc 67 3b f3 1c 35 3c ae 08 50 3d 2e ed 52 3d
       0.0035360379 0.011054265 0.050789528 0.051495723
0002b0 75 00 d4 bc a8 04 1b 3d 6f 12 b9 bc 7b 28 d3 bc
       -0.025879124 0.037846237 -0.022591798 -0.025776139
0002c0 14 09 79 bd 78 46 31 bd e5 19 a8 3c 54 5c a3 ba
       -0.060799673 -0.043280095 0.02052016 -0.0012463429
0002d0 d3 e1 76 3c 75 97 80 3c 6c 4e 8f be 98 e9 89 bf
       0.015068489 0.01569722 -0.2798952 -1.0774412
0002e0 26 5a 4a 3e 09 b2 10 bf fc 2d 60 be 83 52 ca 3e
       0.19760951 -0.5652166 -0.21892542 0.39516076
0002f0 3d 52 c0 3e 8f 6f 74 3e f7 3a ff be 6f f0 18 bf
       0.37562743 0.23870681 -0.49849674 -0.5974187
000300 87 f0 b1 3f e9 20 89 3c e2 06 37 3d 2c f3 cd bd
       1.3901528 0.016739326 0.0446843 -0.10056147
000310 df f8 56 3d b2 bb 72 3d b6 08 43 bd 1b 99 11 bd
       0.052483436 0.05926103 -0.04761573 -0.035546403
000320 d1 f8 df ba 46 5f e7 bd ea c3 27 3d 71 8f 72 bc
       -0.0017087703 -0.11297469 0.040958323 -0.014804707
000330 07 b4 55 bb 50 c3 c5 bd 3c d8 33 3d ac d6 78 bd
       -0.0032608525 -0.096563935 0.04390739 -0.060751602
000340 5b fc a4 3c 50 42 aa 3e 8e a1 0c 3f c0 f3 ac bc
       0.020139864 0.33253717 0.5493401 -0.021112323
000350 6d 6d ac 3d 43 35 7e 3d 00 b7 ca 3d 23 8b dd bd
       0.08419309 0.062062513 0.09898186 -0.10817554
000360 d6 55 c3 3d a2 95 c4 bd e6 e1 ce 3d 4f 33 78 3d
       0.09537856 -0.09598853 0.101016805 0.060595807
000370 85 9a 5f 3d 09 59 79 3d fc 94 83 bd d0 cb 80 3d
       0.05459072 0.060875926 -0.06424901 0.06288874
000380 01 47 2d 3d ab 4e 53 bc 07 04 ac bc 1f 39 3a 3d
       0.042304043 -0.012897174 -0.020998014 0.04546463
000390 0c 30 22 bd 80 a4 56 bc 95 6b c5 3c b5 34 04 3d
       -0.039596602 -0.013100743 0.02409915 0.032276828
0003a0 d4 29 24 3c a0 18 7c b9 b7 92 22 3d 68 5f ad 3b
       0.010019738 -0.00024041766 0.0396907 0.0052909143
0003b0 e1 5e 3e 3d cb 98 3b bd 08 fc 9b bc ab ec 72 bd
       0.046477202 -0.04580001 -0.019041076 -0.059307735
0003c0 53 0c ab bc 68 04 3e bd 3b c9 38 bd 6f ce 22 bd
       -0.0208799 -0.04639092 -0.045113783 -0.03974765
0003d0 84 65 01 3d 18 0c 4e 3c 49 09 96 bc 93 25 2b 3d
       0.031590953 0.012576126 -0.018314974 0.04178388
0003e0 eb d7 e7 3c c9 df 80 3c a9 68 28 3d ec b3 6e 3c
       0.0283012 0.01573171 0.041115437 0.014569264
0003f0 08 aa 8c bb 9f db 1e bd 81 db 9d 3d 25 9e 20 3d
       -0.0042927302 -0.038783666 0.07707883 0.03921332

fc.0.bias f4 [128]
000000 3f 47 6e bd 05 30 8c bc 68 f5 33 3d 39 6f db bc
       -0.058173414 -0.017112741 0.04393521 -0.026786434
000010 76 58 77 bd 0e d0 81 bd 2b 10 c7 bc db 4b 8c bd
       -0.060387097 -0.063385114 -0.024299702 -0.06850406
000020 09 ae 49 3a b6 ad 9e 3c 82 eb d4 3c d6 64 38 bd
       0.0007693475 0.019369941 0.025991205 -0.04501804
000030 dc c6 b2 3c 1d 95 5f 3d a5 53 5b 3b 54 de c7 3c
       0.02182334 0.054585565 0.0033466604 0.024398006
000040 45 81 81 3d 11 29 a3 bd bb 58 88 bc 02 7b 0d bd
       0.06323484 -0.07966817 -0.016643872 -0.034541138
000050 c8 71 a4 bb d6 7b 68 3d 0e 00 62 3c 70 48 38 bd
       -0.0050184466 0.056758724 0.013793958 -0.044990957
000060 69 32 7c bd 44 98 02 3a 69 11 d5 bc 0f 3c d3 bc
       -0.061571512 0.0004981796 -0.026009278 -0.025785474
000070 89 09 24 3c a0 a4 27 bd 6d 1d 5b bd 35 34 90 bc
       0.010012039 -0.040928483 -0.05349486 -0.01760302
000080 84 ea 3e 3d da 42 1c bd 6e 0e 89 bd 1c 2c 84 bd
       0.04661037 -0.038149692 -0.06692205 -0.06453726
000090 ec 16 25 bc 76 64 30 bd f3 8b 23 3d 0f 9d 37 bd
       -0.010076266 -0.043064557 0.039928388 -0.044827517
0000a0 dc 50 cc 3c 39 bf f8 bc 3f 0f 1d bd d1 9c ba bc
       0.0249409 -0.03036462 -0.038344618 -0.022779854
0000b0 aa 03 2a 3d a0 d2 b5 3c a4 d4 db bc 05 9a 45 3d
       0.0415074 0.02219516 -0.026834793 0.048242588
0000c0 24 59 43 bd 67 50 63 3d 16 a8 a4 bd ed c4 57 3d
       -0.047692433 0.0554966 -0.08039872 0.052678037
0000d0 c9 3a eb 3c 67 27 ff bc 97 0b f9 bd bb d3 14 3c
       0.028714554 -0.031146718 -0.12160414 0.009083684
0000e0 07 8d 3c bd 25 84 84 bd 34 a0 e6 3c 93 42 81 bd
       -0.04603293 -0.06470517 0.028152563 -0.06311526
0000f0 fe 3c 87 bd 7b 7b 18 3d 34 ce c7 3c 70 9e a1 3c
       -0.0660343 0.037227135 0.024390317 0.01972887
000100 7e 13 24 bd 8b 6f 82 3c 2e ee dd 3c 18 1c f5 3b
       -0.04005765 0.015922328 0.027091112 0.0074801557
000110 c6 e4 c1 bd 49 ca 46 bd 6e ad 7d bd 85 01 3a bd
       -0.09467463 -0.048532758 -0.061932974 -0.045411605
000120 08 17 89 bc a7 df f0 bc 9e c5 9a 3d b6 7a 57 bd
       -0.016734615 -0.02940352 0.07557224 -0.05260726
000130 80 3c 8e 3d b1 2f bc 3c be 49 97 bd 85 9c f7 3c
       0.06945133 0.02297196 -0.07387112 0.030226002
000140 fd 3e 99 3c 34 ba c0 3b d8 3a 7f bd 0a 6e 38 bd
       0.018706793 0.005881572 -0.062311977 -0.045026816
000150 a3 ff de bc 9e 94 a9 bd bd a5 13 3d c5 9e af 3c
       -0.027221506 -0.082802996 0.036046732 0.021438012
000160 ce 27 30 3d df 03 05 3d f0 d7 d8 3b d4 45 21 bd
       0.04300671 0.032474395 0.0066175386 -0.039373234
000170 3b 42 7f 3d d7 14 ee 3c 34 67 1a bc ab 60 db bc
       0.06231902 0.029062672 -0.00942402 -0.026779493
000180 88 9d af bd 79 ad 6e bd 9f 6b 95 bc 1f cc c5 bd
       -0.085749686 -0.058270905 -0.018239794 -0.09658074
000190 a0 fd 1a bc 9b 42 8d bd 07 9e 0c bd ec 9b d4 3c
       -0.009459883 -0.068974696 -0.034330394 0.025953256
0001a0 2b 26 40 bc 19 4d ac 3d 18 15 a0 bd 87 bd b6 bd
       -0.01172785 0.08413143 -0.07816523 -0.08922868
0001b0 2a de dc bc 51 5a 3b 3d 79 6e 9b 3b b4 5a 1e bd
       -0.026961405 0.04574043 0.004743394 -0.03866072
0001c0 55 5b 00 bc 51 1c 18 bd 4a 8f 9b bd 02 b0 23 3d
       -0.007834275 -0.03713638 -0.075956896 0.039962776
0001d0 ec b6 88 bd 4a 69 07 3c b0 8e dd 3c 38 5a 0b bd
       -0.066755146 0.008264849 0.027045578 -0.034021586
0001e0 ae 4b 6e bd b8 94 a5 bd 4b fa c6 3c 04 dc 60 bd
       -0.058177643 -0.080850065 0.02428927 -0.054897323
0001f0 85 4c b5 bd 52 77 b6 3c e9 2c ab bb f0 8b 37 3d
       -0.088524856 0.022273693 -0.0052238596 0.04481119

fc.2.weight f4 [128, 128]
000000 8d f2 41 be 9a 4b 31 be dd 24 a1 3c d7 f8 9c bd
       -0.18940182 -0.17313996 0.019670898 -0.0766465
000010 91 5d 7e 3e ea 79 26 3e 86 a2 0d be e6 c6 b5 bd
       0.2484038 0.16257444 -0.13831529 -0.088758275
000020 20 6a 5f 3d 04 0e 11 3e d6 b9 5d be 68 15 6e 3c
       0.054544568 0.14165503 -0.21652922 0.014531471
000030 0d 89 83 bd 38 c5 1c 3c 61 79 a4 bd 48 1c ff bd
       -0.06422625 0.009568505 -0.08030964 -0.12456566
000040 3f 99 2a be 3b 18 e1 bd 99 6c 60 bd 97 66 3a be
       -0.16660021 -0.1099095 -0.054791067 -0.18203197
000050 bb 25 c4 ba 57 bf 19 be e8 9c 59 be 7b 74 0e 3d
       -0.0014964858 -0.15014397 -0.21251261 0.034779053
000060 67 e7 04 3e f9 44 36 3c 8e 69 7d 3d 9c 52 20 bd
       0.12978898 0.011124843 0.061868243 -0.039141282
000070 1a 48 20 3d ff b5 65 3d 43 bf bf 3c dc 22 0a 3e
       0.03913126 0.056081768 0.02340663 0.1348986
000080 20 25 38 bd 11 b7 f3 bc 2d bb 94 3c 4c 87 31 bd
       -0.04495728 -0.029750379 0.018155659 -0.04334192
000090 7a 8f a5 bd 27 0c 87 bd a9 0d 05 be cf bd 2b be
       -0.080840066 -0.06594115 -0.12993492 -0.16771625
0000a0 b2 64 a0 bb 45 6c 87 bd de 65 00 be 28 eb 8f bd
       -0.0048948163 -0.06612448 -0.12538859 -0.07027274
0000b0 71 43 95 bd c3 6c 00 3e 95 6f b9 3d 67 3b 86 bd
       -0.07288254 0.1254149 0.09054486 -0.06554299
0000c0 7b cc 91 bd 69 e9 47 3d f3 be 58 be c7 79 53 bc
       -0.0711908 0.04880658 -0.21166591 -0.012907452
0000d0 43 3f 7e 3c 25 92 65 3d 0b b3 82 bd 8b 3a 75 bd
       0.015518012 0.056047577 -0.06381806 -0.059870284
0000e0 d6 65 3b be aa 03 f5 bc 04 47 2f bd 64 5c 38 3e
       -0.18300566 -0.029908974 -0.042792335 0.18003994
0000f0 ea 37 b2 bd 39 bb 87 bd 5b b4 10 be 8f a7 ed bd
       -0.08702071 -0.06627507 -0.141313 -0.11604225
000100 9d 7e 60 3c b3 02 39 3d 59 65 8c 3d 3b 80 03 bd
       0.013702062 0.04516859 0.06855268 -0.032104712
000110 03 23 40 3d 74 86 9a bd ab 8a 35 be ba c6 21 3d
       0.04690839 -0.07545176 -0.17728679 0.03949616
000120 7c ca 32 3d 4a 8a 6b 3d dd 38 1e 3e a0 d9 e7 bb
       0.043650135 0.05750493 0.15451379 -0.0070755035
000130 34 68 69 3d 02 43 7e bc f4 86 06 3d b3 73 79 3d
       0.05698414 -0.015518906 0.032843545 0.060901355
000140 72 ee a8 bc 07 c3 bc bb 10 a7 dd bc 50 df 17 3d
       -0.020621512 -0.0057605538 -0.0270572 0.0370782
000150 f4 a8 17 3e 82 88 95 bc 95 da fb 3d 74 9e e0 3c
       0.14810544 -0.018253569 0.122975506 0.027419306
000160 08 3c 35 3d 6a 86 f0 3c 7b 53 49 be c6 f4 c2 bd
       0.044246703 0.029360969 -0.19660752 -0.09519343
000170 6c f2 b6 3d 76 59 7a 3c a9 17 21 3e 12 22 1c be
       0.08932957 0.015280118 0.15731682 -0.15247372
000180 4e f5 1c 3c ca 46 ee 3c 13 14 a5 bd ba e8 f8 bc
       0.00957997 0.02908649 -0.080604695 -0.03038441
000190 bf b1 1e bd ef ea f5 3d 4c 38 03 be de ce e9 3d
       -0.03874373 0.12007701 -0.12814444 0.1141641
0001a0 d6 ad 2e 3d e1 1a c0 3d 5e cd d7 3c bc bf 55 be
       0.04264625 0.09380127 0.026343044 -0.20873922
0001b0 7c a7 d1 3d 15 af 9d ba b4 20 24 3e c1 99 81 3d
       0.10237023 -0.0012030328 0.160281 0.06328154
0001c0 d9 fe 06 3e 42 50 84 bd fa 98 a0 bd 1c c3 9f 3d
       0.13183154 -0.064606205 -0.07841678 0.07800886
0001d0 04 39 8a bd 1d 07 3f bd aa d4 89 bc 15 07 80 be
       -0.06749156 -0.046637643 -0.016825039 -0.25005403
0001e0 78 0f 69 bd ef 8f 7c bb d3 40 27 3e 4f 13 0b be
       -0.056899518 -0.003853794 0.16333322 -0.13581584
0001f0 92 5c 08 3d 3e 58 94 b9 9c cb 4f 3d ff cf be bd
       0.033291407 -0.00028294505 0.050731286 -0.09317016
000200 e3 a8 df bd c1 b4 91 be ab 28 99 3d 83 8f 90 be
       -0.109208845 -0.28458217 0.0747846 -0.2823449
000210 42 63 f8 3d e9 62 c1 bc b6 26 91 3d ca 43 b3 bc
       0.12128307 -0.023606734 0.07087462 -0.02188291
000220 60 34 1a be 4f 49 1d bc c8 78 c3 bc 24 08 ab bd
       -0.15059042 -0.009599998 -0.023861304 -0.08351162
000230 2c d6 25 be 18 28 0f be 85 c2 11 3d d5 94 bb bd
       -0.16194981 -0.13980138 0.0355859 -0.09159247
000240 79 79 ed bd 82 42 c3 bd f0 8b 30 3d 33 e7 9c bd
       -0.11595435 -0.0953417 0.043102205 -0.07661285
000250 c1 3e 15 3d 6d 0d a1 3d 31 db b7 3c 12 4a ce bd
       0.0364368 0.07863889 0.022443386 -0.100727215
000260 dd 21 19 3e c3 96 02 bd cd 66 53 3e ad 99 08 bd
       0.14954324 -0.03188206 0.20644684 -0.03334968
000270 66 5d 5e bd 08 6c b5 bd fd 7e 47 bd 96 76 26 3c
       -0.05428829 -0.08858496 -0.04870509 0.010160109
000280 c1 8b 77 3e ca fe ad 3d ba 15 f8 bc 5c 88 2f bd
       0.24174406 0.08495863 -0.030283798 -0.04285465
000290 9d 5e 69 be 2d c0 b0 3a 68 c5 1c bd 04 67 c7 3b
       -0.22789998 0.0013485007 -0.0382742 0.0060852785
0002a0 7c 07 8c 3d c7 56 b0 bc 4c 7e 32 be fd cb 72 bc
       0.06837365 -0.021525754 -0.17430991 -0.014819142
0002b0 c2 b7 ed bc 6e 7f eb 3d 6d 73 bc 3d 80 13 21 3d
       -0.029018287 0.11498915 0.09201703 0.039325237
0002c0 70 ad bd bd 79 01 8d bd b9 9b 09 be 4f 36 71 bd
       -0.09261596 -0.068850465 -0.1343831 -0.058889683
0002d0 45 0e 0b 3d 71 78 d1 bd 68 62 7b bd d5 23 72 3d
       0.033949155 -0.102280505 -0.061373144 0.059116203
0002e0 9e 97 1e be ce de 16 bd 01 91 b1 bd 0a df 4c 3d
       -0.15487525 -0.036833577 -0.086702354 0.050017394
0002f0 34 0d 89 bd 1b fe 41 bd 84 08 9f bd 1b 72 01 be
       -0.066919714 -0.047361474 -0.07765296 -0.12641184
000300 29 df 81 bd 98 f0 84 3b d3 02 5e 3d 58 8f 48 3d
       -0.063413925 0.0040570013 0.054201912 0.04896483
000310 12 e1 35 bc 89 5e c3 bd 38 f4 1c be 03 0c 2f 3e
       -0.011101024 -0.095395155 -0.15327537 0.17094426
000320 07 ac cb 3d fa 9a d9 3d 68 e8 07 bd 25 b1 6a 3c
       0.09944921 0.106252626 -0.033180624 0.014324461
000330 ba d5 2f bb 60 21 a8 bc f4 6f 9a bd ae 4d 8e 3c
       -0.0026830272 -0.020523727 -0.075408846 0.017371025
000340 d9 c2 09 3d 1a 92 31 3c 66 32 88 3b f0 a0 83 bc
       0.033633087 0.010838056 0.0041563986 -0.016067952
000350 8f 3b ab 3d f8 05 ea 3c b2 45 07 3c aa 46 69 3d
       0.08360969 0.0285673 0.008256363 0.056952156
000360 ab 17 d6 3d 32 f8 ca 3c fd 5a b4 bd c5 3c 79 3b
       0.10453733 0.024776552 -0.08806417 0.0038030606
000370 44 c4 3e 3d b8 e4 c3 bd db d5 7e 3d e4 13 3e bd
       0.046573892 -0.09565109 0.062215667 -0.046405688
000380 90 2d f5 bc 2f fa cc 3c f9 a7 a0 3d 51 f8 c8 bd
       -0.029928952 0.02502164 0.07844538 -0.098129876
000390 1f e5 1c bc 48 34 0b bd 1c e3 e2 3d 09 f7 2d 3e
       -0.009576111 -0.033985406 0.11078474 0.16988768
0003a0 91 27 6a bc b5 41 a7 be e3 c3 55 bc b6 32 50 be
       -0.01429166 -0.32667318 -0.013047191 -0.20331845
0003b0 7c 2b 61 bd 33 67 86 3c 43 2b 33 3e ba af 6d 3d
       -0.05497311 0.016406631 0.17496972 0.058028914
0003c0 89 44 80 be ba 77 9e 3b 27 79 82 bd db 40 bd 3d
       -0.25052288 0.00483605 -0.06370764 0.09240886
0003d0 e9 fc a3 bd 3e 24 0f 3e 1d 35 c8 3c ca 3f 0b 3c
       -0.08007223 0.13978669 0.024439389 0.008499095
0003e0 b5 13 15 bd b9 88 2c 3d a5 1b 0c 3e da 6e c5 bd
       -0.036395747 0.042122576 0.1368242 -0.09640284
0003f0 e9 c1 f2 3c 46 78 3d 3c 36 f2 94 bd fd 10 4c 3d
       0.02963348 0.01156432 -0.072727606 0.04982089

fc.2.bias f4 [128]
000000 f2 ab 5c 3c 5f 6e 0d bd 5b 29 8e bc 4c f0 db bd
       0.013468729 -0.034529086 -0.017353704 -0.10739192
000010 93 69 b4 bd 5e e1 75 bc 1a dd 91 3d 6e 7b 83 bd
       -0.08809199 -0.015007345 0.0712225 -0.06420027
000020 ca 44 82 3c 0c 3c 4c bc 08 a7 66 bd 60 da cd bd
       0.015901942 -0.012465488 -0.056311637 -0.10051417
000030 c9 b5 da bd 4f 05 02 bd 74 86 eb 3d fd e7 32 bd
       -0.10679204 -0.031743344 0.11500254 -0.043678273
000040 b0 e5 ca 3c f2 18 3b ba 23 c3 ca bc 58 e0 8f 3c
       0.024767727 -0.0007137201 -0.024751252 0.01756303
000050 d3 60 a5 3c 80 4e 3d be e5 ba 36 3b 56 a1 12 be
       0.020187771 -0.18486977 0.0027882394 -0.14319357
000060 2b ea fe bd 6b 4f ba bd 7a 39 19 be 98 74 f7 3d
       -0.12447008 -0.09097179 -0.14963332 0.12082785
000070 35 a2 80 3c 55 2f 61 3c 7f 76 e7 bc 7e 0e b4 3b
       0.015702346 0.013744195 -0.028254746 0.0054948917
000080 80 18 d4 3d 23 43 a6 3c 94 5d ac bd aa 56 72 3c
       0.103562355 0.020295685 -0.08416286 0.01479117
000090 96 01 96 3d e3 91 06 3d f3 b4 80 3c fc d3 bd bd
       0.07324521 0.032853972 0.015711283 -0.092689484
0000a0 e7 73 d1 bd 69 04 18 3c e4 58 46 3d ea 64 e0 bc
       -0.10227185 0.009278395 0.048424616 -0.02739187
0000b0 d1 a1 f3 ba b3 63 dc bd 42 38 3e bc ca 13 38 bc
       -0.0018587654 -0.107612036 -0.011610093 -0.011235187
0000c0 80 9c 11 be f0 5d cd bd 1b f9 f5 bc 9d 53 f5 bd
       -0.14219856 -0.10027683 -0.03002601 -0.119788386
0000d0 df 98 eb 3c b0 f5 74 bd f8 82 a9 bd de 2f dd bd
       0.028759418 -0.05980462 -0.082769334 -0.108001456
0000e0 56 6a 94 bd 04 c6 35 3d 89 fc 71 3d b1 92 86 bd
       -0.072468445 0.044378296 0.059078727 -0.06570948
0000f0 dd 37 86 3d 79 3f 16 3c 05 8e ef bc 1b 28 79 bd
       0.06553624 0.0091704065 -0.029242525 -0.060829263
000100 e9 85 c8 3c 2e 73 4b 3c 86 fe aa 3c ea be 17 bc
       0.024477916 0.012417598 0.02087332 -0.009261826
000110 c9 50 12 bd e1 e6 35 bd 6b 9b 7b bd 79 f0 a3 3c
       -0.035721574 -0.044409636 -0.061427515 0.020012127
000120 27 69 8d 3d 78 36 3b bd 8a 89 c3 bd 77 df 14 bd
       0.06904822 -0.045706242 -0.09547718 -0.036345925
000130 68 de 11 bd 3d 41 b5 3d 68 b0 80 3c 5a a1 8e 3c
       -0.035612494 0.08850334 0.015709117 0.017410923
000140 f5 17 52 3c 74 d2 27 bd ae a0 d1 bd 8a b7 4d 3d
       0.012823095 -0.040972188 -0.10235725 0.050223865
000150 b1 ce 6b bc d0 84 56 bd 5f f5 91 bc 84 0d 24 bc
       -0.014392541 -0.052372754 -0.017817197 -0.010012988
000160 1d 17 ab 3d 6b 9e 47 bc e4 89 85 bd 6f f1 06 be
       0.08354018 -0.012183766 -0.06520441 -0.13178037
000170 69 51 5d bd 1a 06 ca 3d 8b 83 b9 bd 9a 0d 6b 3d
       -0.054032717 0.09864445 -0.09058293 0.05738602
000180 4b 3b 36 be 32 5f 23 be 06 d8 00 3d 47 59 5d bd
       -0.17796056 -0.15954283 0.031456016 -0.05404022
000190 e0 bc 74 bc a3 69 da 3d 9b 53 f3 3d d4 58 61 3d
       -0.014937609 0.1066468 0.11881181 0.055016354
0001a0 4c 33 97 bd b0 ee 6a bd 48 b3 83 bc ee 48 5f bd
       -0.07382831 -0.057356536 -0.016076699 -0.05451291
0001b0 56 4e 40 bd d8 dc ad ba d4 9b 7f bd cd 9e de bc
       -0.046949707 -0.0013264669 -0.06240447 -0.027175331
0001c0 99 b5 54 3d fc 25 82 bd ac b2 bd 3c 56 44 8f bd
       0.051930998 -0.06354901 0.023156486 -0.06995456
0001d0 64 16 db bd 17 78 6e bc 7a 0f 2f 3c ad 56 a9 3b
       -0.1069763 -0.014554999 0.010684842 0.0051678033
0001e0 e2 20 b3 bd 1c 0e 21 bd 18 16 ee 3c 05 c3 6f bc
       -0.08746506 -0.039320096 0.02906327 -0.014633899
0001f0 fe 34 ba 3d dc 7a f1 bd 62 d1 20 3d 8b ef fc 3c
       0.09092139 -0.11791012 0.039262183 0.030875942

fc.4.weight f4 [128, 128]
000000 a8 5c 70 bd ed e6 ac bc 54 3a 27 bd d0 df 8f 3d
       -0.058682114 -0.021106208 -0.04082711 0.07025111
000010 fb 90 eb 3c 08 58 cc bd c7 94 37 3e 76 e4 26 bd
       0.028755656 -0.09977728 0.17927848 -0.04074522
000020 df 69 10 3e 62 77 cd bd 6c df 55 bd 32 d8 15 be
       0.14102887 -0.10032536 -0.052215025 -0.14633253
000030 f4 f6 0f 3e 3c 01 97 bd 88 b1 30 3d 63 99 f3 3c
       0.14059049 -0.07373282 0.043138057 0.029736226
000040 8e 8a 85 bd b9 2e 46 3c 97 a4 d3 3c e6 dd 0a bd
       -0.06520568 0.0120961005 0.025835318 -0.033903025
000050 72 5b 81 bd 87 c5 09 be 7a ba 50 be dc 5b b6 bc
       -0.0631627 -0.13454257 -0.20383635 -0.022260599
000060 be 1b 32 3e 9c 5f c3 3d 5a 8e 54 bd 7e 53 76 3e
       0.17393395 0.095397204 -0.05189357 0.24055287
000070 07 8f 09 3c 3e 3d 58 bd 68 83 b7 bd 5a 93 78 3e
       0.008395917 -0.05279278 -0.08960611 0.2427496
000080 fc f0 ec bc 0f 59 b7 3d b6 e2 d1 bd e2 e9 0a 3e
       -0.028923504 0.089525335 -0.1024832 0.13565782
000090 b8 91 c6 3d 40 ba 94 3d c0 bc 0c be 7e ff 15 be
       0.096957624 0.07262087 -0.13743877 -0.14648244
0000a0 ca 3f 90 3c ee 0d 92 3d 2e b7 48 be 17 93 5d 3d
       0.017608542 0.07131563 -0.19601128 0.054095354
0000b0 a9 e0 aa 3d 0e 2c a6 3d 1f fc 29 bd 1d d2 1f 3e
       0.08343632 0.081138715 -0.041500207 0.15607496
0000c0 93 0d 63 3d 14 a3 94 bd 67 08 c9 bc c8 01 14 3e
       0.055432867 -0.07257667 -0.02454014 0.14453804
0000d0 e7 7b 1b 3c 4d 19 1a 3d 04 1c 97 3d ac 9e 7b 3d
       0.00948999 0.037621785 0.073783904 0.06143062
0000e0 1f 93 8e 3d df 3b 16 3d a6 28 01 3e 5b 29 1f be
       0.06961655 0.03667819 0.12613162 -0.1554312
0000f0 5e 9e e6 bd a9 0e d6 bc 17 62 5d bd ea 30 81 be
       -0.11260675 -0.026130037 -0.054048624 -0.2523263
000100 9e ed 0e 3d d6 7a 2a 3e 8c c7 d8 3c c6 ca 0d 3e
       0.03489458 0.1664842 0.026462339 0.13846883
000110 7e 11 b4 3d 7b f2 c5 3d 11 50 2c bd 18 bf 7b bd
       0.08792399 0.0966539 -0.042068545 -0.061461538
000120 be 0f 6c 3d d8 3e cc 3d 4c 43 ad bd 11 4d 69 bd
       0.0576322 0.09972924 -0.084601015 -0.056958262
000130 df 6e f7 bd 7e b8 1d be 05 fc 93 bc 7a 17 cb 3c
       -0.12081694 -0.1540241 -0.018064508 0.024791468
000140 1d b9 a9 bc 1a 3c bf bd 4c 40 99 bc 72 d5 37 3c
       -0.020718152 -0.09337635 -0.018707417 0.011220323
000150 c2 a2 67 be 4d 83 1a be 9d 9f e1 bd c6 ef 24 bd
       -0.22620681 -0.1508915 -0.11016772 -0.04026773
000160 ca b1 d4 3d 59 b3 d4 3b b5 b8 f5 bc 8c 2e e0 3d
       0.10385473 0.0064911065 -0.029995302 0.10946378
000170 f4 82 8b bd 76 a3 07 3e 84 f1 50 3d c6 47 fe 3d
       -0.06812087 0.13245949 0.051011577 0.124160334
000180 97 6b 4f be a9 2e 33 3d f1 4a a3 3d 3f f7 14 3e
       -0.20255886 0.04374567 0.07973278 0.14547442
000190 fb a9 79 bd fd ad 53 be 76 fe 42 bd c9 d0 fc 3c
       -0.06095312 -0.2067184 -0.047605954 0.030861275
0001a0 2c 6e 4a 3e a2 53 b5 3d b6 22 db 3d 9d 36 86 3d
       0.1976859 0.08853842 0.1069998 0.065533854
0001b0 58 67 16 be 21 bc fa bd 36 f8 0f be db 9c 6a 3d
       -0.1468786 -0.12242914 -0.14059529 0.057278495
0001c0 79 f4 96 3d 24 64 ab 3d 68 04 34 3e ea 58 3b 3e
       0.07370848 0.0836871 0.17579806 0.18295637
0001d0 a2 d6 fa bd 10 11 36 be 5d de ac 3d 2d 15 a4 be
       -0.12247969 -0.17779946 0.0844085 -0.32047406
0001e0 cb cd e8 3c 7e d4 2e be 82 d4 fe bd 3e e3 40 be
       0.028418442 -0.17073247 -0.124428764 -0.18836686
0001f0 8c b7 ee bd cd b6 54 3c 18 de 15 3e 96 96 3a bd
       -0.116561025 0.012983036 0.14635503 -0.045553766
000200 d8 44 cc 3d e6 72 41 bd cb 6b d5 3e e4 70 d7 bd
       0.099740684 -0.047228716 0.41683802 -0.10519579
000210 46 b2 ab 3d 62 02 e2 bc dc a0 08 3d 33 dd b2 3c
       0.08383612 -0.027589027 0.033356532 0.021833992
000220 f2 1c 28 3e 11 38 71 bb b6 7c 38 bd 22 ed f1 bd
       0.16417292 -0.00368071 -0.04504081 -0.118128076
000230 48 60 42 be 88 25 94 bc dd a2 f0 bd 71 cc 1e 3d
       -0.18982041 -0.018084303 -0.11749814 0.03876919
000240 59 c9 dd 3c 5c 65 4b 3d 5c 98 0f 3d e9 64 ac bd
       0.02707355 0.04965721 0.03505741 -0.084176846
000250 33 07 1a bd ae d4 9b 3c ce 84 bb bd f8 cd 91 bd
       -0.037604522 0.019022312 -0.0915619 -0.071193635
000260 2a e0 2d bd 97 a9 17 3e 14 80 3e be 77 f4 8f 3c
       -0.042450108 0.14810787 -0.18603545 0.017572625
000270 43 5d 84 bd 26 8d e3 3d d5 77 85 3d 31 5e 81 bd
       -0.06463101 0.11110906 0.06516997 -0.06316794
000280 0b 1f 92 3d f9 a7 be 3d 0c 40 9c 3d 58 e3 28 3c
       0.07134827 0.09309382 0.076294035 0.010308109
000290 58 df 9a 3d 73 2e a4 3b 30 48 ce bd 68 a2 3f be
       0.07562131 0.00501042 -0.100723624 -0.18714297
0002a0 6e e9 a6 bd 8a 46 2d 3c 8d 5c ce 3c fa 98 11 bd
       -0.08149992 0.0105759 0.025190616 -0.03554628
0002b0 16 84 1b bd b6 f3 22 be a3 a9 2d 3d ac 56 44 bb
       -0.037967764 -0.15913281 0.042398106 -0.0029958887
0002c0 3a fe 3d 3d b1 f1 99 3d d7 31 e3 3c 46 67 24 bd
       0.046385027 0.07516802 0.027733726 -0.04013755
0002d0 86 0e bc 3c 3a c6 6e bc 3d a9 8d bd d4 2a b1 bd
       0.022956144 -0.014573628 -0.06917045 -0.08650747
0002e0 a3 f9 19 3e 27 e4 3e be 18 ce 18 3d b6 2e c5 ba
       0.15036635 -0.1864172 0.03730592 -0.0015043828
0002f0 83 91 e2 bd 9b 00 9e bd 2d f6 cf bc c9 7d 48 bc
       -0.110629104 -0.07714959 -0.02538594 -0.012237021
000300 93 20 03 3e 56 58 0c 3c 1c 3b 4e 3e be 47 e3 bd
       0.12805395 0.008565983 0.20139736 -0.11097668
000310 e3 2e ac 3d 96 4c 4b bc e1 4f 88 bd cc 08 b6 bd
       0.084073804 -0.012408396 -0.06655861 -0.088883966
000320 28 80 9d bc 5c b4 95 3d 61 2a 1a bc 24 50 ee bc
       -0.019226149 0.073097914 -0.009409518 -0.029090948
000330 1a 7b bc bd 2f 36 48 bd f1 8c 25 bd 2e a8 a1 3d
       -0.09203167 -0.0488798 -0.040417615 0.07893406
000340 d0 ea 5f 3d 66 4c 70 bd 41 30 98 bd 38 d9 42 bc
       0.054667294 -0.05866661 -0.07431079 -0.011892609
000350 26 3d 9c bd fb 05 c3 bd 50 27 3c bd 36 9e de 3d
       -0.07628851 -0.09522625 -0.04593593 0.1087002
000360 82 6d b6 ba d0 36 81 bd 43 d6 d6 bd 36 60 26 3d
       -0.0013918134 -0.06309283 -0.10490086 0.040619098
000370 41 e4 6e 3c 12 47 19 be c0 cc 3c be 14 68 95 bd
       0.014580787 -0.14968517 -0.18437481 -0.07295242
000380 4e 37 89 bc fe c9 a9 3c 80 e3 00 3e 7c 13 2f 3e
       -0.016750004 0.0207262 0.12586784 0.17097276
000390 73 6f 8e bd e3 1d 85 3e 47 c9 b2 bd 64 30 92 bd
       -0.06954851 0.25999364 -0.08729797 -0.07138136
0003a0 dd db 39 be d1 b8 2c 3d 9b b7 9a bb a5 18 8d be
       -0.18150277 0.042168442 -0.0047215945 -0.27557865
0003b0 8a 0c 05 3e bf 0f b2 bd 06 cc 44 bc a3 f6 14 3d
       0.12993065 -0.086944096 -0.012011534 0.036368024
0003c0 f9 70 69 bd 17 d8 85 bb 7c 39 a4 bc 2a 24 32 3d
       -0.056992505 -0.004084598 -0.020046942 0.04349152
0003d0 51 2e f3 3d 96 54 ca 3d f5 a8 f2 bd d7 54 80 3c
       0.118740685 0.09879415 -0.11848632 0.015665455
0003e0 9f 32 58 bd c3 14 c7 3d 03 e8 33 3d 4c c1 3d 3d
       -0.05278265 0.09720757 0.043922435 0.04632692
0003f0 61 0b b8 3d e0 53 e7 bd 42 28 14 3e a6 f0 c1 bd
       0.08986545 -0.11295295 0.14468482 -0.09469728

fc.4.bias f4 [128]
000000 71 e1 59 3d 85 9c 1f be 8f 51 f0 ba e8 ff b0 bd
       0.053193513 -0.15587051 -0.0018334853 -0.0864256
000010 d9 9a 91 bd e2 47 7f bd cd ee 12 be 9a 90 35 3d
       -0.07109613 -0.062324412 -0.14348908 0.044327356
000020 70 8b 9d 3c 93 d4 2e be f9 94 8a 3d 1b a8 ec 3c
       0.019231528 -0.17073278 0.067666955 0.028888753
000030 77 90 9b bd 2f a1 1f 3d b1 63 5f 3d 41 fb 04 be
       -0.07595914 0.038972076 0.054538433 -0.12986471
000040 3d 1b 08 be ec cd 1c 3e d6 7b 1a 3e b9 6f 1e ba
       -0.1329164 0.15312928 0.15086302 -0.00060438697
000050 f6 b4 e1 bc ea 40 08 3e f2 3d 05 be fd a5 a4 3d
       -0.02755211 0.13306013 -0.13011912 0.08039472
000060 9b b4 71 3d c9 30 83 bd c7 e7 f9 3d a7 28 b1 3d
       0.05901013 -0.064057894 0.12202411 0.08650332
000070 97 67 df 3c fa 4d a7 3d e5 6c 08 be 42 c6 b4 bd
       0.027271075 0.0816917 -0.1332279 -0.08826877
000080 a9 4c 1b 3c 81 a1 6f 3d 42 f2 b5 bc 6f c3 25 3c
       0.009478726 0.05850363 -0.022210244 0.010117396
000090 5b 10 5b bd 23 8e b9 3d dc c0 82 bd c2 56 a9 3c
       -0.053482395 0.090603136 -0.06384441 0.020671252
0000a0 85 67 08 bc d3 14 9c 3c 9f ce d3 bd 3c 1c f9 3d
       -0.008325462 0.019052899 -0.10342144 0.121635884
0000b0 fa 0a 07 3e 8e 78 92 bd 02 30 1a 3e 59 d4 b1 3d
       0.13187781 -0.071519 0.15057376 0.0868308
0000c0 86 5c 6d bd 4f 6b e0 bb 91 3b 6c 3d 2e 90 0c 3c
       -0.057949565 -0.0068487297 0.057673994 0.008579297
0000d0 e0 0b 80 3c 24 cd ae bd ae fe 12 3e 9c 5f a9 bd
       0.015630662 -0.08535221 0.14354965 -0.08270189
0000e0 05 46 a1 bd 5e a0 b3 3d 78 0a af 3c 01 ce 0e be
       -0.07874683 0.08770822 0.021367297 -0.13945772
0000f0 dd 7a aa 3d 23 ee 38 bd 3d c4 61 be b6 c4 b8 bd
       0.083242156 -0.04514898 -0.22047515 -0.09021895
000100 7b b4 59 bd 16 ab 8b bc f6 86 b4 3d 6b 1b a6 bd
       -0.053150635 -0.017049354 0.08814804 -0.08110698
000110 f7 64 e4 bb b6 f2 ea 3c d2 49 89 bd eb ed 49 3d
       -0.0069700438 0.028680187 -0.06703533 0.049299162
000120 61 a3 5e bc 5f 29 ef 3c a3 89 6f 3c ba 24 3c 3d
       -0.013588757 0.029194532 0.0146202175 0.045933463
000130 f5 98 90 bd 43 2d 3e bc f9 c8 60 3e 62 fb 24 be
       -0.07060424 -0.011607471 0.21951665 -0.1611152
000140 6a e1 54 3d 9d 87 e7 3c f6 65 d9 bc 58 23 80 bd
       0.051972784 0.028262908 -0.026537877 -0.06256741
000150 b4 a8 6f 3b b0 28 39 3d d9 8e a4 bb d8 8e b4 3d
       0.003656906 0.04520482 -0.0050219116 0.08816308
000160 89 8c 1b bd 8e 00 bc 3c 85 4e 98 bd 63 9e da bc
       -0.03797582 0.022949483 -0.074368514 -0.026686853
000170 c2 47 e2 3d 34 09 ea 3d 7f 3e 3b bd 26 ef c8 3d
       0.11048843 0.114275366 -0.045713898 0.09811239
000180 46 6a 65 3d 9e d0 15 3e 01 af 8a bd f7 a0 8a 3c
       0.056009553 0.14630362 -0.067716606 0.016922457
000190 e4 48 17 3d 53 f5 ba 3d 2d 83 91 bc 1e c0 26 3d
       0.03693475 0.09128823 -0.017762745 0.04071056
0001a0 7e 53 dc bd 1d 4c a6 3d 15 86 70 3d 2f 65 c3 bb
       -0.10758112 0.08119986 0.05872162 -0.0059629898
0001b0 cf 30 1f bd cf 19 9d 3b 5a cc 2c bd 99 94 07 3e
       -0.038864907 0.0047943364 -0.042187072 0.1324028
0001c0 46 e6 e5 3c 26 62 c6 bd 67 44 4e 3c 23 29 8b bb
       0.028063904 -0.09686689 0.012589551 -0.0042468472
0001d0 7b 72 ab bd 00 28 e7 bc ec fe fd bc 0d e1 8a bd
       -0.08371445 -0.028217316 -0.031005345 -0.06781206
0001e0 e9 d3 f8 3c 26 61 12 3d 43 d9 a6 bb c3 6a ec bd
       0.030374484 0.03573718 -0.0050918176 -0.11543801
0001f0 66 c0 86 3c 33 bf e1 3d 0b 63 d0 3c 4f 51 e8 3d
       0.016449165 0.110227965 0.025437852 0.113436334

fc.6.weight f4 [4, 128]
000000 ae 31 d7 3b 1a 88 39 3d f5 62 db 3d 67 b3 dd bc
       0.0065672016 0.045295812 0.10712234 -0.027063085
000010 85 7b dc 3d e9 81 4b bd c9 94 2f be 5c e4 c2 3d
       0.10765747 -0.04968444 -0.17146601 0.09516212
000020 60 30 a9 3d 0e 18 65 be cf 67 22 3d ec c2 82 bd
       0.0826118 -0.22372457 0.03964978 -0.06384835
000030 02 7c 07 be 4d 89 26 bf 66 58 bd 3d 0b cf 1a be
       -0.13230899 -0.65053254 0.09245376 -0.15118043
000040 3c a7 8b be 4e 4b 37 bd 0e 79 85 3d c1 df e2 3d
       -0.27276027 -0.04474955 0.0651723 0.11077834
000050 74 4f a7 bd e9 86 9b be 49 38 e1 3d bd 27 ea 3d
       -0.08169451 -0.30376366 0.10997064 0.11433361
000060 86 ee 37 3e e4 59 b6 bd 79 69 b8 3d a0 18 dd 3b
       0.17962083 -0.08903864 0.09004492 0.0067473203
000070 60 59 64 3d 28 21 88 3b 33 7b 0e bf 97 3e 63 be
       0.055749297 0.004154343 -0.5565674 -0.22191845
000080 c6 02 54 bd 8a 7a d4 bd e1 15 d0 3d 60 9a 2f 3d
       -0.051760457 -0.10374935 0.10160423 0.042871833
000090 02 b4 d6 be c4 92 c1 bd f8 be d0 3d e4 6d a4 3d
       -0.4193421 -0.094518214 0.101926744 0.080287725
0000a0 cb a0 b5 3c 3d 43 af 3d 85 df 28 bd db 32 ba 3d
       0.022171399 0.085577466 -0.04122879 0.09091731
0000b0 7f e6 89 3d 96 47 64 be ee 2e e0 bd 03 34 88 3d
       0.06733417 -0.22292933 -0.10946451 0.066505454
0000c0 9f 8f 93 be cd 5d 45 be 18 2d 02 3e 7a 60 e2 3c
       -0.28820512 -0.19274063 0.12712514 0.027633894
0000d0 74 2a 93 3d 40 fb fe 3d 20 3e 13 3d 11 13 ae 3d
       0.07185832 0.12450266 0.03594792 0.084997304
0000e0 6f 57 60 3d ba 35 25 3e 92 8d 02 3e f0 43 a0 3c
       0.054770883 0.16133776 0.12749317 0.019563645
0000f0 fb af 5b 3d 3b 70 00 bf a8 4d 0d bc c6 c2 3c 3d
       0.053634625 -0.5017125 -0.008624472 0.046084188
000100 35 6a 6b bd 7d e4 ae 3d 67 05 21 3c cb 16 4b 3c
       -0.057474334 0.085396744 0.009827948 0.012395571
000110 a2 fd fd 3d 50 08 e6 bd d2 73 c7 bd b1 64 5a be
       0.12401892 -0.11232054 -0.09738888 -0.21327473
000120 27 66 e3 3b 40 19 22 be de 24 94 3d 06 38 f5 be
       0.0069396677 -0.15829945 0.07233594 -0.47894305
000130 71 4e 69 be 29 7d d5 bd d2 4c d6 3d c8 7a 7b 3b
       -0.2278383 -0.10424263 0.10463871 0.0038372744
000140 92 21 aa be 06 b1 c6 bd 29 5e f2 3d a6 61 f1 bd
       -0.33228737 -0.09701733 0.11834366 -0.11786203
000150 72 f3 2c be cd 14 a6 3d 08 de 04 3e 1a df 86 3d
       -0.16889742 0.08109436 0.12975323 0.06585522
000160 58 cc 6c bb 18 8f d8 3c 47 0f cb be 62 26 0c be
       -0.003613254 0.02643542 -0.39660093 -0.13686517
000170 92 a7 e6 3d 3b 15 2c be 95 d7 c1 3d 47 da 21 bf
       0.1126243 -0.16804974 0.09464947 -0.6322369
000180 83 78 8b 3d a6 69 48 3e af 89 8a bd 8e fe 73 bb
       0.06810095 0.19571552 -0.06764542 -0.0037230584
000190 86 09 12 3d ce 82 1a 3e 01 b5 b5 bc 3d 8d f8 be
       0.035653614 0.1508896 -0.022181036 -0.48545256
0001a0 40 ad 8c 3d ce e8 74 3d ca c8 10 3e 9b 1b 95 bd
       0.06868982 0.059792332 0.14139095 -0.07280656
0001b0 05 f2 52 3e a2 de f1 3d fe 3c a3 3d 7d 45 bd 3d
       0.20600136 0.11810042 0.07970618 0.092417695
0001c0 5b 78 9a 3d a9 3d 51 be 08 c9 87 be 9f 6a e9 3d
       0.07542487 -0.20433678 -0.26520562 0.113972895
0001d0 4d 5c c0 bc 65 97 03 bc 3d f1 36 3d a2 d1 cc bd
       -0.023481512 -0.008031701 0.044663657 -0.10000922
0001e0 28 67 e4 bd 16 48 1b 3c e0 7c 93 be 06 50 d1 bc
       -0.11152488 0.009477636 -0.2880621 -0.025550853
0001f0 7a 1b 02 bf 74 0e bd 3d 45 19 7c bc 4d 5c c9 bd
       -0.50823176 0.09231272 -0.015386884 -0.09832058
000200 5e 00 b1 3d 1e e3 45 3d dd cb 12 3e 08 4a 91 bd
       0.08642648 0.0483123 0.1433558 -0.070941985
000210 c4 97 c4 3c b5 c2 dc 3d 80 b7 82 bc 8b da 06 bf
       0.023998149 0.10779325 -0.01595664 -0.5267722
000220 d0 07 07 3e f6 ee 74 3d 22 cb 03 be 3f 3e a2 bd
       0.13186574 0.059798203 -0.12870458 -0.07922029
000230 bc cf e9 3d c7 f8 14 bb fd dd ef be ac ec c1 3d
       0.11416575 -0.002273129 -0.4684905 0.0946897
000240 cb 23 0d bc 4a bc 66 be b0 79 50 be 39 3c f6 3d
       -0.008614491 -0.22532764 -0.2035892 0.12023205
000250 55 6d 4e bd 1d 1b 14 3e 8f 22 bf be ba be 69 be
       -0.050397236 0.14463468 -0.37331054 -0.22826663
000260 01 b2 6d be a0 b7 e8 be a0 0a 04 bb 34 44 08 be
       -0.23212434 -0.45452595 -0.0020147935 -0.13307267
000270 6e f0 82 be 11 ec 60 be 71 9e 2b 3d 28 42 c2 bd
       -0.25574058 -0.21965052 0.04189915 -0.094852746
000280 32 21 3c be 58 08 66 3d 45 bd 51 be d5 dd eb 3b
       -0.18372038 0.0561603 -0.20482357 0.0071980753
000290 75 ee d9 3c c5 0a 44 be 01 c5 ce be b6 46 6f 3d
       0.026602963 -0.19144733 -0.40384677 0.058417045
0002a0 1e 03 26 3d 4a e1 06 3b 2b 74 bb 3c fa 04 eb be
       0.040530317 0.002058106 0.022882542 -0.45902234
0002b0 d3 71 a3 3c d1 65 0d 3e 24 04 87 be 4f bb 95 be
       0.019951737 0.13808371 -0.26370347 -0.29244468
0002c0 1d 51 10 bc 9f ad 98 bc 27 29 e4 3d 7e 52 99 3a
       -0.008808401 -0.018637476 0.11140662 0.0011697558
0002d0 39 5e 69 3d a3 10 fd bc 10 29 9a be a9 82 e6 3d
       0.056974623 -0.030891722 -0.30109453 0.1125539
0002e0 51 94 e8 3d 24 52 29 be 66 5a 8a bd 7a 0a 98 bd
       0.11356414 -0.1653524 -0.067555234 -0.07423873
0002f0 38 06 48 3d 4a 81 15 3e 72 64 c7 3e 7d 33 a5 3e
       0.048834056 0.14600101 0.3894382 0.32265845
000300 c2 0f 04 3e f8 d8 bd 3d a3 d6 39 3e 25 59 ec 3d
       0.12896636 0.09269899 0.18148284 0.115404405
000310 b2 e5 0e be 58 f9 6d 3d 26 61 1e 3e 7c 25 28 bc
       -0.1395481 0.05809912 0.15466747 -0.010262843
000320 9c 88 96 be cf 8b 72 bd 88 49 38 be 5e 41 ed 3d
       -0.294011 -0.059215363 -0.179968 0.115847334
000330 9d f2 81 3d e5 01 b6 3d 88 a4 e7 3d dd 39 b6 be
       0.06345103 0.0888708 0.11310679 -0.3559102
000340 61 6d c8 bd 09 e1 18 be 66 43 bb 3d 4f 55 ea bc
       -0.09786487 -0.14929594 0.091437146 -0.028605131
000350 ed 3f 32 3d 6e 0e cb 3d 4a 6d 10 bd 0e 82 e4 3d
       0.043517996 0.099148616 -0.035260476 0.111576185
000360 67 d6 e9 3d c3 33 44 be 73 75 e3 3d 8a 97 87 3e
       0.11417847 -0.1916037 0.11106386 0.26482803
000370 48 38 95 3d 0c 7d a8 bd 6a d4 97 3d 13 c6 0d 3f
       0.072861254 -0.08226976 0.07413562 0.5538036
000380 de 60 06 3e d6 1f 23 be cc a5 50 bd 0d 5c 0b bf
       0.1312289 -0.15930113 -0.050939366 -0.54437333
000390 b7 65 80 3e db 8d 54 bd 35 66 9b 3c 8b 77 a5 3d
       0.25077602 -0.051893096 0.018969635 0.08079442
0003a0 f3 75 34 3d 6a a0 fd bb d4 1c ce 3c 22 10 ae be
       0.044057798 -0.00774007 0.02516023 -0.33996683
0003b0 0c a2 49 3e 54 12 9d 3d f4 64 6b bd 00 b2 69 3d
       0.19690722 0.076695114 -0.057469323 0.05705452
0003c0 aa 64 fc 3d 32 70 0f 3c e9 01 18 3e 2a 98 48 3d
       0.12323888 0.008754777 0.14844479 0.04897324
0003d0 f1 66 fe 3c 48 60 e2 bd 96 f8 7a 3d a4 9d b0 3e
       0.031054946 -0.110535204 0.061272226 0.3449527
0003e0 c8 67 56 3b 43 5e ba bc 37 a9 97 be 0a 16 ed 3c
       0.0032715667 -0.022750026 -0.29621288 0.028941173
0003f0 1d 41 0a bd 2a 3d 82 be 7f aa 66 3c 02 1d 62 3d
       -0.033753503 -0.2543729 0.014078735 0.055203445

fc.6.bias f4 [4]
000000 d4 91 8e 3d 06 fc 58 3b e7 a6 b2 bd 74 fb 4c bd
       0.06961408 0.0033109202 -0.0872324 -0.050044492
