model/lv2_bc_model_9.1.pth (torch, 244972 bytes, 8 tensors)

fc.0.weight f4 [128, 209]
00000000: bdfd 193b 9aed 21be be34 9ebc 33fa c1bd
00000010: 9d9a 9ebd cc32 54be 319c 6dbd 6187 a93d
00000020: b3ce 77be a1e9 353e def7 073e 34b9 373b
00000030: 06ea f1bb a253 993b 6fd8 89bd 1d3b d23c
00000040: 06f6 683d 4a55 5ebb 37b4 86bd 44fa dcbb
00000050: 4f6a 163d 55df 1bbd 317a 00bc 995b 0f3d
00000060: bb52 a53d c959 8ebd cbf6 c63c 7c73 2dbd
00000070: 49fd bf3c e62b 4b3d bcd9 ddbb 529a b0bb
00000080: b6c2 f43c 3961 503d ca2d a7b9 77aa 733c
00000090: 0e27 febc fbf3 2bbd c9f4 6bbd 8539 8cbc
000000a0: 3711 3e3d 000e 053d 4b2f 7dbd aaa3 cbbc
000000b0: eed2 2abd 9cb5 31bd d0f4 acbc c2b5 173d
000000c0: 1841 87bd 6901 87bd c721 733c 1829 c2bc
000000d0: 8188 5bbd 719b 3f3d 99d6 483d 9d8b 45bd
000000e0: f59c 78bd 4d00 523d 71c3 2bbd a59a 28bd
000000f0: ada8 903c 076f ef3c 39b3 36bd 272c 9dbd
00000100: 43fd 6c3c ff2f a5bd 4922 b9bc 6006 813d
00000110: 4c93 2c3b 358a 7abd 9d16 6bbd f398 85bd
00000120: cc37 9b3c 5c08 273d d760 113d 15a1 13bc
00000130: 9986 4c3c cddb e83c 1b3e 053d 54cb 7abc
00000140: fec2 4e3c ab96 e6bc 498f 893c fb24 11bd
00000150: a2af 023d d7b9 18bd e657 fa3b e4e8 bdbc
00000160: c775 863d 290e 89bc 554d c3bc 9b0c 413c
00000170: 0c22 2cbc 637a 9fbc b94a 95bd 1e11 36bc
00000180: e1d2 a6bd 3f3c a0bd f244 a4bb ad4b acbc
00000190: f90e 5abd 4920 3dbd a967 3f3d 6202 9b3b
000001a0: 23d4 3cbd 6f35 0ebd 39c8 80bd f3cf 833d
000001b0: cb29 7ebc 1760 80bd 8da8 19bd 5322 8cbd
000001c0: a990 8dbc d492 f93c 3215 b93c ecc0 55bd
000001d0: 0348 0e3d dc36 ea3a 2b19 d63c bf72 473c
000001e0: 529c 40bd 1dcf 9bbd 8304 043d 18bd 9b3c
000001f0: a21e c7bc cfd8 6bbd 8fc4 29bd 299c 85bc
00000200: d072 843d ba4d dc3a 8bc6 a9bd 47d7 1bbd
00000210: 4890 78bd 6ebc 113d 7714 ebbc 267c b43b
00000220: 0727 12bd 4394 c0bc 5b18 523d e2b4 783d
00000230: fe8e 0ebb f3e7 5b3d 6198 5c3c 9bfe 1abd
00000240: e789 1d3d 84fb 333c 9798 53bd e791 543d
00000250: ab42 643c 4c41 f3bc 3720 5dbd 4e16 58bd
00000260: 5f20 a23c 4058 d53c 63a7 8fbd 1d85 64bd
00000270: 913d 99bd 6e49 77bc 6714 ba3c 095e d0bc
00000280: 4624 6f3c 7cd1 5b3d bf0a c83b 2f7a 84bd
00000290: 4dfc 47bc b906 0d3c 0136 343d 14dc 0abe
000002a0: a9a8 57bd 9f3d 2b3d 1c83 6fbd a608 493b
000002b0: 563d 76bd 715d 32bd 35de 8dbc 84c7 ffbc
000002c0: 9d61 1fbc b161 a3bd 5525 88bc b180 9ebd
000002d0: a1ba 913c d9da 1abd 1411 013d e0e4 d2be
000002e0: 3358 3cbe 93f9 2f3e 48fb 19be 9970 8abc
000002f0: fd3b 683d 6217 ddbc e39b dabe 6f98 dfbe
00000300: 3b66 343f df33 513d 3ade 043d 0068 45bd
00000310: 4041 7fb9 4444 1dbd 7782 92bc a603 b0bc
00000320: bdcd 6fbd 9fbc 92bd b951 3d3d 939b 543d
00000330: 2c1a c6bc b9ba 0e3d bb12 42bd b7cc 803c
00000340: d239 a03c 8fe8 55bd bf34 aa3d e7ba 2d3d
00000350: 9b22 48bd c5f3 8abd 1198 2dbe adea da3c
00000360: f631 2bbd 0dd8 91bd aa52 5bbe ee09 cbbe
00000370: 1995 1d3d 8c04 fbbc e5e4 95bb a5c7 8e3c
00000380: 7be2 503d 1f93 5e3c 4fa4 fd3c 1751 12bd
00000390: d7e2 8a3d b81a 8cbd e951 69bb 5409 11bd
000003a0: 54b2 9dbc 0cae 14bd db0f 67bd ab6a a63c
000003b0: c03f 3dbd 2df0 6e3d 26a5 20bd a1d8 3d3d
000003c0: bd84 c6bc 2865 913c d15c f53c ebed 693d
000003d0: a4c5 833d 4dec 283d 9922 5fbd f151 d73c
000003e0: 8af8 fbbc 2a83 19bd a3b5 a8bc f981 8a3b
000003f0: 6997 393d 34d3 85bd 3889 d53c b7c3 153d
0.0023497187 -0.15813294 -0.019312259 -0.0947155 -0.07744334 -0.20722502 -0.058010284 0.082777746
-0.24199943 0.17764904 0.13278148 0.0028033974 -0.007382634 0.0046791593 -0.067307346 0.025662953
0.05687525 -0.0033925348 -0.06577342 -0.006743701 0.036722478 -0.038054783 -0.007841633 0.034999464
0.0807242 -0.06950719 0.024287602 -0.042346463 0.023436205 0.04960241 -0.0067703407 -0.00538949
0.029878002 0.05087397 -0.00031886838 0.014872185 -0.031024482 -0.041980725 -0.057606492 -0.017117271
0.046403136 0.032484055 -0.06181268 -0.024858315 -0.041705064 -0.043386087 -0.02111283 0.037038572
-0.066042125 -0.06592066 0.014839596 -0.023701236 -0.053596977 0.0467791 0.04903278 -0.04822885
-0.06069656 0.051269818 -0.041934434 -0.041163106 0.017658556 0.029227747 -0.044604514 -0.07674437
0.014464679 -0.08065795 -0.022599356 0.06300044 0.0026332913 -0.06116696 -0.057394613 -0.065233134
0.018947504 0.040779456 0.035492744 -0.009010573 0.012483262 0.028425122 0.03252993 -0.015307266
0.012619732 -0.028148016 0.016791956 -0.035435658 0.031905778 -0.037286606 0.007639873 -0.02318234
0.06565433 -0.016730385 -0.023840586 0.0117827905 -0.010506164 -0.019467538 -0.07289643 -0.0111124795
-0.08145691 -0.07823991 -0.0050131017 -0.021032179 -0.053236935 -0.046173368 0.046729717 0.0047305087
-0.046100747 -0.034718927 -0.062881894 0.064361475 -0.015512894 -0.06268328 -0.03751426 -0.06842484
-0.017280893 0.03046552 0.022593115 -0.052185938 0.034736644 0.0017869133 0.026135048 0.012173354
-0.04702408 -0.07607863 0.032230865 0.019011065 -0.024306599 -0.05757981 -0.04144722 -0.016309815
0.06467211 0.0016807832 -0.08289822 -0.0380471 -0.060684472 0.03558009 -0.028696282 0.0055079637
-0.03568175 -0.023508197 0.05129276 0.06071938 -0.002175271 0.053688 0.013464064 -0.037840467
0.038461592 0.010985259 -0.051659193 0.051896956 0.0139319105 -0.029694222 -0.0539858 -0.052755646
0.019790826 0.026043057 -0.07014348 -0.05579101 -0.07482446 -0.015093191 0.022714807 -0.025435464
0.014596051 0.053666577 0.0061047967 -0.06468617 -0.012206149 0.00860756 0.043996815 -0.13560516
-0.05265108 0.041806813 -0.058474645 0.003067532 -0.06011709 -0.043546144 -0.01731787 -0.031223066
-0.009727863 -0.079776175 -0.016619364 -0.0773939 0.017789187 -0.037806366 0.031510428 -0.41190243
-0.1839302 0.17185049 -0.15037262 -0.016899394 0.056697834 -0.026988689 -0.42697057 -0.43670985
0.7046849 0.05107486 0.032438494 -0.048194885 -0.00024343003 -0.03839518 -0.017884476 -0.021486115
-0.058545817 -0.07164883 0.046220515 0.05190618 -0.024182402 0.03484604 -0.047381144 0.015722616
0.01955882 -0.05222374 0.08310842 0.042414572 -0.048861127 -0.067847766 -0.1695254 0.02672323
-0.041795693 -0.071212865 -0.21418253 -0.39656013 0.03847227 -0.030641817 -0.0045744055 0.017429182
0.05099724 0.013584881 0.030962138 -0.035721865 0.067815475 -0.06841034 -0.00356018 -0.035409287
-0.019250073 -0.036298797 -0.056411605 0.020314535 -0.046203375 0.05833452 -0.039219998 0.04634917
-0.024233216 0.01774843 0.029951485 0.057111662 0.06434181 0.04124098 -0.054476354 0.02628419
-0.030758161 -0.037478603 -0.020594424 0.0042269197 0.04531041 -0.065344244 0.026066408 0.0365636

fc.0.bias f4 [128]
00000000: 0af4 0d3d 4c54 0dbd aee6 243d 099a 903c
00000010: 9001 863d a454 4dbd f04f 35bc d02e d5bc
00000020: 92a7 86bd b9bc 6bbd 18b0 5c3d 691f 803c
00000030: ab2e 62bd 8fdb 4ebc cc13 3a3d bfc5 c73c
00000040: f5ec 5cbd f3fc a03b fa2d 2bbd 3b7f 57bd
00000050: a4ea 24bd 2b6b 25bd 6a21 b6bb 8ffe 063d
00000060: 7b5d 17bd 62d4 1b3d a19b 33bd a2e4 a83c
00000070: e33b 3abd 9eed 1ebd 16bc c8bc 4083 f7bc
00000080: 941a 35bd a5f1 3c3d 28b0 d33c 5015 673d
00000090: f08e 7abd c624 2bbd bf42 8b3c 3c0f eabc
000000a0: a302 5e3d 5d82 adbc f05e e8bb c21f 193d
000000b0: 8bb3 b9bb cd27 1bbc a993 5d3d 72ef 07bd
000000c0: 71db 7dbc d83c 81bd b129 c53c ab8c 1c3d
000000d0: 5cbf 183d 125c 17bd bee5 c0bc 06f8 3dbc
000000e0: 24c5 fe3c a40d 863b 5569 3dbd bf14 053c
000000f0: 5c20 0ebd 87f2 19bd 0aa7 143d 3632 59bc
00000100: f46d 61bc b2ca 6d3d f593 92bd e354 d5bc
00000110: 84f3 523d 2af5 edbc c419 56bd eab2 6bbd
00000120: 3c62 3cbd 4624 b3bd b686 85bd 1c82 533d
00000130: a155 083d 1177 153d c228 7a3d e0ee a63c
00000140: b387 96bd 4c91 dfbb f552 c63c 70e8 f0bc
00000150: 5641 72bd a243 81bd 55fc 4abd 4305 7fbd
00000160: 12bf a5bc 8884 5e3d f213 a0bd a1e9 0f3d
00000170: 3073 c3bc 48db 113d d633 863d 0c73 81bd
00000180: bf7c 47bd 49ec eabb d5bc b1bd b957 14bd
00000190: dd60 eabc 9ee1 be3c f971 65bd cd04 463d
000001a0: 6136 99bd a020 223d 10d2 8c3d 07ba 0d3d
000001b0: 5768 4fbc 12c7 a3bc 0879 81bd fc90 db3b
000001c0: eb0d 5abd 3680 88bd 25da a2bd 651f 69bc
000001d0: db0b 4dbd 476f 023d 974f 18bc 93e6 43bd
000001e0: f8b6 473c cfe9 88bc 21e6 56bd cdc5 2e3d
000001f0: c575 c9bc 9d42 84bb 524f 67bd c669 1cbd
0.034656562 -0.03450422 0.040259056 0.017651575 0.06543267 -0.050129548 -0.011066422 -0.026023299
-0.0657493 -0.057553027 0.053878874 0.015639978 -0.055220287 -0.012625589 0.045429036 0.024386285
-0.053936917 0.0049129664 -0.041791894 -0.05261157 -0.040262833 -0.040385406 -0.0055581825 0.03295761
-0.036954384 0.03804434 -0.04384959 0.020616833 -0.04546727 -0.03880083 -0.024503749 -0.030213952
-0.0442148 0.046128888 0.025840834 0.05641681 -0.061171472 -0.041783117 0.0169996 -0.028571717
0.054201733 -0.021180326 -0.0070913956 0.037383802 -0.005667155 -0.009469938 0.054095898 -0.033187337
-0.015494213 -0.06310433 0.024067732 0.03822009 0.03729187 -0.03695304 -0.02354705 -0.011594778
0.031099863 0.0040909816 -0.04624303 0.008122622 -0.03469883 -0.037584808 0.036292113 -0.0132566
-0.013759125 0.058054633 -0.07157127 -0.026041454 0.051501766 -0.029047567 -0.052270666 -0.057543673
-0.04599212 -0.08747153 -0.06519835 0.051637754 0.033284787 0.036490504 0.061074026 0.020377576
-0.07350101 -0.0068227407 0.024209479 -0.02940771 -0.05914434 -0.06311728 -0.04955705 -0.062260877
-0.020232711 0.05432561 -0.07816304 0.035134915 -0.023858637 0.035609514 0.06552856 -0.063207716
-0.04870295 -0.0071692807 -0.08678595 -0.03621647 -0.028610641 0.023300942 -0.056016896 0.048344422
-0.07481075 0.039581895 0.06876004 0.034601238 -0.012659154 -0.019992385 -0.06321913 0.006700633
-0.05323593 -0.06665079 -0.07951764 -0.014228676 -0.050060134 0.031844404 -0.009296319 -0.047827315
0.012189619 -0.016713051 -0.05246556 0.042669106 -0.02459229 -0.0040362612 -0.05647213 -0.03818681

fc.2.weight f4 [128, 128]
00000000: ac60 93ba 6936 93bd 0a6c 81bd 0111 0e3d
00000010: 1332 cdbc c853 c8bd 0d73 cb3d 46dc 13be
00000020: f290 a13d 92ba f8bc bfb0 b33b b162 423d
00000030: 5bc9 433d d884 2dbd ebd0 27bd 42ed 023d
00000040: c26f 93bc bf51 24be 5362 51bd 2f5f b8bd
00000050: d9e0 76be c24e c2bd c507 f9bc 809b 28bd
00000060: cee0 2d3e cc25 c8bb 0755 7cbd 2ace e3bc
00000070: ad9a 07bd f2d0 caba c273 ecbd 41a5 4dbd
00000080: 1010 6b3a 5e37 ea3b 1efb 103d b326 d83b
00000090: a666 6cbd e1f4 993b e400 bc3d 934a a1bd
000000a0: 995b b13d c1a8 e93c e838 243d d7a8 8ebd
000000b0: 6c04 07bd 5cb5 913d d180 b2bc 9fde 97bd
000000c0: bd44 e9bd 24b3 86bd 5bfa 1bbd cd56 17bd
000000d0: 5788 e0bc 8330 df3d 4540 b8bc c8ba 943d
000000e0: d248 50bd 8f4a ed3c 9afb 173d 52d3 423d
000000f0: 2574 e8bd 67fe bfbd e9a9 22bc e86b 45be
00000100: d424 a9bc 250f f1bd 8868 4c3d 54be 88bc
00000110: dc9a 81bd 567f 5bbc a7bd 65bc d755 a3bd
00000120: 1a72 95bc 7c8a 0fbc 71ba 9abd d1db 993d
00000130: e74d 56bc 6c61 5e3c afb8 cdbc bd1e 2fbb
00000140: 3ae3 6d3b 0c25 d63c a7b8 dfbd 44c3 8cbd
00000150: 6c09 a93d 50b8 debc 3a7c 9fbc 6e86 0c3c
00000160: b0ae 05bc 8aa1 903d 57e1 dd3c 2f6c 9abc
00000170: 9bfc 393d 37fb a7bd ca73 9bbd 718e 043d
00000180: 569a 2ebd 96fb 873d 24c5 93bd 488b 2a3d
00000190: 8015 2dbc 3353 cf3d 6137 a33d cc35 b2bc
000001a0: f2ee 8c3c 9f46 44bd 2b52 e8bd fc01 d93c
000001b0: 1e4b 50bd b7d2 4f3c f0b1 aebd 7fec b6bc
000001c0: 552a 71bd 4a51 743d 9c1d 1bbb 4c43 1e3e
000001d0: dc11 20be 0b03 5cbd 88b0 693c 4f19 93bd
000001e0: 98fe f63d 7470 92bd de58 01bd 0303 a03c
000001f0: c104 073d 7442 80bd 1874 8a38 f79e bc3a
00000200: 7c52 bb3d 2637 b0bd e1a7 84bb 043d 213d
00000210: edae ebbd a9af dd3d 567a 97bd 94f1 bbbd
00000220: 2d07 4d3d a75b d03c e147 8bbd 7df9 9ebd
00000230: 2499 e23d 876d 493c bc20 763d 8cbc acbd
00000240: a154 f9bc dc2b aebd bfbf f43c c83e 5a3c
00000250: 56cb 52be cc76 97bd 6c85 81bd d21b 40bc
00000260: 1716 a8bc 2884 45be 61c2 0fbc f494 563c
00000270: d8f4 95bd bc90 34be 7cc9 503d 661a c4bc
00000280: fd58 b5bd 1e7f 6fbd e4a1 96bd 6212 3bbd
00000290: 1961 41bd c39d 863d 43b1 9cbc 61cc 983d
000002a0: 8cc2 053e 1b50 03be bde5 873c 561e 0b3c
000002b0: 15ac fdbb 0728 0f3d 32f7 c139 97f8 943d
000002c0: 38e0 df3b a21b b5ba a17f 78bd e644 e83c
000002d0: 85cd c1bc e493 d93c a25a a83d f96c 263d
000002e0: fcd2 97bd eab6 3a3e 9085 193d b7f9 a9bb
000002f0: d39d a8bd e9f5 963d 4fa1 8d3d b2e7 25be
00000300: f2e6 193d f527 713b e08a c9bc 612e 0f3d
00000310: 08bb b6bd 1e85 1a3d e2be 9d3d d2a5 e93c
00000320: a379 20bd 5e12 a93b 12e8 133c 16e6 eebd
00000330: 6c0b b9bd a145 85bd ffa0 d1bd e038 a8bc
00000340: 453f 2cbc 7d1b 84bd 9d28 94bd b50a 73bc
00000350: d6a3 843d 4d8f 99bd d40b b03c 97b9 a6bd
00000360: 55f1 603d 56d9 5c3d cf22 57bd ca3e c1bd
00000370: 247c e8bd 5435 02bd 9264 283d 2607 90bd
00000380: 639a b1bd 6ae5 abbd c3b0 aabd 0675 04be
00000390: 34a6 4a3d db98 6dbd adf6 9c3d d479 99bb
000003a0: 06b8 00bc 2eec 30bc 9d3c 69bd 986e 3abd
000003b0: 6380 c3bd 2ee4 923d 6fb5 4a3d 2450 d73c
000003c0: a2d9 2f3d 9a01 533d 8275 cb3c 7f79 9a3d
000003d0: 0d09 7c3d f71c fc3c 2511 96bd 8232 f0bd
000003e0: 8721 413d 897b 3b3d a697 0d3d 40d4 e4bc
000003f0: 4bc5 953d 7bd0 cb3d c7ee 95bd c2a1 c3bb
-0.001124402 -0.07188112 -0.06319435 0.034684185 -0.025048291 -0.09781605 0.099340536 -0.14439496
0.07888974 -0.030362401 0.0054837163 0.0474574 0.04779945 -0.042363018 -0.040970724 0.031964548
-0.017997626 -0.16046809 -0.05111916 -0.0900253 -0.2410921 -0.09487678 -0.030399213 -0.04116392
0.16980287 -0.0061080214 -0.061604526 -0.027808268 -0.033106495 -0.0015473648 -0.115455166 -0.050206427
0.0008966932 0.0071477136 0.035395734 0.00659641 -0.05771508 0.0046983813 0.091798574 -0.07875552
0.08660049 0.028522851 0.040093333 -0.069657974 -0.0329632 0.0711467 -0.02178994 -0.074155085
-0.11390064 -0.06577137 -0.038080554 -0.036948014 -0.027408762 0.10897925 -0.022491584 0.07262188
-0.050850697 0.028966216 0.03710518 0.047564812 -0.11350278 -0.09374695 -0.009928205 -0.19279444
-0.020647444 -0.11770467 0.049904376 -0.016692318 -0.06328365 -0.0133970585 -0.014022267 -0.07975357
-0.018242884 -0.008761045 -0.07555092 0.0751263 -0.013080097 0.013573032 -0.025112478 -0.0026721202
0.0036298768 0.026140712 -0.109238915 -0.068731815 0.0825375 -0.027187496 -0.019468416 0.008576972
-0.0081593245 0.07062061 0.02708499 -0.018850414 0.04540692 -0.08202212 -0.075904444 0.032362405
-0.042627655 0.06639783 -0.07215336 0.041636735 -0.010564208 0.10123291 0.07969547 -0.021754168
0.017203782 -0.047918912 -0.11343797 0.026490204 -0.050852887 0.012684516 -0.08530033 -0.022329567
-0.05887826 0.059647836 -0.0023668772 0.15455359 -0.15631813 -0.05371384 0.01426328 -0.071825616
0.12060279 -0.07150355 -0.03157889 0.019532686 0.032963518 -0.06262675 6.601977e-05 0.0014390637
0.09146592 -0.08604269 -0.004048333 0.03936483 -0.11507974 0.1082452 -0.073963806 -0.09176937
0.05005567 0.025434328 -0.06800819 -0.0776243 0.110643655 0.01229418 0.06008981 -0.084344
-0.030435862 -0.08504459 0.029876588 0.013320632 -0.20585379 -0.073957056 -0.06324276 -0.011725383
-0.020518346 -0.19288695 -0.008774371 0.013097037 -0.07322091 -0.17633337 0.0509734 -0.023938369
-0.08854864 -0.058470838 -0.07355097 -0.045671828 -0.04721174 0.065730594 -0.019127494 0.07460857
0.13062495 -0.12823527 0.01658904 0.008491119 -0.007741461 0.034950282 0.00036996003 0.07273977
0.006832149 -0.0013817439 -0.06066859 0.028353166 -0.02365757 0.026559778 0.08220412 0.04063127
-0.07413289 0.18233839 0.03748089 -0.005187239 -0.082332276 0.073711224 0.06915533 -0.16201666
0.037573762 0.0036797498 -0.024602354 0.03495634 -0.08922392 0.037724607 0.07702424 0.028521452
-0.0391785 0.0051596602 0.009027498 -0.11664979 -0.09035382 -0.06507421 -0.10235786 -0.020534933
-0.0105131315 -0.064505555 -0.07234309 -0.014834096 0.06476562 -0.074980356 0.021490015 -0.08140867
0.054917652 0.053918205 -0.05252343 -0.09435804 -0.11351803 -0.03178914 0.041111536 -0.070326135
-0.08672025 -0.08393367 -0.08334496 -0.12935266 0.04947491 -0.058007102 0.07664237 -0.0046837125
-0.007856375 -0.010798497 -0.05694257 -0.045515627 -0.09545972 0.07172428 0.049489435 0.026283331
0.04293216 0.0515152 0.024836306 0.07542705 0.06153207 0.03077553 -0.07327489 -0.117283836
0.047151115 0.04577211 0.03456845 -0.02793324 0.07313021 0.09951874 -0.07320934 -0.005970211

fc.2.bias f4 [128]
00000000: 4ec9 3cbd c1a7 a03d 766f d5bd a2ed d4bc
00000010: 8978 783d c6b3 f0bd 9b77 ab3d de84 bcbc
00000020: b38a 603d e573 35bc 7de2 9c3c d745 b2bc
00000030: 3c04 de3c 3d21 96bc 9881 853d 14df 24bd
00000040: 19c4 923c 9a79 cebc 0baf 69b9 062d bebb
00000050: fc80 993d f7f0 643c 02dc b13d ba5c 4ebd
00000060: c828 d53c 93f7 02bd 62b7 0b3d 5fac 91bc
00000070: 5a5b 993d 15ab 01be c4b7 a73d 51f5 cb3c
00000080: bfa6 5bbd 62f4 d6bd 4f76 a23d 91e7 143d
00000090: 72a7 243d 495c c53d 97c3 cabd 2d84 72bd
000000a0: 63f6 013d c853 b23b 54e6 ab3d 9eb3 8f3d
000000b0: e4b4 c4bd b80d cbbd e414 803d cf0f 2c3d
000000c0: 4f8a ffbd 4173 a13d 6a72 cbbd 79c3 90bd
000000d0: d85f f13b 4fea 97ba 6a96 d03c 3c7c a0bc
000000e0: 3ccb cb3c e43e 5b3d d59c be3c 273f c3bd
000000f0: d4a2 b83d 4bb8 01bd 8fd4 c0bc 3675 6b3d
00000100: f056 bdbd e9d8 a93c 5503 d0bc f5ad fc3c
00000110: c264 b13b 242b bcba 87c1 db3d 0fa3 5b3d
00000120: 142a e43d 370e 8cbd 1d95 233d c8cc 0c3d
00000130: f634 8dbd c730 a23c 6aaf 3fbd cf52 91bd
00000140: 6a02 7ebd 6201 4ebd 7d45 76bd 2b5f bebd
00000150: aa5d 303d a69f 08bd b395 3ebd 5cb6 88ba
00000160: a898 82bd 5f4a bfbd 924e 52bd 6ad5 b93d
00000170: a183 72bd 352f dc3d c2a6 65bd 0e99 813d
00000180: 00f8 8c3d 30be 6a3d f948 eabd bf3b 74bc
00000190: 0592 babd d27e f53d e7b4 8e3d 401e 46bd
000001a0: 6bda f6bc 2a06 033d 87b9 e43d 3704 4cbd
000001b0: a142 2c3d cca4 213d 3437 903b d76f 8ebd
000001c0: 9279 7bbc fad1 d4bd 9754 d6bc 4a93 bcbd
000001d0: 19db 063c 1114 13bd f636 6cbc 7099 ce3d
000001e0: 3f53 10bd 4199 10bc 9914 8ebd 79bb 92bd
000001f0: dafb 53bb 9d9b 35bb d68a b3bc 1a23 9f3c
-0.046090417 0.078444965 -0.1042165 -0.025992218 0.060661826 -0.11753039 0.08372422 -0.023012575
0.054819774 -0.011074995 0.019150967 -0.021761818 0.027101628 -0.018326396 0.06518859 -0.040251806
0.017915772 -0.025204469 -0.0002228582 -0.005803707 0.07495305 0.013973466 0.08684541 -0.0503814
0.026020423 -0.031974386 0.034110434 -0.017782388 0.07488127 -0.12662919 0.081893474 0.02489725
-0.05362582 -0.10495831 0.07932722 0.03635365 0.04019875 0.096367426 -0.09900587 -0.059208084
0.031729113 0.0054421164 0.08393541 0.07016681 -0.09604815 -0.09914726 0.062539846 0.042007264
-0.12477552 0.07883311 -0.09933932 -0.070685335 0.007366162 -0.0011590215 0.025462348 -0.01959049
0.024877183 0.053526774 0.023268143 -0.0953353 0.09015432 -0.031669896 -0.023538856 0.057484828
-0.09245098 0.020733314 -0.025392214 0.030844668 0.0054136226 -0.0014356119 0.10730272 0.0536223
0.11140838 -0.06838649 0.039937127 0.034374982 -0.06894867 0.01979865 -0.046798147 -0.070958726
-0.06201402 -0.050294288 -0.060124863 -0.092954956 0.043058075 -0.033355378 -0.046529483 -0.0010430324
-0.06376773 -0.09340357 -0.05134446 0.090739086 -0.059207562 0.107511915 -0.056067236 0.06328021
0.0688324 0.057310283 -0.114397 -0.014906823 -0.09109882 0.1198708 0.06968098 -0.048368692
-0.030133447 0.0319883 0.11168199 -0.049808707 0.04205573 0.039463803 0.004401112 -0.069549255
-0.015348809 -0.10391612 -0.026163382 -0.09207781 0.008230948 -0.03590781 -0.014417401 0.1008786
-0.03523564 -0.008825601 -0.069375224 -0.07164664 -0.003234616 -0.002771116 -0.021916788 0.019425917

fc.4.weight f4 [128, 128]
00000000: 9893 f63c 7bcc 1cbe 31fd ed3c f0b8 a4bd
00000010: b78b 3ebd b5f8 9ebd eea9 1fbe 4395 c43d
00000020: f3ea e03d 81b3 39bd 0690 8e3d 1b0d 173e
00000030: e037 2fbe 1cbc 0ebd a43d eabd b0ef 323d
00000040: a144 3d3d d27d b03d c303 acbd 3981 0b3e
00000050: 646c 6e3d a207 913b 3c1c 7bbd f688 efbd
00000060: 7e72 0bbe 39e5 23be d182 a43c dfc3 293d
00000070: aec9 8cbd 12a0 283e 83b7 ea3d 0373 54bd
00000080: 4113 17bd c8ce bd3c a5ba 06be 673d 413d
00000090: 9dce 50be 3e4d 05be e01c 283d 6b9a 19be
000000a0: 50e0 1ebd 9bf3 db3d 444f 08bd 6cea a3bd
000000b0: b4d5 273d 13aa 4bbd ea25 89bd 01c5 c43d
000000c0: 8435 55bd 76b0 fbbd 223e c33e 3e85 96bd
000000d0: d9d9 5c39 b3d9 35bd 923d 063e 2a1b be3d
000000e0: f5d6 033e 54aa 0ebd 0bba 123e 8b05 8ebe
000000f0: 4155 22bd a391 fcbc 478e 5dbe 8575 2c3e
00000100: e9c2 243e cab5 853c 9d22 da3d 94d6 8c3d
00000110: 9690 713c 0b27 4cbd 69cb b1bd 5b3b 9ebc
00000120: e508 b4ba 18a3 093e a54f 9bbd f3cd fcbd
00000130: 166b 0d3e 0266 92bd 8b10 2cbd 34d8 67bd
00000140: 1136 893d a5b8 753d e050 a4bc 16a2 a8bd
00000150: 0b38 133d 871b 113e 6306 c43d 6672 84bd
00000160: d0c4 cfbd 2692 f13d 84dc f5bd d490 fdbc
00000170: 99a6 be3d 4ded 65bd d9bb 74bd a848 89be
00000180: e38d 91bd f060 e9bd 3017 a9bc 65ba f93d
00000190: 0228 023d 6a15 26be a2f3 953d 5f46 f23d
000001a0: 050f b4bd 48d0 7a3d f9d5 8e3d 5d47 4c3e
000001b0: 180a f13c 01c8 ac3d 4707 dabc 2542 c3bc
000001c0: 0408 6dbe e913 2c3e e128 e6ba 4dcb 8bbd
000001d0: e348 923e e113 a7bd 099d c23c 000d 5ebe
000001e0: a297 09bc 9892 673d 8f26 6dbb 306f 693d
000001f0: 9765 5ebd 0cd7 8f3e f0d9 0a3e 491f 82bd
00000200: 669c 883c 361d 23bb abfb f23c 71d3 0e3d
00000210: 8a89 1dbe 806f 243d 5e31 303d 86e3 da3b
00000220: c9e2 bf3d 39a1 963d a825 103e cb8f 9b3e
00000230: 69db 08be 14bd e8bd d186 9b3d 51ac ffbc
00000240: 99c7 26be 171e 613e 1266 e23d d78a c53c
00000250: 848c fcbc b53a e9bd a24f d53c 7da2 f4bc
00000260: e600 e4bd 3cfa 563d f6d9 0bbe 2167 98bd
00000270: 1691 2b3d 427f 35be 6d2c 04bd 16ef fdba
00000280: ea89 89bd ca6d a6bd 6461 323c 6182 b1bd
00000290: 9140 7e3c d4f4 63bd 7eb1 82bd 6203 0b3e
000002a0: 2476 893d f5fc b83c aadd d73d 825e eabc
000002b0: ab17 cebc 32b5 72bc 4ff6 8abd 8ec9 26bc
000002c0: 1c72 fbbc 61e1 9fbd 48f0 fabd 8d18 8fbd
000002d0: 5fc2 943d f89c d6bd ef5f 2ebe db0c 80bd
000002e0: cfe3 5b3d 053b 51bd 0681 d73d c76d b43d
000002f0: 65ae d0bc e196 ab3d 57cd 3cbe c767 843d
00000300: 3021 4ebe fe41 57be e74a 583c ff62 6ebe
00000310: 889e c3bd 34f2 993d 3b9d 4ebe e10b f4bd
00000320: c795 81bd fd6b 863d bb85 253d e935 66bc
00000330: 3d53 323e 54fa d43c ae96 84bd 452f 223d
00000340: 7d3f 58bd 09f1 66bd 90e6 bb3b 44d4 04bd
00000350: c7c5 84bd e075 1cbe 6d44 e83d a0bf 343d
00000360: 9fbe 083a 08bb 8fbd 8558 813e 1fc2 113e
00000370: 60bf 83bc 7199 85bd 9f0e 0c3e 05a3 b1bc
00000380: 61f6 5a3d c0e4 dfbc fedb 2cbe 9f85 5ebc
00000390: 58c1 51be 8241 0c3e 245f 20be f265 46be
000003a0: ed60 663d 360e 93bd 91c8 fdbd c86c 28be
000003b0: c88e 0a3d 425d c43d 63be 65be a03d c4bd
000003c0: e3bd 633d 0704 95bd a2ac 07bc e2ed bdbd
000003d0: 3e52 303d 2e15 bebd faa6 213e 9b02 c23d
000003e0: 0d9a 83bd 24fc 4f3e 4b3a f4bd 6e31 1bbe
000003f0: 1fe6 793c 5a04 57be c521 df3d 32fe f43c
0.030099675 -0.15312378 0.029051395 -0.080430865 -0.04651996 -0.07762281 -0.15592167 0.09598782
0.10982313 -0.045337204 0.06961064 0.14751093 -0.17111158 -0.034847364 -0.11437538 0.043685615
0.046208028 0.08617748 -0.08399155 0.13623513 0.058208838 0.0044259587 -0.061306223 -0.11696045
-0.13617894 -0.1600541 0.02008191 0.041446563 -0.06874405 0.16467312 0.11460783 -0.051867496
-0.036883596 0.02316989 -0.13157137 0.0471777 -0.20391317 -0.13017747 0.041043162 -0.15000312
-0.03878814 0.107398234 -0.03327872 -0.08003697 0.040975288 -0.049722742 -0.06696685 0.09607888
-0.05205299 -0.12289517 0.3813334 -0.07349633 0.0002106199 -0.044397067 0.13109425 0.09282525
0.12874968 -0.034830406 0.14328782 -0.27738604 -0.039632086 -0.030831164 -0.21636306 0.16841705
0.16089977 0.016322035 0.10651133 0.06876865 0.014743945 -0.04984192 -0.086813755 -0.019315412
-0.0013735561 0.13441122 -0.0758355 -0.12343969 0.13810381 -0.07148363 -0.042007964 -0.05660267
0.066997655 0.059990544 -0.020058095 -0.082340404 0.03594212 0.14170657 0.09571531 -0.06467132
-0.10144961 0.11795454 -0.12004951 -0.030952848 0.0930912 -0.05613451 -0.059749458 -0.26813245
-0.07107141 -0.113954425 -0.02064094 0.12193755 0.031776436 -0.16219106 0.0732186 0.118298285
-0.08791927 0.06123379 0.06974406 0.19949098 0.029423758 0.08436585 -0.026614798 -0.023835251
-0.23147589 0.1680447 -0.001755979 -0.06825886 0.28571233 -0.081580885 0.02375652 -0.21684647
-0.0083979685 0.056536287 -0.0036186313 0.056990802 -0.054296102 0.28093755 0.13559699 -0.063536234
0.01667614 -0.0024889237 0.02966102 0.034869615 -0.15384498 0.040145397 0.04301583 0.006679955
0.09369428 0.073549695 0.14076865 0.30383143 -0.13364948 -0.11364189 0.075940736 -0.031210097
-0.16287078 0.21984135 0.110546246 0.024114056 -0.030828722 -0.113881506 0.026038948 -0.029862637
-0.11132984 0.052484736 -0.13657364 -0.07441545 0.04188641 -0.17724326 -0.03226893 -0.0019373621
-0.06715758 -0.08126409 0.010887478 -0.08667446 0.0155183235 -0.05565341 -0.0638151 0.13575509
0.06711987 0.022581557 0.10540326 -0.028609518 -0.02515777 -0.014813708 -0.06785261 -0.01017989
-0.03069406 -0.078066595 -0.12252861 -0.069871046 0.07263636 -0.10479158 -0.17028783 -0.06252452
0.053684052 -0.051081676 0.10522656 0.08810001 -0.025473783 0.08378387 -0.18437706 0.064651065
-0.20129848 -0.21021268 0.013201452 -0.23279952 -0.09551722 0.075169 -0.20177166 -0.11916328
-0.06327396 0.06563566 0.04041074 -0.014050939 0.17414565 0.025998272 -0.06474052 0.03959586
-0.052794922 -0.056382213 0.0057342723 -0.032428995 -0.064830355 -0.1527934 0.11341176 0.04412806
0.0005216393 -0.07018095 0.25262848 0.14234208 -0.016082466 -0.06523407 0.13677453 -0.02168418
0.05345762 -0.027330756 -0.16880795 -0.013581662 -0.20483911 0.13696864 -0.15661293 -0.19374827
0.05624478 -0.07180445 -0.12391771 -0.16447747 0.033827573 0.095881 -0.22435908 -0.095820665
0.055601012 -0.07276159 -0.008280905 -0.09273888 0.043047182 -0.092813835 0.15786353 0.09473153
-0.06425867 0.20311028 -0.11925181 -0.15155575 0.015252619 -0.20997754 0.10895113 0.029906366

fc.4.bias f4 [128]
00000000: 82f2 afbd 6d1a 553c eb72 9ebd 9c4a d1bc
00000010: 9605 733b 9fde ca3d 699d 053e 1b7f 82bc
00000020: a2f9 563d 9bb9 8a3c d7bb 9d3d 88cf c43d
00000030: 6b5b 2fbd 17fa e0bc c078 b8bc 7036 2abd
00000040: 89b0 09bd 099e 573e d62c 80bd a899 dabc
00000050: 75ce e43d c20d 04be 115f a63c ff75 cfba
00000060: d3e9 cc3d 43b7 743c 6ce7 9dbc 5bf8 87bd
00000070: dbdb d83d 8580 3d3d 3a4e 963b 68f1 c9bd
00000080: db75 08bd 6f70 12bd 2a1e df3d 5cdc 0c3b
00000090: 6b93 11be 0a2c 8d3d 25fe 4abc f06b bcbc
000000a0: a420 013d f67a e7bc 5396 3a3d 462f 8bbd
000000b0: 8228 ec3c 1bec 443d ceb3 8ebc 209f 5e3d
000000c0: 60da ad3d fd0a f93d 97f6 8a3d bf1b 5e3d
000000d0: c3f7 9c39 3ac7 0dbd 33de a6bd b6a1 fbbd
000000e0: 2242 4d3d ee71 963d 4949 12bd 5d0e d9bc
000000f0: e55b 153d 27b5 7bbd 04c8 9abd b88d c1bd
00000100: ac13 5a3c 2034 3e3c ff73 71bd 89fa 29bd
00000110: e90d 6ebd e551 263e 45d8 a0bd b2fc 4fbd
00000120: 4ded 883d 1ba5 d2bd c013 d6bc 9aaa 97bd
00000130: addf 26bd 7d34 92bb 0ea5 953d 8b68 66bd
00000140: 5c7e 863b 2652 c83c 85ca b9bc 551a e13d
00000150: efbb 1fbe a5e3 673c 7649 0a3e 6880 57bd
00000160: c51e 37bd a61e 3f3d 1b33 8c3d 0133 c1bd
00000170: a490 343d f6a3 2dbe c111 c2bc 0f28 34bb
00000180: 9cd6 45bd a97a 973d 76ad 563d 9449 07bd
00000190: 1d0d a23d 1183 46bd dd56 16bc d67a ea3c
000001a0: eb82 863d 3245 6e3d 6699 7b3d 75c2 ba3c
000001b0: 5953 da3d 7d1e ee3c 5255 7e3d 5c9f d3bc
000001c0: 41c1 a63d fb1b 363d 6c81 2e3c c3e4 57bc
000001d0: 5c3d 62bd d2a9 03bd 438c 173e 21da 1ebb
000001e0: 5fbc 093d e3db 973d d916 3ebd f8da 63bd
000001f0: 6299 fa3c 472a edbd 6766 b93d a458 4abe
-0.085911766 0.013006789 -0.077367626 -0.025548272 0.0037082187 0.09905743 0.13048328 -0.01592975
0.052484162 0.016934207 0.07701843 0.09609896 -0.042811792 -0.027463002 -0.022518516 -0.041555822
-0.033615623 0.2105638 -0.06258552 -0.026684597 0.11172191 -0.12895873 0.020309003 -0.0015828012
0.10005536 0.014936271 -0.01927539 -0.06639167 0.10588809 0.046265144 0.004586962 -0.09860498
-0.03331552 -0.035751756 0.10894425 0.002149365 -0.14216392 0.068931654 -0.012389694 -0.023000687
0.03152527 -0.028256875 0.045553517 -0.06796126 0.02882791 0.04807673 -0.017419722 0.054350972
0.08488917 0.12160299 0.067853145 0.05422568 0.00029939236 -0.034613825 -0.0814785 -0.12286703
0.050111897 0.07345949 -0.03571442 -0.026496107 0.03646459 -0.061452057 -0.07557681 -0.09450859
0.013310354 0.011609107 -0.058948513 -0.041498695 -0.058118735 0.16242178 -0.0785375 -0.0507781
0.066858865 -0.102853976 -0.026132464 -0.074055865 -0.040740658 -0.0044618235 0.07306872 -0.056252044
0.0041044187 0.024453234 -0.022679577 0.109913506 -0.15599035 0.014153396 0.13504586 -0.052612692
-0.04470708 0.046660088 0.06845685 -0.09433556 0.044083253 -0.16957077 -0.023690106 -0.0027489697
-0.04830037 0.073964424 0.05241152 -0.033029154 0.079126574 -0.04846484 -0.009175983 0.028623026
0.06567939 0.05817146 0.06142559 0.022797802 0.106604286 0.029067272 0.062093087 -0.025832824
0.08142329 0.044460278 0.010650974 -0.0131771 -0.055234298 -0.032144375 0.147996 -0.0024238902
0.03362691 0.07414987 -0.046408508 -0.055628747 0.030590717 -0.115803294 0.09052735 -0.19760376

fc.6.weight f4 [4, 128]
00000000: 27b7 cdbe c5e2 543e d07a 25be 3a28 313e
00000010: 31c8 c23c af72 873d c4d6 9ab9 45d9 da3b
00000020: 3e87 ccbd 886f 1c3d 84c6 8c3d 2ca0 d03d
00000030: ab31 2bbe 9b12 b53d b6d8 60be 2847 e93d
00000040: 57e7 413d 8942 c73d 2c33 873d 565c a63d
00000050: ec65 38bd 0394 8b3d c3ca a43b 5d31 6b3b
00000060: 4d76 f93d e183 46be 8787 72be b1fc 70be
00000070: 0ed5 eb3d c8e0 db3d 66e1 623d 41cc 45ba
00000080: 62b1 afbc 8ef8 c9bd de43 113e 8fac e3bd
00000090: 3f70 60bd 10d7 973e b730 d7bc 2d09 703d
000000a0: eab6 ccbd ce9f 0c3e 22a7 a3bd e5f9 be3d
000000b0: ec59 64be cd35 883d 839b 823b 4e23 dbb9
000000c0: 2be9 34bc 035a f63d 2e38 bd3d a6f0 2c3e
000000d0: 21a8 be3d de62 143d ee9b 3bbe e0e4 87be
000000e0: 990b 053d 2ebe c43d 634c 8bbe e5cb 86be
000000f0: 15a5 b3be a328 d3bd a970 22be 74e4 39be
00000100: f311 a23c 7186 97bd a918 53be 1291 40be
00000110: fe17 53be a875 9dbd d1d8 d0bd a750 7b3d
00000120: 3bd0 7e3d f0b9 85bd 1567 363c 7a36 54be
00000130: 1ccf c53c d95c 033e 15c2 94be 1dfd ab3c
00000140: 69cb 6f3d db92 14be 1d92 173e f240 173a
00000150: 8ef8 26be f559 ff3c f48c 3d3e 4503 a7be
00000160: 935b 46bd bf19 1e3e 5b01 ad3d cc28 ecbd
00000170: cb2d 703d 68d9 07be cd5c 803d 7aee b3bd
00000180: 1798 96be 7e59 b03d 0711 03be 6f23 77bd
00000190: b9f9 063d 20f9 9c3d 21be 9bbc cebb 8c3d
000001a0: a3b1 39bd ccc6 b33d a33e da3d ff88 323d
000001b0: b6b9 793d ce61 cb3d 8a54 4fbd b783 8ebd
000001c0: 5804 903e 8d0e 593d cef4 723d 6e99 e43d
000001d0: 26f0 7ebd 3a26 c23d 14bf 9c3d ff00 4c3e
000001e0: 45cd d23d b970 bebc a78f 18be 33a9 2a3d
000001f0: 92dc b8bd b7cf 35be f013 d5be ae26 80be
00000200: 50f5 ed3b 5c0b 0fbd aeee 0b3d 5857 92bb
00000210: d21f 29be 971c 9cbd e4c4 bdbe b997 11bd
00000220: cb06 993d 761c 9b3d 0fe6 bebc 7767 193e
00000230: d118 5a3d 1f23 1e3c 7f21 abbc 1ef1 29bd
00000240: 6810 9bbe 8ee9 263c 3346 26be 1647 7abd
00000250: 8474 d5be 52b2 b23c 509b ac3d 2078 813d
00000260: aa19 8dbe 9b07 243d da52 8c3e 820b b6bc
00000270: 7af6 533e fc3c 90bd 651e 35be 36dd d6bd
00000280: f090 f23c 7fec 5ebd a4f1 febd 10f8 b13d
00000290: 0a4c 57bd e32c 6b3d ab4a 13be 4093 84be
000002a0: 8b2f 22bd 26cf 39be a55d 9bbd da23 b4bd
000002b0: 0b84 d43c 44c7 913d d849 853c 38e3 ecbd
000002c0: b570 843d 4488 523e b51c 2bbe 956b 2bbe
000002d0: 79c0 9a3b 1802 5ebc a192 223d 383e af3e
000002e0: 5fdb a63d 0707 48bd 7a9f c63d 1432 103e
000002f0: 93f3 a3be a2dc 46be 1f46 863d 41dc 8abd
00000300: 12ed 5b3d 38e8 08bd 4e4d 493d 7126 85be
00000310: 4751 7b3d 712d 833e 97fb b03b 88f1 fabd
00000320: 8bf9 233e 295e 0b3d ccc7 01be cebf 633e
00000330: b15b 113d 1edf 47be 8230 23be 08b0 0ebd
00000340: b3a8 bebe 106c 2dbd 50d9 c5ba bc0f a23d
00000350: bedc ff3d 6dd0 b2bd e097 983e e225 8fbd
00000360: 9c8b e1be c2d5 903c 30e9 94bd c2f7 83bc
00000370: 77ca b43d add0 afbd a042 ef3d 0772 83bd
00000380: d5c9 5a3c 71d5 673d a87a 2f3d 2935 69bd
00000390: 3b8d 04be 948b 92be 94e8 c73d 0aa6 19bd
000003a0: 7814 21bc 26cc abbe dd04 8bbd 7117 173d
000003b0: 2f7a 8b3d 095b 1f3d cde2 5dbd 9a99 96bd
000003c0: 03a2 17be 1033 6fbd 6079 e53c fe1f 363d
000003d0: 94e7 1cbd 1b50 91be cba3 db3d 4d3e 4f3b
000003e0: 1762 d9bc c258 dfbd ab66 ab3d b98c 0abd
000003f0: d1b8 1abc 4f7b c73d 13b7 ac3d 0459 d3bc
-0.40178797 0.2078963 -0.1616013 0.17300501 0.0237771 0.06613671 -0.00029533182 0.0066787326
-0.09986733 0.038192302 0.06873801 0.101868 -0.16718166 0.08841439 -0.21957669 0.11390525
0.047339763 0.097294874 0.06601557 0.081230804 -0.045019075 0.0681534 0.005029054 0.0035887577
0.12180767 -0.19386245 -0.23684512 -0.23533894 0.11515246 0.10736233 0.055390738 -0.000754539
-0.021446887 -0.09861861 0.14186046 -0.11116897 -0.054794546 0.29656267 -0.026268346 0.0586025
-0.099958256 0.13732836 -0.079908624 0.09325007 -0.22299927 0.06650887 0.0039858236 -0.0004179724
-0.01104192 0.12028887 0.09239231 0.16888675 0.09309412 0.0362271 -0.18321201 -0.26541805
0.032481764 0.096065864 -0.27206716 -0.26327434 -0.35086885 -0.10310485 -0.15863289 -0.18153554
0.01978395 -0.073986895 -0.20614876 -0.1880534 -0.20614621 -0.07688457 -0.101976044 0.061356213
0.062210303 -0.065296054 0.011132975 -0.20723906 0.024146609 0.12828387 -0.29054323 0.020994717
0.058543596 -0.14509146 0.14801832 0.00057698705 -0.16305754 0.031170825 0.185108 -0.32619682
-0.048427176 0.15439509 0.08447524 -0.11531219 0.05863742 -0.13266528 0.062677 -0.0878572
-0.2941291 0.08610819 -0.12799464 -0.060336526 0.032952998 0.07664704 -0.019011559 0.068717584
-0.045335423 0.08778152 0.10656478 0.04358768 0.060968123 0.09930764 -0.050617732 -0.06958716
0.28128314 0.052992392 0.059315495 0.11162077 -0.062240742 0.094799474 0.07653633 0.19922255
0.10293058 -0.02324711 -0.14898549 0.041665267 -0.090264454 -0.17755018 -0.41616774 -0.2502951
0.0072619095 -0.034922943 0.03416317 -0.0044659786 -0.16516045 -0.076226406 -0.37064278 -0.035545085
0.07471999 0.07573788 -0.02330306 0.14980875 0.053246323 0.009651928 -0.020889996 -0.041489713
-0.30285954 0.01018752 -0.16237716 -0.06110295 -0.41690457 0.021813545 0.08428061 0.0632174
-0.27558643 0.040046316 0.2740696 -0.022222284 0.20699492 -0.07042882 -0.17687376 -0.104914114
0.029610127 -0.05442476 -0.12448433 0.08689892 -0.05256275 0.057415854 -0.14383952 -0.25893593
-0.03959612 -0.18145427 -0.07586221 -0.08795901 0.02594187 0.07118085 0.016270563 -0.11566776
0.0646681 0.20559794 -0.1671017 -0.16740258 0.0047226516 -0.013550304 0.039690617 0.34227157
0.081473105 -0.048834827 0.096983865 0.14081603 -0.3202177 -0.19420102 0.06556343 -0.06780291
0.053692885 -0.033424586 0.04914599 -0.2600589 0.06135681 0.25620607 0.0054010856 -0.122531
0.16013162 0.034025345 -0.12673873 0.22241136 0.035487834 -0.19518706 -0.15936473 -0.034835845
-0.37238082 -0.042339385 -0.0015094671 0.07913157 0.12493275 -0.0873116 0.2980337 -0.069896474
-0.44051826 0.017680053 -0.072710395 -0.016109351 0.088276796 -0.085847236 0.116826296 -0.06418233
0.013353785 0.056600038 0.042841583 -0.056935463 -0.129445 -0.28622115 0.09761158 -0.037511863
-0.00983154 -0.3355419 -0.06788037 0.03688759 0.06810414 0.038905177 -0.054171372 -0.07353516
-0.14807896 -0.058398306 0.028011978 0.044464104 -0.038306788 -0.28381428 0.107246004 0.0031622828
-0.02653603 -0.10905601 0.08369192 -0.03382561 -0.009443478 0.09740316 0.08433356 -0.025799282

fc.6.bias f4 [4]
00000000: 93db db3d a5dc 983d 7148 d8bd a942 90bd
0.1073524 0.074639596 -0.10560692 -0.070439644
