model/lv2_bc_model_9.0.pth (torch, 244972 bytes, 8 tensors)

fc.0.weight f4 [128, 209]
-0.054896124 0.033985846 -0.019264504 0.05477955 0.019970989 0.0041846144 0.026629556 0.023887165
-0.0008568291 -0.009581088 0.028906697 -0.069187075 0.02130326 -0.017226905 -0.07050372 -0.082459606
-0.041098908 -0.08225036 0.015634881 0.028769348 -0.008206015 -0.022703879 -0.0008143877 -0.03487333
-0.02758906 0.035753805 -0.059746154 -0.056907296 0.02829049 -0.06636177 -0.033258777 -0.07398263
0.028312717 -0.018653162 0.02195292 -0.01902931 -0.012037065 -0.0792986 -0.007253348 -0.044032034
0.009004388 0.022842905 0.010461233 0.034610815 -0.009373099 -0.0034701498 -0.03195376 -0.010283015
-0.04753579 0.05489553 -0.016441813 0.05831774 -0.04215328 -0.049951833 0.064344205 0.0013764516
0.016010465 0.021330079 -0.02748268 0.027381321 0.017306766 -0.076903366 -0.049742658 0.0067088553
0.013315028 -0.06877052 0.014944865 -0.0053225 -0.032005366 0.0032727343 0.00087166356 0.010734195
-0.03172612 0.014908219 0.062376328 -0.02684133 -0.054803148 -0.065571636 -0.028182348 -0.023591407
0.042499315 0.00965392 0.035025712 0.015875611 0.0236313 -0.059424408 -0.07389802 -0.04991415
-0.060324878 0.026359228 -0.055069476 0.044932127 -0.011675529 0.01404523 -0.02929396 -0.038751177
-0.053257607 -0.018301805 -0.05041186 0.0074274796 0.022825582 -0.021758243 -0.023730868 -0.0043701413
-0.033098977 -0.06039975 -0.055749547 -0.035406616 0.029941699 -0.049109545 0.021379493 -0.06803084
-0.06349355 0.056286424 0.060588084 -0.05794488 -0.015767405 -0.055799965 -0.011061483 -0.06830507
-0.016413298 -0.0024336097 -0.05658576 -0.052408293 -0.0819096 -0.006644669 -0.04423837 -0.029855462
0.0059067453 0.018547162 0.034475643 -0.013142215 0.006820785 -0.039292756 0.04931265 -0.0053470433
0.010254459 0.046308722 0.035581548 -0.04477903 -0.026317727 0.04908049 -0.009537987 0.01458579
0.038076326 0.020045131 0.044078454 -0.06423534 0.024301197 -0.05455797 0.058559764 -0.06520676
-0.020878803 -0.07556124 0.019346364 0.04145692 -0.04604893 -0.014314843 -0.031538405 0.001016433
0.009805686 0.025769599 0.021825952 0.053337432 -0.0080984235 -0.0619839 -0.06850159 -0.027469397
-0.06687589 0.009020542 0.00887078 0.023537604 -0.06861612 0.055731405 0.0040887995 -0.061278887
-0.05879117 -0.049172487 -0.037909552 -0.0075820694 -0.02742922 -0.0430593 0.05340237 0.03100381
-0.07143851 -0.06333439 0.025457561 -0.047353897 0.012453814 0.011099544 0.0096774055 -0.036854114
-0.0010387086 -0.059570797 0.012948553 0.048979964 0.0077056405 -0.063081026 -0.016109532 0.026896609
0.0065643964 -0.03611425 -0.06799971 -0.044338524 -0.014376288 0.019203836 0.030129267 -0.028275413
-0.0070630983 -0.21296853 -0.14636828 -0.084199436 0.029506477 -0.056521576 -0.16493434 -0.082207695
0.051204614 -0.12126358 -0.052936617 -0.027483396 -0.02185709 -0.017326826 -0.008317252 0.037492
-0.08501321 0.038557976 -0.04836274 -0.014169193 0.03272915 0.026793174 0.035613358 -0.030046241
0.044699278 -0.02033639 0.010310504 0.025329791 -0.008471208 -0.0136855645 0.019692814 0.015293867
-0.011960567 -0.07056868 -0.016932707 -0.014259868 0.013104063 -0.029819906 -0.018428437 -0.0032776864
0.01349024 0.032739732 0.005928453 0.033732135 0.045526866 0.0688916 0.026341714 -0.007623191
00000000: c2da 60bd be34 0b3d 98d0 9dbc 8560 603d
00000010: 339a a33c 171f 893b 3a26 da3c 04af c33c
00000020: d49c 60ba fff9 1cbc bdcd ec3c f4b1 8dbd
00000030: 2d84 ae3c 701f 8dbc 4164 90bd 95e0 a8bd
00000040: 5457 28bd e072 a8bd b914 803c b2ad eb3c
00000050: 8672 06bc 7cfd b9bc a27c 55ba 56d7 0ebd
00000060: 7402 e2bc 9572 123d 62b8 74bd a017 69bd
00000070: 75c1 e73c aee8 87bd 5b3a 08bd 3584 97bd
00000080: 12f0 e73c 84ce 98bc 9cd6 b33c 5be3 9bbc
00000090: 1c37 45bc 4e67 a2bd 7ead edbb ef5a 34bd
000000a0: 2487 133c 0b21 bb3c 9765 2b3c 12c4 0d3d
000000b0: a091 19bc 746b 63bb f2e1 02bd 177a 28bc
000000c0: e3b4 42bd 23da 603d fbb0 86bc 95de 6e3d
000000d0: eba8 2cbd 4b9a 4cbd e5c6 833d 0d6a b43a
000000e0: 6128 833c 6bbc ae3c 5b23 e1bc cb4e e03c
000000f0: ebc6 8d3c 837f 9dbd f5be 4bbd f5d5 db3b
00000100: 4627 5a3c 8fd7 8cbd 4fdb 743c 5e68 aebb
00000110: 0f18 03bd 5f7b 563b 5a80 643a 7ade 2f3c
00000120: 3ff3 01bd 9a41 743c 527e 7f3d 59e2 dbbc
00000130: 4479 60bd 6c4a 86bd abde e6bc c442 c1bc
00000140: c313 2e3d 7a2b 1e3c 1f77 0f3d 920d 823c
00000150: 6e96 c13c 0267 73bd d857 97bd c872 4cbd
00000160: 3817 77bd 4fef d73c 8890 61bd c00a 383d
00000170: b84a 3fbc f71d 663c e3f9 efbc 8eb9 1ebd
00000180: a624 5abd abed 95bc ab7c 4ebd 3762 f33b
00000190: b7fc ba3c 583e b2bc 3d67 c2bc 6733 8fbb
000001a0: cb92 07bd ba65 77bd a359 64bd 8706 11bd
000001b0: 4b48 f53c 1727 49bd 0c24 af3c c153 8bbd
000001c0: e808 82bd 988c 663d 362b 783d 9c57 6dbd
000001d0: a52a 81bc 818e 64bd 393b 35bc 87e3 8bbd
000001e0: 2e75 86bc 327d 1fbb 78c6 67bd 14aa 56bd
000001f0: 38c0 a7bd 86bb d9bb 4b33 35bd 7193 f4bc
00000200: 5f8d c13b 38f0 973c 5536 0d3d 7252 57bc
00000210: e480 df3b 71f1 20bd 10fc 493d 4036 afbb
00000220: 5202 283c 37ae 3d3d f5bd 113d 376a 37bd
00000230: 4698 d7bc a008 493d 3845 1cbc 3df9 6e3c
00000240: ecf5 1b3d b035 a43c 9c8b 343d d18d 83bd
00000250: 4e13 c73c 2e78 5fbd 5ddc 6f3d 1f8b 85bd
00000260: 060a abbc dabf 9abd 447c 9e3c bbce 293d
00000270: ce9d 3cbd ce88 6abc 6a2e 01bd d539 853a
00000280: 07a8 203c c41a d33c 57cc b23c 5a78 5a3d
00000290: 40af 04bc d4e2 7dbd 904a 8cbd 8007 e1bc
000002a0: 3af6 88bd e5ca 133c bf56 113c efd1 c03c
000002b0: 9c86 8cbd 9d46 643d 56fb 853b 92ff 7abd
000002c0: 03cf 70bd 1769 49bd 0c47 1bbd 0273 f8bb
000002d0: 3eb3 e0bc f35e 30bd 72bc 5a3d b4fb fd3c
000002e0: 5b4e 92bd 76b5 81bd 608c d03c 29f6 41bd
000002f0: 150b 4c3c ddda 353c fb8d 1e3c 57f4 16bd
00000300: 4725 88ba 8200 74bd 2b26 543c 379f 483d
00000310: 997f fc3b a030 81bd 23f8 83bc 4756 dc3c
00000320: 261a d73b 89ec 13bd 6f43 8bbd 509c 35bd
00000330: 868a 6bbc 5d51 9d3c a7d1 f63c d7a1 e7bc
00000340: 9071 e7bb 6c14 5abe 91e1 15be c170 acbd
00000350: 91b7 f13c 2b83 67bd 8ce4 28be 825c a8bd
00000360: eebb 513d 0a59 f8bd 11d4 58bd dc24 e1bc
00000370: a40d b3bc fdf0 8dbc 1545 08bc 3691 193d
00000380: 681b aebd f8ee 1d3d 0218 46bd e725 68bc
00000390: 000f 063d 5c7d db3c 50df 113d 8923 f6bc
000003a0: 9716 373d 8098 a6bc 63ed 283c 6c80 cf3c
000003b0: d2ca 0abc 6b39 60bc d352 a13c 2193 7a3c
000003c0: 41f6 43bc 5086 90bd 76b6 8abc 39a2 69bc
000003d0: 6db2 563c e048 f4bc 3cf7 96bc 74ce 56bb
000003e0: 2b06 5d3c 191a 063d 7843 c23b b52a 0a3d
000003f0: 617a 3a3d 0a17 8d3d 94ca d73c f6cb f9bb

fc.0.bias f4 [128]
-0.04149928 -0.0022088033 -0.04992027 -0.008266726 -0.017624652 0.0034392248 -0.012892965 0.06265425
-0.043449942 0.040170453 0.018537091 0.056154363 -0.008410948 -0.085428596 0.04344339 0.041332826
-0.029677782 0.04105571 -0.05345702 -0.0050235214 -0.008163797 0.0032666198 0.042994194 -0.0029408387
0.0402807 -0.024584476 0.0028108386 0.035748113 -0.042881828 0.04618586 0.031162031 0.022229785
-0.040988754 0.014063448 0.021825437 -0.05898521 0.050749052 -0.049804855 0.0006857351 0.015213645
-0.028515408 -0.010943106 0.043152872 0.05279691 0.021531146 -0.020495588 -0.009404707 0.020424545
0.058708843 -0.008170996 -0.04712111 0.050193515 0.05434141 0.015008999 -0.026807357 -0.03143191
-0.065632075 0.064729184 -0.030587547 -0.072734304 -0.035270084 0.034555167 0.02477708 -0.0063315
-0.040611487 0.04009734 -0.014936479 -0.060600705 -0.03847896 0.019654911 -0.025639186 -0.06378098
-0.062897995 -0.046621792 -0.003446269 0.013506076 0.029981617 -0.060270283 -0.005079164 0.039944503
0.02144697 0.05486058 0.036804836 0.053776246 -0.0152712455 0.06169239 0.06945276 -0.046965882
0.05414051 0.01642643 0.05304013 -0.028803281 -0.009219269 -0.040019225 -0.045827728 0.018849606
0.053006552 -0.048053652 -0.07094313 -0.05144597 0.04323919 0.06292576 -0.045418974 -0.053490367
0.042588364 -0.0028195842 -0.046718527 -0.068456925 -0.05607042 -0.0044464027 -0.07565226 -0.049174566
-0.028916007 -0.049045756 -0.05713576 0.03596194 0.021145271 -0.020921955 -0.055357873 0.039730012
0.0639092 -0.021593591 -0.054818384 -0.04950486 0.04605622 -0.036045108 -0.06579246 0.05505714
00000000: 26fb 29bd 92c1 10bb 3279 4cbd 2971 07bc
00000010: 9361 90bc 9e64 613b 043d 53bc df50 803d
00000020: 91f8 31bd c689 243d 19db 973c 1e02 663d
00000030: 13ce 09bc 30f5 aebd b2f1 313d 9c4c 293d
00000040: d21e f3bc 082a 283d c0f5 5abd 5a9c a4bb
00000050: 72c1 05bc c914 563b ae1a 303d 16bb 40bb
00000060: 60fd 243d 6265 c9bc 0c36 383b 9d6c 123d
00000070: dba4 2fbd 622d 3d3d 8447 ff3c 3d1b b63c
00000080: d3e3 27bd 606a 663c 42cb b23c 7a9a 71bd
00000090: 3dde 4f3d 2d00 4cbd e7c2 333a a742 793c
000000a0: 2599 e9bc b74a 33bc 11c1 303d 9341 583d
000000b0: 1662 b03c 5de6 a7bc 3316 1abc 6051 a73c
000000c0: af78 703d a4df 05bc 1102 41bd b797 4d3d
000000d0: 1995 5e3d 4ee8 753c 1a9b dbbc bfbe 00bd
000000e0: 1c6a 86bd bc90 843d bc92 fabc b9f5 94bd
000000f0: 5d77 10bd b889 0d3d 4ef9 ca3c 7978 cfbb
00000100: 3b58 26bd 1c3d 243d 22b8 74bc 7238 78bd
00000110: 1d9c 1dbd 5603 a13c 4509 d2bc 9a9f 82bd
00000120: aad0 80bd 7ef6 3ebd cdda 61bb 9748 5d3c
00000130: 029c f53c f9dd 76bd 1e6f a6bb d99c 233d
00000140: 8eb1 af3c 7db5 603d abc0 163d 7b44 5c3d
00000150: 3f34 7abc 29b1 7c3d 403d 8e3d 4c5f 40bd
00000160: 70c2 5d3d b890 863c 9b40 593d dcf4 ebbc
00000170: 6b0c 17bc 33eb 23bd dbb5 3bbd 7d6a 9a3c
00000180: 661d 593d e8d3 44bd a24a 91bd 02b9 52bd
00000190: 941b 313d 39df 803d 3f09 3abd b718 5bbd
000001a0: 2371 2e3d c6c8 38bb ed5b 3fbd 2533 8cbd
000001b0: 19aa 65bd 21b3 91bb 92ef 9abd 456b 49bd
000001c0: 43e1 ecbc 34e4 48bd 3007 6abd d44c 133d
000001d0: d938 ad3c 8564 abbc f0be 62bd f0bb 223d
000001e0: d4e2 823d 0be5 b0bc 3e89 60bd 9cc5 4abd
000001f0: 72a5 3c3d 09a4 13bd 33be 86bd 9883 613d

fc.2.weight f4 [128, 128]
-0.054505523 -0.058150582 0.2695718 0.011641291 0.023414334 0.02172441 -0.065723 0.13446005
-0.044037055 0.032063317 -0.06936865 0.037259728 -0.12596901 0.17010766 -0.04808374 -0.028153878
-0.062148463 0.14913337 -0.12611395 0.008620231 0.0071426146 0.008995726 -0.10177589 0.042025767
-0.012288241 -0.0051577077 0.0038339857 0.011500343 0.017054075 -0.010235372 -0.03536719 0.009034658
0.026016576 0.048717882 -0.092094004 0.07977335 0.05021855 -0.07250017 -0.06899667 -0.105093785
-0.008583158 -0.0054207565 0.06804151 -0.056693286 -0.03496142 0.16330084 0.047690455 -0.11424383
0.02341488 -0.07111873 -0.016056126 -0.010999698 0.04968369 0.15275945 0.079340294 -0.10704333
0.108342774 -0.056341518 -0.041916918 0.01257317 0.0679776 -0.086988404 0.018510198 -0.12060217
-0.016541168 -0.06754061 0.04054676 -0.023190003 -0.013071207 -0.0712284 0.039219104 0.06409804
0.041869216 0.1849343 -0.110347494 0.0046019764 -0.023278024 -0.046481203 0.07451861 -0.088505164
0.036418002 0.04329217 0.044547144 -0.0018486289 0.09314997 0.01891225 0.10100995 0.0526018
0.043258637 0.054276284 0.08940469 0.03316625 -0.02631972 0.13124283 -0.025570337 -0.20751333
0.0819052 -0.10188158 0.10143024 0.035797823 0.06707557 -0.06611625 -0.09332512 0.18209225
-0.036786065 -0.10301868 0.013676405 -0.06138753 -0.043569747 0.040050793 0.01796895 -0.10707359
-0.09910089 -0.090951994 -0.0016152024 -0.058236744 0.03685895 -0.09175084 0.022096211 -0.07349984
0.038286246 -0.15819545 0.015689742 0.10068846 0.028113684 0.046298042 0.10679107 0.06899115
0.07977109 -0.03927811 -0.027058147 -0.03329638 -0.08315094 -0.101142995 0.009806507 -0.055034317
-0.05672175 -0.005906611 -0.017223846 -0.005849561 -0.05011694 0.05768869 0.035504255 -0.0771913
-0.047484092 0.048886742 -0.07406581 0.06622454 0.034203753 0.04244592 -0.09638488 -0.00089090195
-0.011009325 0.02093218 0.03546555 -0.059526704 0.035075843 -0.0132434685 0.053801853 -0.038413167
-0.09339348 -0.065797925 -0.016579283 -0.031945143 0.016709076 -0.013700625 -0.102045685 -0.0095771905
0.046609413 -0.03389212 -0.06466767 0.0045159813 -0.025960984 -0.049793337 -0.09676101 0.04360201
-0.058355637 -0.0444277 -0.044699892 -0.03290342 0.012336259 -0.08513574 -0.02138552 -0.1094229
0.0048517594 -0.10261561 -0.08362566 -0.075304024 -0.03136379 0.035370532 -0.007950908 -0.06287891
-0.04772413 0.021407874 -0.10595402 0.08312648 0.037362058 0.017436074 -0.032809336 0.014298522
-0.05306854 0.012170038 -0.005928645 -0.062382955 0.07480076 -0.019217506 -0.07809144 -0.070459776
0.008535796 -0.05129112 0.0012843447 0.021112224 -0.07406026 -0.038982347 0.10819521 -0.08834615
0.022427332 -0.027434533 0.005883214 0.029609978 0.038666848 -0.068230495 0.033340342 -0.026808357
-0.0005233991 -0.10059034 0.034012448 -0.03752304 -0.033920582 0.06479161 0.028135581 0.015822776
-0.01069064 0.061274067 0.011252781 0.059444495 0.061217368 -0.008314611 0.049165897 0.014101425
-0.039466117 0.04686245 0.05552424 0.057108425 -0.081297114 -0.050559126 0.030066961 0.009993553
-0.0444947 0.008154702 0.017801445 -0.036831338 -0.048635744 -0.11569287 0.001933226 0.0006014882
00000000: 2f41 5fbd 4e2f 6ebd 5105 8a3e 1dbb 3e3c
00000010: 6bcf bf3c 64f7 b13c c899 86bd e5af 093e
00000020: 3360 34bd d354 033d 2711 8ebd a89d 183d
00000030: 05fe 00be b430 2e3e 75f3 44bd f6a2 e6bc
00000040: 638f 7ebd 6bb6 183e 0424 01be df3b 0d3c
00000050: 980c ea3b cf62 133c e16f d0bd 3623 2c3d
00000060: 9e54 49bc fd01 a9bb 9b43 7b3b ef6b 3c3c
00000070: fdb4 8b3c 43b2 27bc 30dd 10bd 1a06 143c
00000080: b720 d53c 678c 473d c89b bcbd 3660 a33d
00000090: f7b1 4d3d f87a 94bd 204e 8dbd 693b d7bd
000000a0: 60a0 0cbc 9aa0 b1bb 5959 8b3d 3837 68bd
000000b0: b533 0fbd 5638 273e 1157 433d abf8 e9bd
000000c0: 90d0 bf3c b2a6 91bd 2388 83bc 1438 34bc
000000d0: 2081 4b3d f96c 1c3e 2a7d a23d 8939 dbbd
000000e0: d1e2 dd3d 5dc6 66bd 13b1 2bbd b2ff 4d3c
000000f0: d737 8b3d fa26 b2bd b3a2 973c 45fe f6bd
00000100: 5881 87bc bb52 8abd 5c14 263d f6f8 bdbc
00000110: 9e28 56bc 32e0 91bd 36a4 203d d545 833d
00000120: 0e7f 2b3d 6b5f 3d3e defd e1bd 2dcc 963b
00000130: 8eb1 bebc 1363 3ebd 379d 983d 3242 b5bd
00000140: 0b2b 153d 2153 313d 1177 363d b14d f2ba
00000150: 69c5 be3d dded 9a3c 4ede ce3d fc74 573d
00000160: f82f 313d cf50 5e3d ce19 b73d 55d9 073d
00000170: 749c d7bc 8564 063e e278 d1bc 607e 54be
00000180: eabd a73d 4aa7 d0bd a8ba cf3d bda0 123d
00000190: eb5e 893d f567 87bd 3e21 bfbd 6476 3a3e
000001a0: fcac 16bd 75fb d2bd 0013 603c 7e71 7bbd
000001b0: 3176 32bd 4d0c 243d 9f33 933c 6649 dbbd
000001c0: 68f5 cabd 0a45 babd 33b5 d3ba a789 6ebd
000001d0: 69f9 163d dde7 bbbd 1d03 b53c 1687 96bd
000001e0: 0ad2 1c3d fdfd 21be c687 803c c035 ce3d
000001f0: ab4e e63c 04a3 3d3d 47b5 da3d 3b4b 8d3d
00000200: 065f a33d 15e2 20bd 0ca9 ddbc c961 08bd
00000210: 0a4b aabd 0f24 cfbd 79ab 203c aa6b 61bd
00000220: 1155 68bd 3f8c c1bb 0619 8dbc adad bfbb
00000230: 6c47 4dbd fa4a 6c3d e96c 113d 7916 9ebd
00000240: ae7e 42bd 773d 483d d1af 97bd bba0 873d
00000250: 3c19 0c3d c6db 2d3d 7065 c5bd 6b8b 69ba
00000260: 7560 34bc f779 ab3c 5344 113d 46d2 73bd
00000270: b0ab 0f3d 22fb 58bc 555f 5c3d 2057 1dbd
00000280: 1545 bfbd 10c1 86bd 47d1 87bc e9d8 02bd
00000290: 79e1 883c 9678 60bc 54fd d0bd a6e9 1cbc
000002a0: 83e9 3e3d 77d2 0abd 7c70 84bd ccfa 933b
000002b0: 21ac d4bc 19f4 4bbd a32a c6bd 0598 323d
000002c0: 5206 6fbd d2f9 35bd 3c17 37bd bdc5 06bd
000002d0: 051e 4a3c a65b aebd b030 afbc 1d19 e0bd
000002e0: 82fb 9e3b 2228 d2bd ee43 abbd ff38 9abd
000002f0: 5177 00bd b1e0 103d 8644 02bc a8c6 80bd
00000300: 617a 43bd 915f af3c 6cfe d8bd 373e aa3d
00000310: f508 193d 19d6 8e3c 1563 06bd 5944 6a3c
00000320: 665e 59bd d764 473c 1445 c2bb 4585 7fbd
00000330: 2431 993d 086e 9dbc 68ee 9fbd 374d 90bd
00000340: b9d9 0b3c a316 52bd 7557 a83a 8bf3 ac3c
00000350: e8ac 97bd f4ab 1fbd 7395 dd3d d4ee b4bd
00000360: 86b9 b73c 63be e0bc fac7 c03b a090 f23c
00000370: 2161 1e3d 6ebc 8bbd e28f 083d 339d dbbc
00000380: b834 09ba 4f02 cebd a350 0b3d c2b1 19bd
00000390: 4ff0 0abd 77b1 843d 977c e63c c49e 813c
000003a0: cb27 2fbc 84fa 7a3d 965d 383c 127c 733d
000003b0: 10bf 7a3d 023a 08bc 2e62 493d aa09 673c
000003c0: 39a7 21bd d7f2 3f3d 636d 633d 86ea 693d
000003d0: 1a7f a6bd 1617 4fbd fd4e f63c 00bc 233c
000003e0: 1340 36bd 4d9b 053c 56d4 913c 75dc 16bd
000003f0: 4636 47bd 62f0 ecbd 4d64 fd3a 31ad 1d3a

fc.2.bias f4 [128]
0.03986087 -0.056930277 -0.09355342 0.03353554 -0.04567642 0.048027743 0.039961614 0.018308574
-0.042325664 0.018445708 -0.019380258 -0.043532353 -0.030811297 -0.027659766 -0.074542314 -0.07311068
-0.033871792 0.070426814 -0.02159626 -0.03503988 0.029774707 -0.066080526 0.0033665232 -0.023729863
-0.0682013 -0.016546136 -0.040042978 -0.06962627 -0.05126727 0.08542205 -0.07421806 0.00284844
-0.008478929 0.08994963 0.054749552 -0.08799017 0.079113096 0.028440293 0.009370256 0.052697267
0.03869297 -0.073487125 0.07572095 -0.0075632674 -0.08359269 0.08506064 -0.03292926 0.046312176
-0.042728372 -0.011755612 0.01033312 -0.076865606 0.022504041 -0.01373176 0.004320937 -0.12093589
-0.08437838 -0.066209294 -0.024712754 -0.012637133 0.022716358 0.11304402 -0.08772289 -0.06669848
0.013713449 0.03851827 0.031290382 -0.05869085 0.04265311 -0.003023849 0.029381586 0.021433918
0.00491628 0.08826441 -0.008720535 0.03162384 0.0099509545 0.02944426 0.08653503 -0.06204613
0.033590637 -0.03977299 -0.021582585 -0.040068336 -0.06547762 -0.018262211 -0.036081057 -0.03318182
0.037708487 -0.012151437 -0.031481277 0.001131606 -0.12103973 0.06814861 -0.09733881 -0.040520955
-0.06514458 0.021950884 0.046666037 0.08322812 0.030938186 -0.00413113 0.032977995 -0.092356
-0.008618086 -0.0571794 0.04665558 -0.023388663 -0.09012814 -0.03543654 -0.032024346 0.020715486
0.037898604 0.02552105 -0.031969942 0.034822866 -0.028188366 0.03839037 -0.066209726 0.022584585
-0.057852298 0.060100656 0.036252115 0.0021955715 -0.09908788 0.030683842 0.03596974 0.048958626
00000000: 2745 233d b92f 69bd ef98 bfbd 905c 093d
00000010: 3317 3bbd bdb8 443d caae 233d ddfb 953c
00000020: ad5d 2dbd 741b 973c 59c3 9ebc fb4e 32bd
00000030: f967 fcbc bc96 e2bc a4a9 98bd 0dbb 95bd
00000040: 26bd 0abd ef3b 903d a4ea b0bc fa85 0fbd
00000050: 16ea f33c 3a55 87bd e3a0 5c3b 2165 c2bc
00000060: 20ad 8bbd c38b 87bc 1b04 24bd 3898 8ebd
00000070: a1fd 51bd c1f1 ae3d a3ff 97bd e5ac 3a3b
00000080: 35eb 0abc 8337 b83d 1141 603d 3134 b4bd
00000090: 0c06 a23d 9efb e83c b485 193c 17d9 573d
000000a0: 857c 1e3d 6b80 96bd 9613 9b3d 49d5 f7bb
000000b0: a532 abbd 4634 ae3d d5e0 06bd d6b1 3d3d
000000c0: f203 2fbd 9c9a 40bc 3f4c 293c b76b 9dbd
000000d0: 655a b83c 2dfb 60bc a696 8d3b 3cad f7bd
000000e0: 92ce acbd bd98 87bd 6772 cabc fa0b 4fbc
000000f0: a817 ba3c a083 e73d 0fa8 b3bd 3699 88bd
00000100: 60ae 603c 55c5 1d3d 582a 003d d165 70bd
00000110: 07b5 2e3d c52b 46bb a7b1 f03c 2f96 af3c
00000120: bf18 a13b f9c3 b43d 93e0 0ebc 0088 013d
00000130: 5409 233c 1735 f13c 4739 b13d 1524 7ebd
00000140: 5696 093d 01e9 22bd f6cd b0bc b21e 24bd
00000150: 2119 86bd a29a 95bc bbc9 13bd a9e9 07bd
00000160: 3774 1a3d d216 47bc 83f2 00bd 6652 943a
00000170: aee3 f7bd 8091 8b3d 9259 c7bd 4df9 25bd
00000180: 866a 85bd 57d2 b33c e324 3f3d 8173 aa3d
00000190: 1472 fd3c 6e5e 87bb ef13 073d 2425 bdbd
000001a0: df32 0dbc f234 6abd ec19 3f3d 9599 bfbc
000001b0: 1a95 b8bd e825 11bd f62b 03bd 86b3 a93c
000001c0: 913b 1b3d 8511 d13c eaf2 02bd 6ca2 0e3d
000001d0: 4aeb e6bc 383f 1d3d f798 87bd 4f03 b93c
000001e0: 88f6 6cbd 1b2c 763d 197d 143d 94e3 0f3b
000001f0: 96ee cabd ae5c fb3c 0255 133d d788 483d

fc.4.weight f4 [128, 128]
-0.13591455 -0.035009656 0.09344285 0.06285454 -0.02966196 -0.016907478 0.04702857 0.10285622
-0.07097512 -0.07864046 -0.12914746 -0.013443333 0.115288354 0.036408324 -0.022801155 0.1029026
0.012601159 0.06765605 -0.018609514 -0.08817201 0.08606554 0.010684361 -0.094732404 -0.0329851
0.07074933 -0.012275512 0.023595115 0.06184319 -0.040924516 0.09231502 0.08299234 0.052868865
0.10184857 0.09586198 0.10811531 -0.067958266 0.043101806 -0.09119297 0.06574107 0.01861311
0.11471589 0.08049301 -0.024121182 0.029565068 -0.038165256 -0.00037496386 0.08896507 -0.016669355
-0.09154823 -0.05098166 0.11307229 0.057368755 0.076270774 -0.027591437 0.26868975 -0.06439426
-0.008027571 0.07183072 0.11562281 -0.0310673 0.022941625 0.07311073 -0.024498336 0.09227997
0.08995426 0.123911425 -0.035462677 0.06238986 -0.06727682 -0.13164973 -0.017485548 0.08412078
0.088400505 -0.033467002 -0.045447707 -0.006907529 -0.042291988 0.022852426 0.07017468 -0.08389269
0.0893274 -0.19916426 0.07828944 0.059835676 -0.016024977 -0.17773186 0.10895906 0.056923974
0.07640293 0.14480014 -0.0032246262 -0.07547519 0.043403722 0.08130071 -0.06564074 -0.00291515
0.14293924 -0.08885273 0.022885226 -0.0896652 -0.13376525 -0.07146778 0.024822263 0.041891
-0.056317266 0.061860345 -0.10586933 0.056423265 0.06321355 -0.089833885 0.031031393 0.02829502
-0.03016676 0.06213367 0.12474974 0.0144898705 0.10527892 0.060277406 -0.06915517 0.028447328
0.06364383 -0.05203337 0.04410928 -0.06455413 -0.041104283 0.188033 -0.007344052 0.03749478
-0.19088942 -0.048017815 0.07178471 -0.1587831 -0.016698329 -0.022460502 0.05315829 0.14574535
-0.02423113 -0.12469258 -0.14540608 0.006322948 -0.04196371 -0.09442728 0.041277915 -0.060728934
-0.06419363 0.18475215 0.0679569 0.015421206 -0.08423901 -0.12595433 -0.081512 -0.09497872
-0.09030175 -0.083194956 0.03118946 -0.041744683 0.09659627 0.034992676 0.06250716 -0.02967183
-0.023609594 -0.14162907 -0.03176828 -0.08548053 0.19358587 0.030778723 0.037962798 -0.06354094
-0.0546684 -0.073150024 0.16566655 0.07561544 0.05015034 0.050796133 -0.10464817 -0.08373278
-0.11476246 -0.28631344 0.08504381 0.08651088 0.06099282 -0.084021136 0.017117105 -0.013551274
-0.12328559 0.03190652 0.1349831 -0.11860591 -0.08825079 -0.06707449 -0.010946933 0.11900642
0.00286136 -0.20599473 -0.12137928 -0.01917054 -0.00078117795 -0.09087667 -0.04956917 -0.11285394
-0.0135272 -0.071421154 -0.024940806 0.15205912 -0.19594578 -0.019788062 0.005234356 -0.027656145
0.009820053 -0.047102787 -0.024846606 0.09330271 0.17043069 -0.071014 -0.11366807 -0.055677462
0.15230095 0.05685291 -0.1300972 -0.14455813 0.020613085 -0.011954389 -0.05906969 0.04784812
-0.09848055 0.053235438 0.016218416 0.1084213 -0.21147755 -0.011747145 0.10631386 0.028463727
-0.012927057 -0.17320548 -0.0041095954 0.05594036 -0.03740347 -0.027464457 0.06510007 -0.018856416
0.044772133 -0.006959499 0.04838676 -0.23114154 0.035819106 -0.07550521 0.012287056 -0.20683837
0.011897935 0.08449414 -0.038583264 0.05609658 0.107254446 -0.13832615 -0.19549806 0.10477163
00000000: 2f2d 0bbe 4966 0fbd f75e bf3d e2b9 803d
00000010: a4fd f2bc 8d81 8abc 08a1 403d 48a6 d23d
00000020: 675b 91bd 400e a1bd 3b3f 04be 6d41 5cbc
00000030: 4d1c ec3d e520 153d 7dc9 babc 99be d23d
00000040: 1775 4e3c 418f 8a3d fb72 98bc 8793 b4bd
00000050: 2143 b03d 750d 2f3c 1003 c2bd 621b 07bd
00000060: 06e5 903d 3b1f 49bc 8b4a c13c 494f 7d3d
00000070: 77a0 27bd a80f bd3d e3f7 a93d 068d 583d
00000080: fc95 d03d 4953 c43d 8f6b dd3d b42d 8bbd
00000090: 858b 303d 61c3 babd 41a3 863d 857a 983c
000000a0: 2af0 ea3d 85d9 a43d c999 c5bc 7132 f23c
000000b0: 2c53 1cbd cc96 c4b9 5233 b63d 2c8e 88bc
000000c0: a37d bbbd 25d2 50bd 7292 e73d 80fb 6a3d
000000d0: da33 9c3d 7007 e2bc b491 893e 23e1 83bd
000000e0: 1386 03bc fc1b 933d a7cb ec3d da80 febc
000000f0: 13f0 bb3c 14bb 953d bcb0 c8bc 48fd bc3d
00000100: f039 b83d 46c5 fd3d 5041 11bd 838c 7f3d
00000110: 6ec8 89bd 30cf 06be da3d 8fbc 8447 ac3d
00000120: 530b b53d b214 09bd 6027 3abd 8e58 e2bb
00000130: 5d3a 2dbd 0335 bb3c beb7 8f3d eecf abbd
00000140: 49f1 b63d b7f1 4bbe 3756 a03d 4116 753d
00000150: d046 83bc 57ff 35be ed25 df3d 1d29 693d
00000160: 2479 9c3d 7d46 143e 4054 53bb bd92 9abd
00000170: 1ac8 313d fd80 a63d a76e 86bd 1a0c 3fbb
00000180: aa5e 123e 6cf8 b5bd cc79 bb3c 63a2 b7bd
00000190: c2f9 08be b35d 92bd 0f58 cb3c e695 2b3d
000001a0: efac 66bd 4661 7d3d 05d2 d8bd 151c 673d
000001b0: 1b76 813d d4fa b7bd 8c35 fe3c f5ca e73c
000001c0: 4820 f7bc e07f 7e3d cb7c ff3d ec66 6d3c
000001d0: 799c d73d 71e5 763d 3aa1 8dbd 5f0a e93c
000001e0: b257 823d f120 55bd efab 343d f534 84bd
000001f0: f75c 28bd b98b 403e 60a6 f0bb 2094 193d
00000200: 8478 43be 54ae 44bd dd03 933d 0998 22be
00000210: efca 88bc 16ff b7bc 82bc 593d 453e 153e
00000220: 5d80 c6bc d35e ffbd 55e5 14be bb30 cf3b
00000230: 24e2 2bbd 1763 c1bd 0813 293d e7be 78bd
00000240: f377 83bd ab2f 3d3e fd2c 8b3d 3aa9 7c3c
00000250: 8185 acbd 2cfa 00be c3ef a6bd 3484 c2bd
00000260: 20f0 b8bd 1e62 aabd 0a81 ff3c 79fc 2abd
00000270: 44d4 c53d 7b54 0f3d c103 803d 5612 f3bc
00000280: e868 c1bc 3607 11be 751f 02bd 6b10 afbd
00000290: 603b 463e a923 fc3c e17e 1b3d c121 82bd
000002a0: f9eb 5fbd aecf 95bd 7ea4 293e 45dc 9a3d
000002b0: 716a 4d3d 9b0f 503d c851 d6bd 177c abbd
000002c0: 9508 ebbd ad97 92be 732b ae3d 9e2c b13d
000002d0: 9bd3 793d 4613 acbd 2c39 8c3c 2a06 5ebc
000002e0: 287d fcbd 69b0 023d 0339 0a3e a8e7 f2bd
000002f0: d5bc b4bd 5a5e 89bd c45a 33bc a3b9 f33d
00000300: a885 3b3b 48f0 52be b395 f8bd 890b 9dbc
00000310: f7c7 4cba 8c1d babd 0b09 4bbd f71f e7bd
00000320: 30a1 5dbc 4145 92bd a950 ccbc 63b5 1b3e
00000330: 03a6 48be 931a a2bc f684 ab3b 248f e2bc
00000340: 4ae4 203c daee 40bd 1c8b cbbc 7e15 bf3d
00000350: 6285 2e3e ca6f 91bd ceca e8bd 0d0e 64bd
00000360: c8f4 1b3e 99de 683d 3338 05be 0c07 14be
00000370: c6dc a83c 57dc 43bc 0ff3 71bd 64fc 433d
00000380: 2cb0 c9bd 670d 5a3d 7cdc 843c fd0b de3d
00000390: 928d 58be 1977 40bc 15bb d93d c32c e93c
000003a0: 02cc 53bc c75c 31be c9a9 86bb b821 653d
000003b0: 6234 19bd 24fd e0bc 2f53 853d c578 9abc
000003c0: fc62 373d 820c e4bb 3231 463d 5eb0 6cbe
000003d0: 0eb7 123d 7aa2 9abd a64f 493c 70cd 53be
000003e0: 8eef 423c 440b ad3d 7c09 1ebd 87c5 653d
000003f0: 38a8 db3d 5fa5 0dbe a530 48be 8292 d63d

fc.4.bias f4 [128]
0.09646442 0.10674538 0.075212196 0.09536532 0.05790688 -0.073604755 -0.0018627692 -0.06260783
0.113423325 -0.04999139 -0.093803816 -0.13428834 0.10421394 -0.041084234 0.08746389 0.07866137
-0.01728542 0.044119652 0.055432495 -0.048650112 0.062061194 -0.069211595 -0.0608518 -0.06650172
-0.012405537 0.11310294 -0.0383114 -0.10077046 -0.01379978 -0.054001335 0.01761274 0.044253267
-0.051291145 0.089958414 0.032931697 0.10675752 0.03704645 -0.034395356 0.101957835 0.02877773
-0.0013783076 -0.028321771 0.028378401 0.027315343 0.016352206 0.0653288 0.025123326 0.025250081
-0.0015449424 0.07578195 -0.011584921 0.023928571 -0.050258707 0.038238745 -0.04796507 0.00074068335
-0.02564752 0.039070945 0.038984 0.13108976 0.0800446 0.013727192 -0.055234775 0.036619075
-0.080909446 0.029544236 0.010005062 -0.06277826 0.0749382 -0.042908665 -0.056365646 0.023418006
-0.09052749 0.00067614915 0.067671835 0.042100467 -0.010912793 -0.063533425 0.002655929 0.11215433
0.04150496 0.05830251 -0.10881216 -0.061976325 0.0139180785 0.10177298 -0.032956503 0.047273185
0.04483365 -0.08631624 -0.08367644 -0.10390353 -0.044869374 -0.06234999 0.043171596 0.017093856
0.053549744 -0.04269576 -0.0011800985 -0.008681638 -0.0817773 -0.0494132 0.020118678 -0.039540444
-0.089819856 0.07164075 -0.022575498 -0.0073406245 0.066555455 0.08609027 0.08839058 0.08017395
0.048377067 0.07284427 -0.069171846 -0.08129828 0.022085166 -0.034269653 -0.025428928 -8.146995e-05
0.08482509 0.06938773 -0.08706252 -0.09787917 0.099026985 -0.092678234 0.002095479 -0.03350366
00000000: 238f c53d 529d da3d da08 9a3d e54e c33d
00000010: c42f 6d3d 17be 96bd 2a28 f4ba 8938 80bd
00000020: 7d4a e83d c6c3 4cbd 371c c0bd e282 09be
00000030: 1e6e d53d f147 28bd 4520 b33d 3619 a13d
00000040: 279a 8dbc cfb6 343d 2f0d 633d 5745 47bd
00000050: e133 7e3d cfbe 8dbd bd3f 79bd 0e32 88bd
00000060: 9840 4bbc 84a2 e73d 6aec 1cbd be60 cebd
00000070: 7918 62bc 8130 5dbd 9848 903c ea42 353d
00000080: aa16 52bd 1e3c b83d 63e3 063d b0a3 da3d
00000090: 05be 173d 25e2 0cbd 45cf d03d 46bf eb3c
000000a0: 54a8 b4ba 0f03 e8bc d279 e83c 6dc4 df3c
000000b0: 10f5 853c 1bcb 853d 6fcf cd3c 42d9 ce3c
000000c0: aa7f caba 9133 9b3d aece 3dbc da05 c43c
000000d0: 13dc 4dbd 3ba0 1c3d 0577 44bd 6b2a 423a
000000e0: bf1a d2bc db08 203d b0ad 1f3d 653c 063e
000000f0: 6cee a33d 04e8 603c dc3d 62bd e2fd 153d
00000100: dab3 a5bd c106 f23c 46ec 233c e391 80bd
00000110: 3379 993d ffc0 2fbd aadf 66bd 1ed7 bf3c
00000120: 7a66 b9bd 9a3f 313a 8897 8a3d 8a71 2c3d
00000130: 92cb 32bc d01d 82bd 180f 2e3b 2bb1 e53d
00000140: 1b01 2a3d 9dce 6e3d e9d8 debd e3da 7dbd
00000150: a708 643c 5a6e d03d 66fd 06bd 87a1 413d
00000160: 7da3 373d 92c6 b0bd 8e5e abbd 60cb d4bd
00000170: f3c8 37bd b462 7fbd b3d4 303d 6a08 8c3c
00000180: fa56 5b3d c0e1 2ebd 89ad 9aba 6e3d 0ebc
00000190: db7a a7bd 7f65 4abd edcf a43c 29f5 21bd
000001a0: 79f3 b7bd 63b8 923d 40f0 b8bc 9f89 f0bb
000001b0: 3a4e 883d 1850 b03d 1f06 b53d 3d32 a43d
000001c0: 0827 463d 602f 953d f8a9 8dbd b67f a6bd
000001d0: f3eb b43c 565e 0cbd 5450 d0bc d9da aab8
000001e0: c7b8 ad3d 271b 8e3d d64d b2bd e074 c8bd
000001f0: a9ce ca3d 16ce bdbd 4e54 093b 223b 09bd

fc.6.weight f4 [4, 128]
0.018950196 0.24339223 -0.1312638 0.11265802 -0.13287042 -0.20714764 -0.13807668 0.061070565
-0.068025656 0.071522824 -0.42222962 -0.2565812 -0.013610715 0.07805747 -0.05929905 0.09653314
0.089574076 -0.026874542 -0.21324688 -0.007566964 -0.030088933 -0.16574942 -0.024260923 -0.12258879
0.1699455 -0.006008206 0.042839117 -0.10674758 0.027796261 0.09031548 -0.15206113 -0.084811375
-0.33356705 -0.0443463 0.063177966 0.07929215 -0.2437591 -0.14893457 0.07162173 -0.05473029
-0.117887095 -0.027800966 0.04751082 -0.11404741 -0.10997262 0.006064171 0.16967928 0.03752332
0.0475978 0.042928528 0.13686892 -0.034589794 -0.060827397 0.061841033 -0.055663235 -0.11699511
-0.057847694 0.06646292 -0.0662826 0.11211374 -0.084080175 -0.1056342 -0.008294665 0.09145568
0.012603729 0.09645071 -0.23969886 -0.029647019 0.08436751 0.009866067 0.019706093 0.06134171
-0.012252285 -0.01951024 0.052243367 0.01651156 0.04414515 0.09443285 0.12599424 -0.08543545
-0.20646665 0.14846934 -0.07797223 -0.06709977 -0.11240283 0.0014337472 0.06531872 0.11367797
0.061990976 -0.0027270818 0.03266619 -0.2207211 0.118875645 0.0068717496 -0.1087554 -0.048052467
0.07786291 -0.030292166 0.04607861 0.08538955 -0.17967638 -0.035925504 -0.015231798 -0.015502632
-0.05076705 -0.15805301 -0.13318308 0.078182094 0.14834788 -0.047970332 -0.2041122 0.042327702
-0.04405761 0.0018654611 -0.09764589 0.124564245 -0.22609627 -0.018360844 -0.4950464 -0.13617167
0.05518896 0.10902931 -0.08564367 -0.08308185 -0.22529916 -0.12178256 0.00619106 -0.058393084
0.09121617 0.08355483 -0.095373176 0.06432895 0.06906818 0.1008563 0.07795558 -0.053525448
-0.0053870706 -0.11771365 0.052307405 0.07834863 0.050120164 -0.03434808 0.0077772597 -0.0357216
-0.105987996 0.06275391 0.013777287 -0.16076592 -0.26170245 0.049889617 0.08730834 -0.10903109
-0.14625855 -0.5308744 0.016172057 -0.087276675 0.06729619 -0.19956882 0.06698331 0.06498314
-0.1908205 0.010929868 -0.11469999 0.0027767126 0.02811791 0.043821417 -0.11464855 0.13822778
-0.13925064 0.07970551 -0.10931842 0.038295515 0.07723269 0.012587591 -0.07355322 0.047536097
-0.028283285 -0.042402633 -0.018581145 0.019211985 0.10035867 0.066922545 0.038361087 -0.03365923
-0.05497624 -0.09006033 0.032986473 0.05566686 -0.16385512 -0.087898634 -0.15294741 -0.0015273689
-0.32159692 0.09981356 0.167922 0.05677614 -0.03362103 0.01585958 0.08692036 -0.00066737825
-0.14005427 0.1282048 0.060317717 -0.041948047 -0.0053382763 -0.32439122 0.058908932 -0.06566305
-0.14115061 -0.14750765 -0.026036091 -0.07764781 -0.029708572 0.0629603 -0.0806528 0.06455651
-0.1270657 -0.102908835 -0.06430005 0.045102872 0.09694117 -0.07371938 -0.091696896 0.25056604
0.13002956 0.047103643 -0.04112143 0.10619932 -0.06579113 0.06030565 0.011123047 0.095428914
-0.02777714 -0.1439438 -0.010262644 -0.35064292 0.00708691 -0.13514264 0.30783144 0.10758293
0.016596502 0.08838031 -0.052199244 0.10828861 0.044661816 0.08309899 0.053174827 -0.0032106477
0.050051052 -0.060429562 -0.027749911 -0.026623474 -0.043831285 0.120898396 0.064169146 0.1405122
00000000: 713d 9b3c d03b 793e 056a 06be 3fb9 e63d
00000010: 2f0f 08be 831e 54be f963 0dbe 2125 7a3d
00000020: 0951 8bbd 8f7a 923d 7b2e d8be 9c5e 83be
00000030: 7aff 5ebc 98dc 9f3d 90e3 72bd 2bb3 c53d
00000040: 9d72 b73d 0028 dcbc 645d 5abe 4bf4 f7bb
00000050: 117d f6bc 37ba 29be d8be c6bc d50f fbbd
00000060: 3106 2e3e 7ce0 c4bb 1278 2f3d 7a9e dabd
00000070: fcb4 e33c 53f7 b83d eab5 1bbe 96b1 adbd
00000080: 4dc9 aabe 77a4 35bd 7363 813d ec63 a23d
00000090: fc9b 79be 4e82 18be 6aae 923d de2c 60bd
000000a0: ca6e f1bd dabe e3bc b59a 423d b091 e9bd
000000b0: 5339 e1bd f4b5 c63b 68c0 2d3e 0eb2 193d
000000c0: e9f5 423d d3d5 2f3d 5e27 0c3e 07ae 0dbd
000000d0: 2626 79bd 064d 7d3d 22ff 63bd 229b efbd
000000e0: b4f1 6cbd b61d 883d 2cbf 87bd e39b e53d
000000f0: 3a32 acbd be56 d8bd 59e6 07bc 1e4d bb3d
00000100: df7f 4e3c f387 c53d 9e73 75be 4ede f2bc
00000110: e0c8 ac3d 49a5 213c ac6e a13c 7241 7b3d
00000120: cfbd 48bc f0d3 9fbc 24fd 553d 4043 873c
00000130: 8bd1 343d 0366 c13d a204 013e c8f8 aebd
00000140: fe6b 53be 5908 183e e8af 9fbd 9b6b 89bd
00000150: 7433 e6bd 93ec bb3a d2c5 853d ffcf e83d
00000160: 40ea 7d3d d7b8 32bb fccc 053d b604 62be
00000170: 1375 f33d 6a2c e13b 27bb debd aad2 44bd
00000180: 9776 9f3d 4727 f8bc edbc 3c3d b7e0 ae3d
00000190: 16fd 37be 9f26 13bd cb8e 79bc c0fe 7dbc
000001a0: 1cf1 4fbd a6d8 21be 2561 08be ef1d a03d
000001b0: 82e8 173e 8a7c 44bd ca02 51be d05f 2d3d
000001c0: c175 34bd 7d82 f43a 92fa c7bd 8a1b ff3d
000001d0: c885 67be 7b69 96bc b976 fdbe 9670 0bbe
000001e0: d20d 623d c24a df3d f365 afbd d126 aabd
000001f0: d3b4 66be 2369 f9bd 60de ca3b 962d 6fbd
00000200: 8bcf ba3d cb1e ab3d 0353 c3bd e6be 833d
00000210: 9e73 8d3d bf8d ce3d 2da7 9f3d 803d 5bbd
00000220: 0686 b0bb db13 f1bd 4a40 563d 3f75 a03d
00000230: cd4a 4d3d 93b0 0cbd 62d8 fe3b d050 12bd
00000240: 3c10 d9bd 1f85 803d 21ba 613c d29f 24be
00000250: ddfd 85be 0e59 4c3d b7ce b23d b14b dfbd
00000260: cdc4 15be 62e7 07bf 437b 843c 1dbe b2bd
00000270: 96d2 893d c55b 4cbe 8c2e 893d e115 853d
00000280: 7366 43be 3013 333c d4e7 eabd 82f9 353b
00000290: 8857 e63c 167e 333d dccc eabd 958b 0d3e
000002a0: b897 0ebe a43c a33d 56e2 dfbd c2db 1c3d
000002b0: 2c2c 9e3d 2f3c 4e3c 12a3 96bd 36b5 423d
000002c0: 59b2 e7bc 62ae 2dbd 7c37 98bc 7462 9d3c
000002d0: d988 cd3d b00e 893d 8420 1d3d 43de 09bd
000002e0: c42e 61bd 8d71 b8bd d31c 073d ef02 643d
000002f0: a3c9 27be 3304 b4bd 3f9e 1cbe ff31 c8ba
00000300: 5aa8 a4be 0d6b cc3d bff3 2b3e 198e 683d
00000310: 35b6 09bd f3eb 813c 4d03 b23d fff2 2eba
00000320: 636a 0fbe 1e48 033e b60f 773d b7d1 2bbd
00000330: b5ec aebb 9b16 a6be 7e4a 713d 597a 86bd
00000340: c989 10be 3f0c 17be a449 d5bc d105 9fbd
00000350: 645f f3bc 54f1 803d 4c2d a5bd 3436 843d
00000360: 831d 02be dec1 d2bd bfaf 83bd cabd 383d
00000370: 1889 c63d 30fa 96bd 95cb bbbd 314a 803e
00000380: 7826 053e c0ef 403d f26e 28bd 077f d93d
00000390: 80bd 86bd 0f03 773d 713d 363c 3c70 c33d
000003a0: e28c e3bc 0166 13be a624 28bc 7887 b3be
000003b0: 4f39 e83b d562 0abe 159c 9d3e 7054 dc3d
000003c0: 63f5 873c bc00 b53d e0ce 55bd 6bc6 dd3d
000003d0: 4fef 363d ce2f aa3d d9cd 593d bb69 52bb
000003e0: 5502 4d3d fd84 77bd c853 e3bc 7919 dabc
000003f0: 6f88 33bd 9499 f73d 1d6b 833d 6ee2 0f3e

fc.6.bias f4 [4]
0.015673887 -0.018848633 -0.041371167 -0.044899248
00000000: 8666 803c 7368 9abc d074 29bd 46e8 37bd
